checkpoint_actor.pth (torch_old, 81931 bytes, 10 tensors)

fc1.weight f4 [128, 24]
0.65007585 -0.32380953 0.2437917 -0.012516482 -0.045636542 0.49952894 0.3553047 0.05991693
0.783537 -0.110162236 0.41327104 -0.14509532 0.08063138 -0.06839362 0.16095167 -0.2481761
0.7955695 -0.2735333 0.20309511 0.1287827 0.045375682 -0.43157873 0.10045388 0.00025188123
0.11318037 0.06848897 0.05411289 0.121165656 -0.46753338 0.2526656 0.005678403 -0.17335135
-0.016413093 0.009957753 -0.033441663 -0.20015764 -0.11563382 -0.28409666 -0.09056658 -0.18554991
-0.16797334 -0.002323402 0.027962865 -0.061977938 0.4998603 -0.5335323 -0.0037135642 -0.012511289
0.3439236 -0.47078338 0.2407616 0.20579931 -0.34435418 -0.116248004 0.0634205 0.27063385
0.37417427 -0.45667985 0.015122111 0.15981394 -0.38758075 0.12588102 0.020529453 0.19879803
0.51989716 -0.6386349 0.076981746 -0.17221317 -0.510418 0.30309966 0.13514337 -0.11500968
0.37360445 0.72021204 0.00030222852 0.1501491 0.19484068 0.41022712 -0.18801793 0.43084043
0.05593274 0.5685923 0.18965797 0.07666443 -0.14991997 0.29549694 0.23947994 -0.0784499
-0.07247002 0.3930279 -0.02064713 0.06469828 -0.25397396 -0.36048678 0.16733515 0.14693744
-0.15936759 -0.32236615 -0.09106056 0.30328348 0.3553405 0.41820785 -0.13560641 -0.052084163
0.008148194 -0.2647368 -0.037635855 0.116931975 0.14196219 -0.05732346 0.01704584 0.05150606
0.3071522 -0.21089697 0.2507443 -0.05199578 -0.2799852 -0.15903549 0.23427346 -0.011554823
-0.24078321 -0.7325459 0.15984298 0.119301885 -0.0944349 -0.3764446 0.21173088 0.16511771
0.08923962 -0.4522176 -0.083387144 0.058843184 0.007615517 0.1061053 0.14840902 0.08442519
0.37727967 -0.365862 0.03578489 0.093408406 -0.10130656 0.7221627 -0.044401623 0.12065659
0.37632632 0.34675074 -0.16014655 0.5189809 0.5465436 -0.06924136 -0.14121337 0.41834897
-0.017484147 0.63939285 0.013727314 0.49981534 0.34247804 0.10182583 0.41557404 0.43569407
-0.36356652 0.20210668 -0.1565531 -0.19143419 0.48634937 -0.23855339 0.15471987 -0.20154323
0.36912835 0.062394995 0.2147982 0.59714 0.28594822 0.1889434 0.08717899 0.866708
0.10426989 0.20124981 0.14681208 0.72612953 0.18990393 -0.15012538 -0.049063224 0.55110264
0.3348007 0.1516875 0.058504876 -0.0047322777 0.31588852 -0.6325352 0.2141176 0.084389195
0.117641784 0.34855634 -0.04634799 0.4068681 0.1419345 -0.02856973 -0.0026646447 0.053560395
-0.18804935 0.34036252 0.051685467 0.32880044 0.107909225 0.39122593 0.260425 0.17298073
-0.7253842 0.19508404 -0.17443092 0.3058086 0.26471168 0.7671333 -0.081766814 0.41256207
0.2789303 -0.1856595 0.17912048 0.49654016 0.055781227 -0.4539486 0.078912914 0.088146165
0.40055388 -0.11543737 0.22316389 0.16778763 0.25427324 -0.009428182 0.29278943 0.4953484
0.59186184 -0.08242613 0.14732088 0.094506435 0.05868712 0.697776 0.2700576 0.20473194
-0.098863095 -0.5397599 -0.33523718 0.11164341 -0.41526198 0.19182938 -0.28367355 0.022739967
-0.0032685734 -0.4093239 -0.12902857 -0.037387606 0.04631772 0.009374295 -0.028155738 0.25167376
00000000: 5f6b 263f 5dca a5be 88a4 793e ee11 4dbc
00000010: 62ed 3abd 42c2 ff3e 7fea b53e 746b 753d
00000020: e195 483f bd9c e1bd 4398 d33e de93 14be
00000030: 1122 a53d f411 8cbd 84d0 243e e021 7ebe
00000040: 71aa 4b3f 8f0c 8cbe 2af8 4f3e 9ddf 033e
00000050: dadb 393d e3f7 dcbe c4ba cd3d ed0e 8439
00000060: 1ccb e73d f243 8c3d 7aa5 5d3d b325 f83d
00000070: 8960 efbe 635d 813e e611 ba3b 0483 31be
00000080: c074 86bc d825 233c 20fa 08bd 20f6 4cbe
00000090: 6dd1 ecbd 1e75 91be f97a b9bd cc00 3ebe
000000a0: 3401 2cbe 3844 18bb 6112 e53c 94dc 7dbd
000000b0: b0ed ff3e 9395 08bf 455f 73bb 26fc 4cbc
000000c0: c116 b03e 850a f1be 358a 763e 0ebd 523e
000000d0: 314f b0be 6f13 eebd 9be2 813d 8590 8a3e
000000e0: c593 bf3e f1d1 e9be bbc2 773c 44a6 233e
000000f0: fc70 c6be f4e6 003e 622d a83c b691 4b3e
00000100: fb17 053f 947d 23bf 9ba8 9d3d a658 30be
00000110: c1aa 02bf e12f 9b3e 0663 0a3e 328a ebbd
00000120: 1549 bf3e d15f 383f 6d74 9e39 b0c0 193e
00000130: 5184 473e 4a09 d23e c687 40be 1e97 dc3e
00000140: bb19 653d 448f 113f b335 423e 3e02 9d3d
00000150: 9f84 19be 604b 973e 3b3a 753e 57aa a0bd
00000160: 296b 94bd f43a c93e 2c24 a9bc 8880 843d
00000170: e008 82be b991 b8be e859 2b3e c576 163e
00000180: 4231 23be 2d0d a5be f57d babd f947 9b3e
00000190: 31ef b53e 571f d63e 68dc 0abe 3456 55bd
000001a0: 0180 053c 958b 87be 0e28 1abd 087a ef3d
000001b0: 895e 113e 01cc 6abd b8a3 8b3c 05f8 523d
000001c0: 0e43 9d3e 60f5 57be 8f61 803e 87f9 54bd
000001d0: 385a 8fbe 33da 22be 62e5 6f3e 7150 3dbc
000001e0: e08f 76be 2188 3bbf e1ad 233e 8c54 f43d
000001f0: 1667 c1bd 59bd c0be fbcf 583e 9e14 293e
00000200: 43c3 b63d 1189 e7be e1c6 aabd 8d05 713d
00000210: 968b f93b bc4d d93d 89f8 173e 1de7 ac3d
00000220: cd2a c13e 4452 bbbe 2d93 123d e84c bf3d
00000230: d079 cfbd a8df 383f 7ade 35bd cd1a f73d
00000240: d8ad c03e 5089 b13e 75fd 23be efdb 043f
00000250: 48ea 0b3f 6ace 8dbd 3d9a 10be d631 d63e
00000260: ea3a 8fbc 40af 233f 87e8 603c cce7 ff3e
00000270: 4859 af3e 108a d03d 1fc6 d43e 4b13 df3e
00000280: 6425 babe 0ef5 4e3e 754f 20be 5307 44be
00000290: c902 f93e 5747 74be e36e 1e3e 5961 4ebe
000002a0: 64fe bc3e e591 7f3d 0ff4 5b3e 2bde 183f
000002b0: ce67 923e 617a 413e e68a b23d 93e0 5d3f
000002c0: 748b d53d 6e14 4e3e e855 163e a0e3 393f
000002d0: 2d76 423e 78ba 19be 85f6 48bd 1015 0d3f
000002e0: ff6a ab3e f853 1b3e cfa2 6f3d 3911 9bbb
000002f0: 24bc a13e d4ed 21bf a541 5b3e 3ed4 ac3d
00000300: 2dee f03d fa75 b23e 64d7 3dbd 0451 d03e
00000310: 4757 113e 110b eabc 52a1 2ebb 2562 5b3d
00000320: 0290 40be ff43 ae3e 24b4 533d 8858 a83e
00000330: 83ff dc3d c44e c83e 6d56 853e dc21 313e
00000340: c7b2 39bf 1cc4 473e 059e 32be f292 9c3e
00000350: 4a88 873e d962 443f 5c75 a7bd 563b d33e
00000360: f4cf 8e3e 861d 3ebe 5c6b 373e 833a fe3e
00000370: db7a 643d f36b e8be 189d a13d fa85 b43d
00000380: 6615 cd3e 6e6a ecbd 1385 643e 85d0 2b3e
00000390: 1a30 823e a978 1abc 7fe8 953e 4e9e fd3e
000003a0: 4284 173f 08cf a8bd 49db 163e 978c c13d
000003b0: e861 703d 73a1 323f fd44 8a3e 40a5 513e
000003c0: bc78 cabd b42d 0abf 35a4 abbe 4da5 e43d
000003d0: 389d d4be ec6e 443e a93d 91be 2b49 ba3c
000003e0: 9035 56bb e792 d1be 1120 04be bf23 19bd
000003f0: a6b7 3d3d a596 193c dda6 e6bc 62db 803e

fc1.bias f4 [128]
0.093724236 0.2307231 -0.24897765 -0.5311038 0.3271607 0.06921753 -0.81089187 -0.70412546
-0.44364297 0.06204107 0.29294726 -0.15140873 -0.08494275 -0.3333374 -0.04379325 -0.27954298
-0.48708794 -0.13088357 -0.16139886 0.1593602 -0.48396057 0.0133468 -0.41351628 -0.24350627
-0.663379 0.21957824 -0.3341227 -0.3066821 -0.5161962 -0.17200132 0.06567794 -0.1827554
0.071978755 -0.4973787 -0.52496225 0.10201796 0.04195739 0.101360135 -0.22898333 -0.16572967
-0.5809011 -0.20132945 -0.48101813 -0.076532215 -0.3803238 -0.19462134 -0.14067237 -0.36705115
0.043685324 -0.295431 -0.47367442 -0.4953161 -0.29709592 -0.60737866 -0.18862528 -0.16790281
-0.1238945 0.12844661 0.047019098 0.0025097213 0.1863236 -0.12416905 -0.11129162 0.40184647
-0.33934805 -0.22499605 -0.7049085 -0.3639087 -0.26369104 0.21222164 -0.08172116 -0.20309001
-0.2370833 -0.09976918 -0.31737292 -0.08637664 -0.51565987 -0.21452013 -0.26022816 -0.2733642
-0.2959354 -0.5213632 -0.044534888 -0.29504272 -0.042595744 -0.2968666 -0.34780854 -0.32002008
0.37249506 0.24543783 -0.28532335 -0.00010525152 -0.5262971 0.41078532 -0.23289393 -0.00025304494
-0.14423575 -0.30103335 -0.23462519 0.23854005 -0.28364864 -0.027614992 0.03187705 -0.08560562
-0.2673093 0.059355695 -0.09054314 -0.74406797 0.19354035 -0.07800826 -0.41643542 -0.3066918
-0.21935494 -0.030132478 -0.41073802 -0.47328088 -0.34449142 -0.090320066 -0.28221512 -0.25860918
-0.017373424 0.1539697 -0.18341736 -0.30126983 -0.32890588 -0.11546142 -0.48632887 -0.7457259
00000000: 7ef2 bf3d ad42 6c3e fff3 7ebe 6bf6 07bf
00000010: 9b81 a73e ecc1 8d3d 9c96 4fbf 9141 34bf
00000020: 2c25 e3be c71e 7e3d 2ffd 953e e40a 1bbe
00000030: 77f6 adbd 33ab aabe 8d60 33bd 4220 8fbe
00000040: 9763 f9be 5806 06be be45 25be 522f 233e
00000050: aec9 f7be 89ac 5a3c 68b8 d3be b559 79be
00000060: 35d3 29bf 1ed9 603e 2112 abbe 7005 9dbe
00000070: 6f25 04bf 1d21 30be 2882 863d 3b24 3bbe
00000080: 9969 933d 6ca8 febe ed63 06bf cbee d03d
00000090: 83db 2b3d e795 cf3d 9b7a 6abe 0ab5 29be
000000a0: efb5 14bf 4f29 4ebe 0248 f6be ecbc 9cbd
000000b0: cdb9 c2be d14a 47be 6b0c 10be 21ee bbbe
000000c0: 62ef 323d bb42 97be 7485 f2be 129a fdbe
000000d0: f51c 98be 2b7d 1bbf fc26 41be b7ee 2bbe
000000e0: 66bc fdbd 8287 033e 1997 403d 237a 243b
000000f0: 9dcb 3e3e 584c febd dcec e3bd d2be cd3e
00000100: 07bf adbe 5d65 66be e274 34bf 3e52 babe
00000110: 8302 87be a150 593e 6c5d a7bd d4f6 4fbe
00000120: f7c5 72be c953 ccbd b47e a2be 3ce6 b0bd
00000130: 4902 04bf 2aab 5bbe a03c 85be 64f6 8bbe
00000140: d884 97be 0f78 05bf 376a 36bd d70f 97be
00000150: e078 2ebd e6fe 97be f613 b2be acd9 a3be
00000160: acb7 be3e 0e54 7b3e e715 92be 7bba dcb8
00000170: 68bb 06bf 7452 d23e bf7b 6ebe 1eab 84b9
00000180: 89b2 13be 0b21 9abe 9641 70be d843 743e
00000190: 653a 91be d638 e2bc 8291 023d 0052 afbd
000001a0: c4dc 88be f51e 733d af6e b9bd 3d7b 3ebf
000001b0: 712f 463e cbc2 9fbd 0637 d5be b506 9dbe
000001c0: 959e 60be 63d8 f6bc 414c d2be df51 f2be
000001d0: 2e61 b0be baf9 b8bd 807e 90be 6c68 84be
000001e0: b652 8ebc 3caa 1d3e c3d1 3bbe 0a40 9abe
000001f0: 5a66 a8be 0977 ecbd 1900 f9be e5e7 3ebf

fc2.weight f4 [128, 128]
-0.08875643 -0.12793575 -0.17101575 -0.22978832 0.030128313 -0.06521713 -0.16720343 -0.10509298
-0.1327188 -0.016393151 -0.22085886 -0.09480795 -0.13318522 -0.14226185 0.03208205 -0.08890186
-0.20003036 -0.2275142 -0.0717621 -0.047569577 0.0015208727 -0.06510382 -0.070467085 -0.039420467
-0.23050219 -0.26107433 -0.27236646 -0.030438827 -0.15372337 -0.124350645 -0.06347375 -0.21770228
-0.063098155 -0.11486239 -0.23136221 0.034799844 0.05668422 -0.21729957 -0.033791088 -0.08939246
-0.07705772 -0.044726197 0.1169072 -0.35606346 -0.0006737059 -0.124106035 -0.051581103 -0.18186486
0.013569604 -0.12410633 -0.13612643 -0.1619747 -0.12024037 -0.15957291 -0.20155855 -0.0019524227
-0.009178877 -0.2913616 0.14264883 -0.06471201 0.0073346407 0.13198732 -0.05538893 0.05886528
-0.2296524 -0.17524453 -0.16135803 -0.07548589 -0.3158391 0.06483767 0.0022845871 -0.060481545
-0.20202981 -0.18258992 -0.12094651 0.06714106 -0.104054354 -0.076684244 -0.080271766 -0.09591221
-0.20642982 -0.21909875 -0.2893498 -0.09518406 -0.077904046 -0.012971366 -0.047250617 -0.08682432
-0.13347475 -0.12372535 -0.2813608 0.008590272 -0.12850088 0.015377773 -0.028060997 -0.18835407
-0.027798204 -0.15253228 -0.15573122 -0.05089853 -0.06538959 0.170615 0.024968972 0.17644963
-0.15580332 0.00934588 -0.18784429 0.00032569817 0.07595079 -0.07930093 -0.105703 -0.017292272
-0.0712606 -0.0920818 -0.12525621 -0.11552907 -0.24362786 -0.19224578 -0.09364607 -0.13851357
-0.04221029 -0.1291905 -0.053004038 -0.07962925 -0.0059298556 -0.40057224 -0.17133829 -0.047987636
0.35901752 0.08669714 -0.0153574245 0.045164112 -0.04547489 -0.3521015 0.16820705 0.10158304
0.24264862 -0.44201186 -0.10788469 0.20249668 0.29483616 -0.12521835 -0.26074728 -0.18431954
-0.23500139 -0.11074827 -0.2780452 -0.49892277 0.018057039 0.4468616 0.16726431 0.027348334
0.35202634 -0.5825893 0.12810469 0.45244423 -0.63124615 -0.34066767 -0.61245006 -0.23462044
-0.24645177 0.1120978 -0.14449327 0.13988629 0.24473625 0.16273016 -0.9950008 -0.15804112
-0.511373 -0.122473285 -0.29251844 0.3158501 0.20856096 -0.18407364 -0.48236367 0.12798363
0.011917174 0.054937445 -0.08027615 0.101125896 0.31320652 -0.064014636 0.20487645 0.39415038
0.077456824 0.122061715 0.07812515 -0.5188063 -0.13443196 -0.119825505 0.20249377 0.032704536
0.1501038 0.045914583 0.2255162 -0.123219945 0.05372646 0.0154322125 0.26238096 0.054626595
0.07979169 -0.11184919 -0.4304997 -0.6986812 -0.7670845 -0.7134085 -0.8804786 -0.5971826
0.20253201 0.7040313 -0.19532833 -1.1906085 -0.018512934 0.21433212 0.30774054 0.16262361
-0.6180688 -0.1333879 0.37721232 -1.0184342 0.30561736 -0.5209374 -0.05356528 -0.040127926
0.2017172 0.023465503 0.38985202 -0.17815055 -0.18740594 0.2865196 0.23551685 -0.3652098
-0.66245985 0.08583887 -0.22254905 0.14051184 -0.44883546 0.021509325 0.15094359 -0.11526206
-0.48077193 0.23863785 0.36102614 -0.17445436 -0.028034994 0.20629838 0.38967532 -0.08132451
-0.0093069635 -0.39925596 0.12574732 -0.3434901 0.3262261 0.41138 -0.1588723 -0.47131234
00000000: eec5 b5bd 9701 03be c11e 2fbe a14d 6bbe
00000010: a7cf f63c 8f90 85bd 6037 2bbe fd3a d7bd
00000020: 70e7 07be ee4a 86bc d328 62be ac2a c2bd
00000030: b561 08be 17ad 11be 7868 033d 2e12 b6bd
00000040: c2d4 4cbe 7cf9 68be 02f8 92bd 51d8 42bd
00000050: 0558 c73a 2755 85bd 0c51 90bd 5b77 21bd
00000060: c408 6cbe 89ab 85be 9e73 8bbe d95a f9bc
00000070: a969 1dbe 8dab febd 87fe 81bd 59ed 5ebe
00000080: 9b39 81bd f93c ebbd 37ea 6cbe 488a 0e3d
00000090: b62d 683d c783 5ebe 8668 0abd 6513 b7bd
000000a0: 70d0 9dbd d132 37bd 0b6d ef3d f34d b6be
000000b0: a39b 30ba 4e2b febd b546 53bd c83a 3abe
000000c0: 0b53 5e3c 762b febd ba64 0bbe b2dc 25be
000000d0: 9540 f6bd 1567 23be 5d65 4ebe 6fe8 ffba
000000e0: 0063 16bc 592d 95be 8912 123e bb87 84bd
000000f0: 6d57 f03b af27 073e 81df 62bd b81c 713d
00000100: 002a 6bbe 4d73 33be 0a3b 25be 5998 9abd
00000110: aab5 a1be 9dc9 843d 03b9 153b 7fbb 77bd
00000120: e7e0 4ebe daf8 3abe ceb2 f7bd 4181 893d
00000130: 731a d5bd a10c 9dbd 8665 a4bd 9f6d c4bd
00000140: 5762 53be 6c5b 60be a825 94be dcef c2bd
00000150: 288c 9fbd da85 54bc dd89 41bd f3d0 b1bd
00000160: 9bad 08be b763 fdbd 860e 90be 36be 0c3c
00000170: bc95 03be 0ef3 7b3c 2de0 e5bc e4df 40be
00000180: 0fb9 e3bc 6c31 1cbe 0178 1fbe fa7a 50bd
00000190: faea 85bd b3b5 2e3e bb8b cc3c 36af 343e
000001a0: e88a 1fbe 761f 193c 415a 40be 78c2 aa39
000001b0: 168c 9b3d 8768 a2bd d17a d8bd 86a8 8dbc
000001c0: 14f1 91bd 6295 bcbd 2a43 00be 819a ecbd
000001d0: 9579 79be 14dc 44be 83c9 bfbd 80d6 0dbe
000001e0: b2e4 2cbd 844a 04be c31a 59bd a914 a3bd
000001f0: 3c4f c2bb ce17 cdbe 4e73 2fbe af8e 44bd
00000200: 25d1 b73e 458e b13d b59d 7bbc 01fe 383d
00000210: e143 3abd a646 b4be 783e 2c3e c50a d03d
00000220: e178 783e 614f e2be a6f2 dcbd 4a5b 4f3e
00000230: c4f4 963e 3d39 00be ab80 85be 43be 3cbe
00000240: 34a4 70be fdcf e2bd f15b 8ebe ce72 ffbe
00000250: 5bec 933c 0bcb e43e 5647 2b3e 9d09 e03c
00000260: cc3c b43e 9324 15bf e02d 033e c5a6 e73e
00000270: 5999 21bf fe6b aebe 87c9 1cbf 5740 70be
00000280: da5d 7cbe 8893 e53d 0bf6 13be 5a3e 0f3e
00000290: 249c 7a3e bca2 263e 5fb8 7ebf 88d5 21be
000002a0: 57e9 02bf 46d3 fabd fac4 95be 1bb7 a13e
000002b0: 0191 553e cd7d 3cbe 5ff8 f6be 240e 033e
000002c0: 4040 433c 1606 613d d267 a4bd 181b cf3d
000002d0: 9b5c a03e 1b1a 83bd 22cb 513e 14ce c93e
000002e0: afa1 9e3d 7efb f93d 1400 a03d 7dd0 04bf
000002f0: 88a8 09be 1367 f5bd 875a 4f3e 31f5 053d
00000300: d0b4 193e ee10 3c3d b8ed 663e bd5a fcbd
00000310: 4710 5c3d 64d7 7c3c cc56 863e 23c0 5f3d
00000320: d369 a33d 3011 e5bd 756a dcbe c5dc 32bf
00000330: a65f 44bf f1a1 36bf 0c67 61bf f5e0 18bf
00000340: 8d64 4f3e 653b 343f 2604 48be dc65 98bf
00000350: 70a8 97bc e179 5b3e 2b90 9d3e ce86 263e
00000360: c239 1ebf d696 08be f921 c13e 0d5c 82bf
00000370: e179 9c3e 275c 05bf 4467 5bbd 2e5d 24bd
00000380: f48e 4e3e ba3a c03c af9a c73e 196d 36be
00000390: 58e7 3fbe b2b2 923e 542b 713e c7fc babe
000003a0: f896 29bf 4acc af3d e6e3 63be 56e2 0f3e
000003b0: c3cd e5be 5334 b03c f590 1a3e 840e ecbd
000003c0: bd27 f6be 7b5d 743e 6bd8 b83e 2aa4 32be
000003d0: a5a9 e5bc e23f 533e 8683 c73e 778d a6bd
000003e0: 3c7c 18bc 476b ccbe e8c3 003e efdd afbe
000003f0: 1b07 a73e 66a0 d23e 6caf 22be da4f f1be

fc2.bias f4 [128]
0.076517336 -0.02985514 0.21352927 -0.10945067 -0.029674482 -0.27910614 -0.006944077 -0.0071668806
0.070785806 -0.027397195 0.057547443 -0.045405935 -0.09135142 -0.07871428 0.030524809 -0.019766005
-0.05895161 -0.1186144 -0.14268643 -0.014253346 0.049141146 -0.33739942 -0.5198348 0.009959772
-0.40564358 0.036941364 -0.30341467 -0.0689027 -0.08693712 0.013540379 0.023630103 0.056552
-0.14763626 -0.00686412 0.052126218 -0.012330036 -0.083278626 0.0036702654 -0.17733657 0.02714188
-0.13324732 -0.21111287 -0.30233687 -0.091754824 -0.13912496 -0.052390426 -0.22931854 -0.24267927
-0.16554514 -0.18005691 -0.06747634 0.027334658 -0.2055243 -0.0076842685 -0.15721041 0.06434724
-0.14097852 0.2208281 -0.017981274 -0.320639 -0.055221148 -0.018218484 -0.03279939 -0.41946647
-0.0866425 -0.09501279 -0.0327214 -0.07232993 -0.13607308 -0.18769686 -0.26398042 -0.048290994
0.052800722 -0.18152471 -0.042191952 0.006182097 -0.07538668 0.054136716 -0.16846314 -0.20457184
-0.2973663 0.0068250704 -0.3579243 -0.095537506 0.038710356 -0.382784 -0.15917966 -0.013014129
-0.061463106 -0.002432237 -0.16522707 -0.32717055 0.0017392982 -0.11945103 -0.040119316 0.02031585
-0.017261978 -0.21658999 0.08969553 -0.09969497 0.051318094 -0.060650814 -0.004798708 -0.06248777
0.04031489 -0.2120646 0.0009233851 -0.11230795 -0.08291215 -0.15473795 -0.25677803 0.04491083
-0.058167547 -0.058599953 -0.08811179 -0.3724787 -0.06980153 0.16998684 0.021250417 -0.19814813
-0.040263023 -0.051094424 0.016538346 0.05269046 -0.048710313 0.052714277 0.1711558 -0.33612064
00000000: 1fb5 9c3d c492 f4bc 6ba7 5a3e ac27 e0bd
00000010: e617 f3bc 00e7 8ebe 248b e3bb 27d8 eabb
00000020: 26f8 903d 1570 e0bc deb6 6b3d 93fb 39bd
00000030: 7416 bbbd f434 a1bd 2a0f fa3c 51ec a1bc
00000040: 3e77 71bd 1bec f2bd 641c 12be de86 69bc
00000050: 3a48 493d 9ebf acbe e513 05bf 502e 233c
00000060: 84b0 cfbe d44f 173d 2b59 9bbe dc1c 8dbd
00000070: 170c b2bd 77d8 5d3c eb93 c13c 12a3 673d
00000080: f62d 17be 69ec e0bb 4d82 553d eb03 4abc
00000090: fc8d aabd d688 703b b897 35be a658 de3c
000000a0: fc71 08be f92d 58be e6cb 9abe f4e9 bbbd
000000b0: c676 0ebe 5897 56bd 7bd2 6abe ea80 78be
000000c0: aa84 29be d760 38be 0931 8abd efec df3c
000000d0: f674 52be 51cc fbbb c4fb 20be 7cc8 833d
000000e0: ac5c 10be c320 623e 774d 93bc cc2a a4be
000000f0: 922f 62bd ee3e 95bc a758 06bd 4fc4 d6be
00000100: 9f71 b1bd 1196 c2bd e006 06bd b721 94bd
00000110: be56 0bbe 9b33 40be 7128 87be c7cc 45bd
00000120: 9245 583d 9de1 39be 78d1 2cbd 3093 ca3b
00000130: 5564 9abd 76be 5d3d 9a81 2cbe 487b 51be
00000140: 6540 98be d7a4 df3b db41 b7be 2ba9 c3bd
00000150: c08e 1e3d 44fc c3be feff 22be 3739 55bc
00000160: bdc0 7bbd 2a66 1fbb 4931 29be e682 a7be
00000170: 2af9 e33a bea2 f4bd 2754 24bd 6d6d a63c
00000180: fe68 8dbc c4c9 5dbe 4ab2 b73d e02c ccbd
00000190: ec32 523d fd6c 78bd 7b3e 9dbb 2df3 7fbd
000001a0: 3a21 253d 7627 59be 530f 723a b601 e6bd
000001b0: d8cd a9bd a073 1ebe 6978 83be 6bf4 373d
000001c0: 1841 6ebd 8106 70bd f473 b4bd 87b5 bebe
000001d0: 1bf4 8ebd 0811 2e3e 5b15 ae3c 58e7 4abe
000001e0: d7ea 24bd 6348 51bd 6d7b 873c f4d1 573d
000001f0: 7784 47bd edea 573d 7743 2f3e 0118 acbe

fc3.weight f4 [2, 128]
0.14282607 0.5565828 -2.6762726 -0.15822269 0.043210242 1.4568479 0.21147792 0.5503504
0.086771086 0.26881576 0.040555075 -0.019590832 1.6974592 -0.4408091 0.09836541 -0.049150106
0.0838891 0.024926297 -0.09150493 0.10768588 0.06642326 2.6451352 1.9358647 0.06729544
-1.9000591 0.03848989 0.8755636 0.14460471 1.0954667 0.50537425 0.13960923 -0.408298
-0.50436187 0.15243053 0.19673695 0.10865057 -0.101752065 0.106485106 -1.1771699 0.11499066
-1.4776921 -0.20144148 -0.6543669 0.004498513 -0.055995245 0.25466672 -0.20552588 0.10398305
1.6381092 0.016659638 0.21956891 0.17947388 -1.267188 0.104432516 1.2305694 0.07431491
-0.083295695 -0.08406396 -0.6147653 0.5040283 0.12866196 0.0024893398 2.2739775 1.4980688
0.14632246 -0.023871511 0.16610317 0.118784145 -0.5652401 0.19288957 0.93765914 -0.29711494
0.050282244 0.91234 0.084879555 1.3367819 -0.020518892 0.058023702 -0.0008643768 0.20939524
0.04582759 0.047046322 -0.75798655 -0.047718573 0.92028385 2.4291801 0.32420528 0.14206403
0.3097018 -0.039037198 -0.35513216 0.70919 -0.01806119 1.1651117 -0.20299597 0.023618989
-0.017309995 -0.6550168 -0.026267836 -0.45861724 0.0015336021 -0.28340226 1.6914551 0.2386042
0.059827894 1.3767116 0.05143889 0.2881167 -1.0686384 2.839162 -2.7678828 0.41621932
0.017334836 0.14861792 0.011020348 -0.5312579 3.74385 -0.62508535 0.16612558 -0.2658575
-0.07527927 0.00482631 -0.096589394 0.09953369 -0.080757655 0.26416236 0.13943611 0.4604811
0.025392175 0.1099594 -1.9921844 0.07257138 -0.019330742 -0.10591803 -0.03386563 0.0042592343
0.072834246 -0.08891535 0.010816514 0.037518702 0.032954644 -2.5920045 0.016213331 -0.1353969
-2.655915 -0.13969941 -4.191346 0.0047771814 0.012279284 -0.08030331 -0.04935479 0.018391915
-0.15755217 0.05431648 -0.09487615 0.040453423 0.37727538 0.16608176 0.00090250175 0.046289686
0.058928218 0.008991561 0.077035636 -0.01575514 0.09101232 0.019919207 -0.11106675 0.008574849
-0.020891383 0.069454186 0.030574502 0.003910432 0.011876446 -0.012528426 -2.9924064 -0.9548684
-0.14115381 -2.042743 -0.04194871 0.00077919057 -2.1254375 0.021821376 -0.016332962 0.1365649
-1.2117578 0.20341603 -0.09925476 -0.24848312 0.0044821906 0.20047465 0.029310875 -2.09138
-0.0050279223 0.029074905 -0.018418279 0.010247119 -0.9338514 -0.9454423 -0.014181134 -2.0397592
0.0035357906 -0.055816364 -0.0133541515 0.1492011 0.04894655 0.014006905 -0.88024145 -0.5485267
-2.2039926 0.027014796 -0.06568077 -1.218386 -0.018269025 -0.052365966 0.026501974 0.0151206395
-0.19534545 0.063782275 0.33617207 -0.045766246 -0.027431456 0.040653124 -0.0012051008 0.07027776
0.060269818 -0.27826545 -0.19389048 -0.044930477 0.84229773 -0.050401047 0.1412231 0.01829859
0.19970496 -0.22682594 0.010568529 0.33172503 0.104964435 0.0317281 0.05475463 -2.7394347
0.021976877 -4.010661 -0.11126434 -0.22393492 0.01989003 -4.8990965 0.016542917 -2.0578082
-1.5678872 0.028818792 0.33234957 0.14684415 0.16073678 0.63037765 0.007769288 0.1122083
00000000: ff40 123e 367c 0e3f 0d48 2bc0 2105 22be
00000010: 39fd 303d fe79 ba3f ab8d 583e c4e3 0c3f
00000020: 0ab5 b13d 38a2 893e 141d 263d f47c a0bc
00000030: 5846 d93f bbb1 e1be ce73 c93d 9f51 49bd
00000040: 0cce ab3d 3c32 cc3c f066 bbbd 6a8a dc3d
00000050: eb08 883d e549 2940 6aca f73f 31d2 893d
00000060: 2335 f3bf 93a7 1d3d f024 603f 4213 143e
00000070: 4138 8c3f 3560 013f b9f5 0e3e 6f0c d1be
00000080: dc1d 01bf c016 1c3e 6975 493e 3184 de3d
00000090: 6363 d0bd dd14 da3d 81ad 96bf 3980 eb3d
000000a0: 0425 bdbf ad46 4ebe 9784 27bf 4368 933b
000000b0: 455b 65bd ad63 823e 6075 52be 11f5 d43d
000000c0: 90ad d13f cb79 883c acd6 603e 00c8 373e
000000d0: 3733 a2bf b7e0 d53d 4c83 9d3f 6a32 983d
000000e0: ef96 aabd ba29 acbd 4261 1dbf 0008 013f
000000f0: f6bf 033e 3124 233b d988 1140 b8c0 bf3f
00000100: 8ed5 153e 308e c3bc f316 2a3e 1a45 f33d
00000110: 93b3 10bf d884 453e 6e0a 703f 731f 98be
00000120: c1f4 4d3d 1d8f 693f 55d5 ad3d ab1b ab3f
00000130: 3c17 a8bc 43aa 6d3d 5897 62ba b56b 563e
00000140: b6b5 3b3d a5b3 403d 680b 42bf 8d74 43bd
00000150: b997 6b3f b077 1b40 3cfe a53e 3c79 113e
00000160: 3c91 9e3e 78e5 1fbd e2d3 b5be 7a8d 353f
00000170: 10f5 93bc 6122 953f 2dde 4fbe 9c7c c13c
00000180: b1cd 8dbc 2eaf 27bf a52f d7bc e1cf eabe
00000190: 2603 c93a 1a1a 91be 9a81 d83f a954 743e
000001a0: 180e 753d 1638 b03f 96b1 523d 0884 933e
000001b0: 25c9 88bf d5b4 3540 fe24 31c0 b31a d53e
000001c0: c901 8e3c 4c2f 183e b18e 343c 8500 08bf
000001d0: 3d9b 6f40 9805 20bf d31c 2a3e 791e 88be
000001e0: 052c 9abd 0626 9e3b a9d0 c5bd 52d8 cb3d
000001f0: 4564 a5bd 4a40 873e 57c8 0e3e 2ec4 eb3e
00000200: 4003 d03c 6532 e13d e6ff febf 4ea0 943d
00000210: 815b 9ebc 8deb d8bd b0b6 0abd 0c91 8b3b
00000220: 1f2a 953d 4019 b6bd bf37 313c 36ad 193d
00000230: 73fb 063d 67e3 25c0 d2d1 843c 7ca5 0abe
00000240: 83fa 29c0 5d0d 0fbe 821f 86c0 e789 9c3b
00000250: 0d2f 493c 1076 a4bd 4028 4abd a4aa 963c
00000260: 5b55 21be f57a 5e3d 6d4e c2bd 7db2 253d
00000270: 3d2a c13e 5611 2a3e de95 6c3a 419a 3d3d
00000280: b75e 713d 5751 133c dcc4 9d3d ec10 81bc
00000290: ab64 ba3d 9b2d a33c f776 e3bd 867d 0c3c
000002a0: 6824 abbc ff3d 8e3d 6177 fa3c 1523 803b
000002b0: 6d95 423c 0744 4dbc 9683 3fc0 4172 74bf
000002c0: a08a 10be 4dbc 02c0 69d2 2bbd 9842 4c3a
000002d0: 2b07 08c0 bec2 b23c b4cc 85bc abd7 0b3e
000002e0: e11a 9bbf 4b4c 503e 1446 cbbd 5c72 7ebe
000002f0: 57df 923b 3a49 4d3e 5c1d f03c 2bd9 05c0
00000300: 45c1 a4bb 7f2e ee3c eee1 96bc 88e3 273c
00000310: e310 6fbf 8208 72bf fd57 68bc 6a8b 02c0
00000320: b9b8 673b b39f 64bd 5fcb 5abc 2cc8 183e
00000330: 2d7c 483d 387d 653c 8157 61bf 3f6c 0cbf
00000340: 370e 0dc0 224e dd3c a483 86bd 13f4 9bbf
00000350: eca8 95bc b27d 56bd ab1a d93c 8fbc 773c
00000360: a308 48be 48a0 823d bf1e ac3e 6375 3bbd
00000370: efb7 e0bc e483 263d 79f4 9dba c9ed 8f3d
00000380: 7cdd 763d cf78 8ebe 3a8b 46be 0509 38bd
00000390: d3a0 573f 5471 4ebd ca9c 103e ede6 953c
000003a0: 757f 4c3e 0f45 68be a027 2d3c ddd7 a93e
000003b0: 98f7 d63d 53f5 013d 6446 603d e652 2fc0
000003c0: da08 b43c 5657 80c0 8fde e3bd 324f 65be
000003d0: 6bf0 a23c 66c5 9cc0 0385 873c 21b3 03c0
000003e0: 87b0 c8bf 6315 ec3c b929 aa3e 505e 163e
000003f0: 2f98 243e 6e60 213f 8395 fe3b 77cd e53d

fc3.bias f4 [2]
0.046858475 0.097661376
00000000: acee 3f3d b002 c83d

bn1.weight f4 [24]
0.6867008 0.55763435 0.2271346 0.75555235 1.3179075 1.3462535 0.1936146 -0.38756186
0.6667835 0.62436956 0.81734204 -0.37085974 0.6052282 0.55495346 -0.058019247 0.56905407
0.7285231 0.5986229 0.3591864 0.7313263 1.4496549 1.2115173 0.7633657 0.81197023
00000000: a0cb 2f3f 20c1 0e3f f995 683e e16b 413f
00000010: 31b1 a83f 0952 ac3f e842 463e 826e c6be
00000020: 53b2 2a3f afd6 1f3f 543d 513f 54e1 bdbe
00000030: 3cf0 1a3f 6e11 0e3f 97a5 6dbd 87ad 113f
00000040: 7d80 3a3f 5a3f 193f 48e7 b73e 3338 3b3f
00000050: 4b8e b93f 0013 9b3f ef6b 433f 48dd 4f3f

bn1.bias f4 [24]
-0.26855895 0.036368992 0.010573981 -0.20565309 0.10013267 -0.012059224 0.00470359 -0.40630412
-0.11609097 -0.04842014 -0.16387734 -0.48536554 0.16989347 -0.10355766 -0.041368484 -0.296488
-0.068945125 0.20116518 0.043903083 0.048455127 0.08857501 0.15354404 -0.13257164 -0.014200047
00000000: 8f80 89be a7f7 143d 7e3e 2d3c b996 52be
00000010: 5b12 cd3d 0d94 45bc 9320 9a3b 1807 d0be
00000020: 1ac1 edbd 3254 46bd 76cf 27be d581 f8be
00000030: 8ef8 2d3e 0a16 d4bd 0072 29bd 46cd 97be
00000040: 1a33 8dbd 3ffe 4d3e b8d3 333d e278 463d
00000050: d166 b53d a63a 1d3e dcc0 07be 50a7 68bc

bn1.running_mean f4 [24]
-6.366754 -1.5088744 1.6959993 -0.008319503 -0.028006157 2.2011454 1.6959993 -0.008319503
-6.490969 -1.539146 1.6115899 -0.006306978 -0.026930284 2.1821547 1.6115899 -0.006306978
-6.611529 -1.569604 1.6589421 -0.01588552 -0.020132609 2.1412072 1.6589421 -0.01588552
00000000: 73bc cbc0 cc22 c1bf 8116 d93f 864e 08bc
00000010: 2b6d e5bc 91df 0c40 8116 d93f 864e 08bc
00000020: 05b6 cfc0 bc02 c5bf 9448 ce3f c4aa cebb
00000030: e69c dcbc 6ca8 0b40 9448 ce3f c4aa cebb
00000040: a591 d3c0 c9e8 c8bf 3758 d43f 5a22 82bc
00000050: 24ed a4bc 8a09 0940 3758 d43f 5a22 82bc

bn1.running_var f4 [24]
11.060923 0.54265 163.66704 2.7064118 30.909725 3.7766654 163.66704 2.7064118
10.415509 0.50676924 167.89731 2.7911313 32.256413 3.9296215 167.89731 2.7911313
9.647003 0.4702703 173.73688 2.951862 33.775528 4.2325397 173.73688 2.951862
00000000: 8af9 3041 1ceb 0a3f c3aa 2343 da35 2d40
00000010: 1e47 f741 e3b4 7140 c3aa 2343 da35 2d40
00000020: eda5 2641 a1bb 013f b6e5 2743 e5a1 3240
00000030: 9106 0142 eb7e 7b40 b6e5 2743 e5a1 3240
00000040: 205a 1a41 45c7 f03e a4bc 2d43 4feb 3c40
00000050: 241a 0742 f770 8740 a4bc 2d43 4feb 3c40
