checkpoint_critic_both1.pth (torch_old, 82441 bytes, 9 tensors)

fcs1.weight f4 [128, 24]
0	0x3cd9cb36	0.026586156
1	0xbe796575	-0.24355109
2	0x3e1a8814	0.15090972
3	0x3cd1951f	0.025583802
4	0xbded688a	-0.11592205
5	0xbb73f43a	-0.0037224428
6	0x3e340cc6	0.17582998
7	0x3e0ccba9	0.13749565
8	0xbde4e0a6	-0.11175661
9	0xbdbf540f	-0.09342205
10	0x3d124f8e	0.0357204
11	0x3dd4735d	0.10373566
12	0xbbede625	-0.0072601014
13	0xbe67a311	-0.22620799
14	0xbde3e963	-0.11128499
15	0x3d98f657	0.074688606
16	0x3d16a25a	0.036775924
17	0x3dfe341a	0.12412281
18	0x3d59eae2	0.053202517
19	0xbaac2c50	-0.0013135765
20	0x3dca63b5	0.09882299
21	0x3e47c258	0.1950773
22	0x3d037ac5	0.032099504
23	0xbad8dd6c	-0.0016545481
24	0x3db40f47	0.087919764
25	0x3d322225	0.043489594
26	0xbc7000de	-0.014648644
27	0x3ad4d4eb	0.0016237771
28	0xbda67d82	-0.081294075
29	0xbd77c8ef	-0.06049436
30	0xbba0f078	-0.0049114786
31	0xbc2809c2	-0.010256233
32	0xbd3297ef	-0.043601926
33	0x3dd39b06	0.10332303
34	0x3aebb9d1	0.0017984455
35	0xbdb622f4	-0.088933855
36	0xbd92b18a	-0.07162769
37	0xbc2deda5	-0.010615741
38	0x3d38b436	0.045093738
39	0xbe3d26d5	-0.18471844
40	0xbe33978f	-0.17538284
41	0x3e395f65	0.18102796
42	0x3eb1948e	0.3468365
43	0x3d413838	0.047172755
44	0x3db9e8db	0.09077617
45	0x3df58f00	0.11990166
46	0x3ea50c4b	0.3223594
47	0xbdb31439	-0.087440915
48	0x3e9ff50c	0.31241643
49	0xbe0b2288	-0.13587391
50	0xbdeebb0b	-0.11656769
51	0x3d05ff3f	0.032714125
52	0xbcd86d6a	-0.02641936
53	0xbd91444c	-0.07093105
54	0xbddc54aa	-0.10758336
55	0x3e120110	0.14258218
56	0xbba2ca41	-0.004967958
57	0xbe839c83	-0.25705346
58	0xbc014b58	-0.0078914985
59	0xbd8c4fb6	-0.06851141
60	0xbc768466	-0.015046215
61	0xbc5d09b9	-0.013491088
62	0xbd182573	-0.03714509
63	0xbe33d68b	-0.1756231
64	0x3e215b57	0.157575
65	0xbe4455cd	-0.19173355
66	0x3e5e2c06	0.21696481
67	0xbd4389bc	-0.047738776
68	0xbe1d113a	-0.15338603
69	0xbdca3244	-0.09872869
70	0x3e658e67	0.22417603
71	0xbd18499e	-0.03717958
72	0x3d164023	0.03668226
73	0xbee67ee3	-0.45018682
74	0xbe342c52	-0.17595032
75	0x3d7f697f	0.06235647
76	0xbc29ee8d	-0.010371816
77	0x3d717242	0.058946855
78	0xbe14e319	-0.14539756
79	0xbc6631d4	-0.014049966
80	0x3d3e5af2	0.04647345
81	0xbe9565c6	-0.2917921
82	0xbd543e5f	-0.051817294
83	0x3dd62c75	0.10457698
84	0xbdaf874b	-0.08570727
85	0x3df87a0b	0.12132653
86	0x3cb45367	0.022012426
87	0x3de244bb	0.110482655
88	0x3e48716e	0.1957452
89	0xbe3424be	-0.17592141
90	0x3da9e155	0.08294932
91	0x3e34ed6f	0.17668699
92	0x3d93804a	0.072022036
93	0xbe746f09	-0.23870482
94	0x3d820e68	0.06350404
95	0x3db2fe1f	0.08739876
96	0xbd895a39	-0.06706662
97	0xbe13ded9	-0.14440478
98	0x3da3d9cb	0.08000525
99	0x3bec7bd0	0.007216908
100	0xbd38b355	-0.0450929
101	0x3dafeccf	0.085900895
102	0x3dee7d44	0.11644986
103	0x3d31e16c	0.04342787
104	0xbd942449	-0.07233483
105	0x3ddb7eb6	0.107175276
106	0x3dc6f87d	0.09715364
107	0x3df400a9	0.119141884
108	0xbe16aec9	-0.14715113
109	0xbd5df182	-0.054185398
110	0x3bd3a87e	0.006459295
111	0x3e4cc0f1	0.19995476
112	0xbd9e350e	-0.07724963
113	0x3dc45448	0.09586388
114	0xbc824461	-0.015901746
115	0x3dfa0d18	0.12209529
116	0x3bdaaa23	0.006673114
117	0x3db689f3	0.089130305
118	0x3d95dac8	0.0731712
119	0x3e36fb76	0.17869362
120	0x3e42bef0	0.1901815
121	0xbe21ce4f	-0.15801357
122	0x3d954af1	0.072896846
123	0xbcb72a60	-0.022359073
124	0xbeac64fb	-0.33670792
125	0xbc99550d	-0.018717313
126	0x3df59fa7	0.11993342
127	0xbe175eaa	-0.14782205
128	0x3e562cdf	0.20915554
129	0x3d5f3a9d	0.054499257
130	0xbd77d0dd	-0.060501922
131	0xbc15d425	-0.0091448175
132	0xbe07310f	-0.13202308
133	0xbc1d0cce	-0.009585572
134	0x3d9605c7	0.07325321
135	0xbde3f604	-0.11130908
136	0x3e387339	0.18012704
137	0x3e7cba01	0.2468033
138	0xbd8b18b1	-0.06791819
139	0x3e4c9210	0.19977593
140	0x3e50e696	0.20400462
141	0xbc603b7a	-0.013686055
142	0xbb986bb4	-0.004651511
143	0x3e63a007	0.22229014
144	0xbdd2bacc	-0.10289535
145	0xbe093a5f	-0.13401173
146	0x3d04d6a9	0.03243128
147	0xbdac374f	-0.08408987
148	0x3da974ee	0.08274256
149	0x3dbfcd63	0.09365346
150	0xbd1888dd	-0.037239898
151	0x3d036e55	0.032087643
152	0xbcbdc104	-0.023163326
153	0xbd5e31a0	-0.054246545
154	0x3cbe7fcb	0.023254296
155	0x3cb66483	0.022264725
156	0x3df1ace8	0.118005574
157	0x3e504255	0.20337804
158	0x3b2efb9a	0.002670026
159	0xbbb115bf	-0.0054042037
160	0x3df13be3	0.117790006
161	0x3d07e103	0.033173572
162	0x3c059fd5	0.008155783
163	0xbe07ccda	-0.13261738
164	0xbc86f011	-0.016471894
165	0x3e6a71b4	0.22894937
166	0x3d354ec4	0.04426457
167	0xbe40a460	-0.18812704
168	0x3d06693c	0.032815203
169	0xbdde2e91	-0.108487256
170	0x3c924fb6	0.017860275
171	0x3c41f266	0.011837577
172	0xbe11695d	-0.14200349
173	0xbd5537ce	-0.052055173
174	0x3d23eb8d	0.04001956
175	0x3dd1d812	0.1024629
176	0xbd197c03	-0.037471782
177	0xbdbf1cbc	-0.093316525
178	0x3ce84f9b	0.028358271
179	0x3df021c4	0.1172519
180	0x3e39676c	0.18105859
181	0x3d7f32db	0.06230436
182	0xbc69aaf0	-0.014261946
183	0x3d85750a	0.06516464
184	0xbdba1784	-0.090865165
185	0x3cd3e418	0.0258656
186	0x3d507592	0.050893374
187	0x3cd70513	0.026247537
188	0x3e6723a5	0.22572191
189	0xbee00787	-0.43755743
190	0xbcf324d9	-0.029680656
191	0x3da78c47	0.08181053
192	0x3db0d3d8	0.08634156
193	0x3da86f7c	0.08224389
194	0xbd1e99a2	-0.038720734
195	0x3d3b1843	0.045677435
196	0xbdf787d2	-0.120864525
197	0xbe72696a	-0.23673025
198	0xbe35c1a2	-0.17749646
199	0x3c6ef596	0.014584919
200	0x3c6bbb96	0.014387986
201	0xbd83bfcf	-0.06433069
202	0x3bfa3fbf	0.0076369937
203	0xbc971da4	-0.018446751
204	0xbe273bdb	-0.16331427
205	0xbd1c20a8	-0.03811708
206	0x3ca67ce2	0.02032322
207	0xbc530a3c	-0.012880858
208	0xbd84ec6d	-0.06490407
209	0xbd34e4c3	-0.044163477
210	0x3dbe5dae	0.09295212
211	0x3dabc7cb	0.08387717
212	0x3c6696e7	0.014074064
213	0x3ec80d8b	0.39072832
214	0x3dae2331	0.08502806
215	0x3bdd5534	0.006754542
216	0x3e44dc00	0.19224548
217	0x3e11e90a	0.14249054
218	0x3e57b033	0.21063308
219	0xbd3de45c	-0.04636036
220	0xbd81f839	-0.06346173
221	0x3e064304	0.13111502
222	0x3dd60593	0.10450282
223	0xbdd34691	-0.10316194
224	0x3d969d8d	0.07354269
225	0xbb049b4c	-0.0020234166
226	0xbc36d90c	-0.011160146
227	0x3e0db702	0.13839343
228	0x3cd47d20	0.02593857
229	0x3e2fed35	0.17180331
230	0xbd74d75f	-0.059775706
231	0x3d1f8cae	0.038952522
232	0xbe16f438	-0.147416
233	0xbda9c2a5	-0.082890786
234	0xbda822b3	-0.08209743
235	0x3d22057e	0.03955602
236	0x3bb752b6	0.0055945767
237	0xbe8d3401	-0.27578738
238	0xbdcd5c56	-0.10027377
239	0x3df678d2	0.120347634
240	0xbcb3dc4a	-0.021955628
241	0xbe7bcaba	-0.24589053
242	0xbd1bebc3	-0.038066637
243	0xbd856a6d	-0.0651444
244	0x3d266155	0.040620167
245	0xbe18d653	-0.14925508
246	0xbe01ed43	-0.12688164
247	0xbe727187	-0.2367612
248	0xbc09f37b	-0.008419867
249	0xbe9b18ad	-0.30292264
250	0xbc7ef530	-0.015561387
251	0xbd4740a1	-0.04864562
252	0xbd809479	-0.06278319
253	0x3d8a0ef6	0.06741135
254	0xbd66cf3e	-0.056349985
255	0xbd913622	-0.07090403

fcs1.bias f4 [128]
0	0x3db480f6	0.0881366
1	0x3bfe8639	0.0077674654
2	0xbe715c62	-0.23570397
3	0xbd3ef323	-0.046618592
4	0xbd19fba4	-0.0375935
5	0xbe5efe57	-0.2177671
6	0x3d452804	0.048133865
7	0xbe565d6c	-0.20934075
8	0xbd7eebea	-0.062236704
9	0xbc261825	-0.010137592
10	0xbd14fa9f	-0.036371823
11	0xba786874	-0.0009476014
12	0xbb3a8cc1	-0.0028465244
13	0x3c0237cb	0.007947872
14	0x3ba0569e	0.004893138
15	0xbe0c4224	-0.13697106
16	0xbe25b4d3	-0.1618226
17	0x3ce7ab58	0.028279945
18	0xbdb0c961	-0.0863216
19	0xbb5079c4	-0.003181086
20	0x3d811ec2	0.06304695
21	0x3c996c1e	0.018728312
22	0xbdd87492	-0.10569109
23	0xbe1426bc	-0.14467901
24	0xbe46bf28	-0.19408858
25	0xbd5e1691	-0.05422074
26	0xbdb5ffeb	-0.08886703
27	0xbc5d0eb9	-0.01349228
28	0xbeb8d356	-0.36098737
29	0xbda6eab8	-0.08150238
30	0xbd0cc504	-0.034367576
31	0xbdbe673f	-0.092970364
32	0x3d79b581	0.06096411
33	0xbb20940b	-0.0024502303
34	0xbe418927	-0.18899976
35	0x3d6a5d8c	0.05721812
36	0xbd03bee2	-0.032164462
37	0x3e0144a8	0.12623847
38	0xbe8bb21c	-0.27284324
39	0xbe5c1f8d	-0.2149641
40	0xbe1e8afa	-0.15482703
41	0xbcc6e720	-0.02428013
42	0x3d9e46bf	0.077283375
43	0xbe20a315	-0.15687211
44	0x3a860fc2	0.0010228085
45	0xbcd2e3c5	-0.025743375
46	0x3d841568	0.064493954
47	0xbe4a1307	-0.19733821
48	0x3e21c9d5	0.15799649
49	0xbe8a8f73	-0.27062568
50	0xbe15ad8e	-0.14616987
51	0xbe76238d	-0.24036999
52	0xbdb049df	-0.0860784
53	0xbe4992e5	-0.19684942
54	0x3c039600	0.008031368
55	0xbe393af5	-0.18088897
56	0x3de9341f	0.113868944
57	0x3c9f6f5f	0.019462286
58	0xbe4f730b	-0.20258729
59	0xbd2e4d0b	-0.042553943
60	0xbcc41aa6	-0.023938488
61	0xbe540d99	-0.20708312
62	0x3d08357b	0.033254128
63	0x3dd5ee9d	0.104459025
64	0x3dda8c25	0.10671262
65	0xbc80529d	-0.015664393
66	0xbddb4748	-0.10706955
67	0xbcded2dd	-0.027200157
68	0xbd2c5c30	-0.042080104
69	0x3d1a2e6b	0.037641924
70	0x3d01960d	0.03163724
71	0x3c9dbbe2	0.019254629
72	0xbd9c2f19	-0.07626171
73	0xbeb872a7	-0.36024973
74	0xbe87c00b	-0.26513705
75	0x3bbdd704	0.005793454
76	0xbe872675	-0.26396528
77	0xbe3f5782	-0.18685725
78	0xbdbf7643	-0.093487285
79	0xbc0c1082	-0.008548858
80	0xbec9d54d	-0.39420548
81	0xbee93daf	-0.45554873
82	0x3cb23e2c	0.021758161
83	0xbe0a00bc	-0.13476843
84	0x3dd260eb	0.10272392
85	0x3d250eb9	0.040297244
86	0xbe394b70	-0.18095183
87	0xbdf03b63	-0.11730077
88	0x3d77a60d	0.060461093
89	0xbd87bc38	-0.06627697
90	0xbe1c9828	-0.15292418
91	0xbe1a5d0a	-0.15074554
92	0xbd8acf17	-0.067777805
93	0x3cafa393	0.021440303
94	0x3d93755b	0.07200118
95	0xbd86d04b	-0.065826975
96	0xbe9f6940	-0.31134987
97	0x3cc3e333	0.023912048
98	0xbe4dc5bb	-0.2009496
99	0xbc80f62b	-0.015742382
100	0xbd0f0a13	-0.034921717
101	0xbe5dd943	-0.2166491
102	0xbd16332e	-0.036669903
103	0xbdf03576	-0.11728947
104	0xbe1637c9	-0.14669718
105	0x3d5d12c7	0.053972986
106	0xbcd4c1a8	-0.025971249
107	0xbea854be	-0.32877153
108	0xbddcc57f	-0.10779857
109	0xbd48cca9	-0.049023304
110	0xbe4091c9	-0.18805613
111	0xbdc83d00	-0.0977726
112	0xbd37e8c6	-0.044899724
113	0x3e104c4a	0.14091602
114	0xbe1c3ff2	-0.15258768
115	0xbcadac76	-0.0212004
116	0xbdc30ab8	-0.09523529
117	0xbdcc6623	-0.099804185
118	0x3997cf16	0.00028955255
119	0xbe8831b7	-0.2660043
120	0x3d35929e	0.04432928
121	0x3c83a1b9	0.016068326
122	0x3d0084de	0.031376712
123	0x3dbaa02d	0.09112582
124	0xbe3a6ead	-0.18206282
125	0xbc97cf50	-0.018531471
126	0x3c48d225	0.012257134
127	0xbe16a633	-0.14711837

fc2.weight f4 [128, 130]
0	0x3e00695a	0.12540188
1	0x3b9e1db5	0.0048253187
2	0xbdbb5017	-0.09146135
3	0x3d048cf9	0.032361005
4	0xbdb74734	-0.08949128
5	0x3da29f43	0.07940533
6	0xbe3cd776	-0.18441567
7	0xbf2c6d6c	-0.67354465
8	0x3c222796	0.009897133
9	0x3b3e36d2	0.0029024375
10	0xbdba9d97	-0.09112089
11	0x3cf86be9	0.030324893
12	0xbea16dc2	-0.3152905
13	0xbd18c79b	-0.037299734
14	0x3e40e633	0.18837814
15	0xbd0c8673	-0.03430791
16	0xbee82f34	-0.45348513
17	0x3d855c38	0.0651173
18	0xbd0f155a	-0.03493247
19	0x3c9a8b7e	0.018865343
20	0xbdc91de0	-0.09820151
21	0x3cbbe7e9	0.022937732
22	0x3ef6fc61	0.48239425
23	0x3e3a0c8e	0.18168852
24	0x3de8741c	0.11350271
25	0xbdf120b7	-0.11773818
26	0xbe515290	-0.20441651
27	0x3db6f49c	0.08933374
28	0xbb3dbd3c	-0.0028951904
29	0x3e11577a	0.14193526
30	0x3c33af1e	0.010967044
31	0xbedad5f8	-0.4274137
32	0xbd75b337	-0.059985366
33	0x3dc66093	0.09686389
34	0xbf1ec4e4	-0.6201918
35	0x3cf09464	0.029367633
36	0xbead9765	-0.33904567
37	0x399bb0c1	0.00029695596
38	0x3e02cfb3	0.12774543
39	0xbd9892e2	-0.07449891
40	0x3df5576d	0.11979566
41	0x3e7b5498	0.24543989
42	0x3e824652	0.25444275
43	0x3d6e662e	0.058202915
44	0xbdc91d08	-0.098199904
45	0xbe960ccd	-0.2930664
46	0x3b59ee27	0.0033253522
47	0xbd294b4f	-0.041331585
48	0x3d01f323	0.031726014
49	0xbe8dd4c8	-0.27701402
50	0xbdb4202b	-0.08795198
51	0xbd1d3138	-0.038377017
52	0xbdc8dbcc	-0.09807548
53	0xbdf8f0af	-0.12155282
54	0x3d7bb88f	0.061455306
55	0x3eabb12b	0.33533606
56	0xbe2143b5	-0.15748484
57	0x3d7447ee	0.05963891
58	0xbd3282c9	-0.043581758
59	0xbd2aa40c	-0.041660354
60	0xbe82f13a	-0.25574666
61	0xbdbff55c	-0.093729705
62	0xbed83a90	-0.4223218
63	0xbc9e4d9c	-0.019324116
64	0xbbd1ca16	-0.0064022643
65	0xbe627ccd	-0.2211792
66	0xc00191a8	-2.0245152
67	0x3e024079	0.12719907
68	0x3e13b431	0.14424206
69	0xbc1ee8b4	-0.009699035
70	0x3dc8b33a	0.0979981
71	0x3dfa5a54	0.1222426
72	0xbf2c0961	-0.6720181
73	0xbe5790e1	-0.2105136
74	0x3e418465	0.18898161
75	0xbeb5b615	-0.3549048
76	0xbd832d91	-0.064051755
77	0xbd639d15	-0.055569727
78	0xbddd3971	-0.10801972
79	0xbcc70c0f	-0.024297742
80	0xbd265e0c	-0.040617034
81	0xbd5e814a	-0.05432252
82	0x3e3ffd22	0.18748906
83	0xbe873ee5	-0.26415172
84	0xbe3b36d7	-0.18282638
85	0xbdf12538	-0.11774677
86	0xbee1c417	-0.44094917
87	0xbdfe7e82	-0.12426473
88	0xbc24fcf5	-0.010070075
89	0xbdb3294a	-0.0874811
90	0x3ef7963d	0.4835681
91	0x3d2dee59	0.042463634
92	0xbe1cfb68	-0.15330279
93	0x3d7fc9b2	0.06244821
94	0x3d83dd79	0.06438727
95	0xbe0334d5	-0.12813123
96	0xbea329bb	-0.31867775
97	0xbd52c16d	-0.051453996
98	0xbf0ca746	-0.5494274
99	0x3e4aeb57	0.19816338
100	0x3cc93fc2	0.024566535
101	0xbd803afe	-0.06261252
102	0x3e2cea17	0.16886173
103	0x3e2bb606	0.16768655
104	0xbdecfcf6	-0.11571686
105	0x3d10804b	0.0352786
106	0x3d54d12d	0.051957298
107	0xbe11b9e6	-0.14231071
108	0x3e07677a	0.13223067
109	0xbcaf48f9	-0.0213971
110	0x3e0babc0	0.13639736
111	0x3d316fa4	0.04331936
112	0xbd47a790	-0.048743784
113	0xbc9952e7	-0.018716289
114	0xbed9e9d8	-0.4256122
115	0xbec2d6b2	-0.38054425
116	0x3d96ca57	0.07362812
117	0x3d7991aa	0.06092993
118	0xbe9e8394	-0.3095976
119	0xbd0b96ec	-0.034079477
120	0xbe08070c	-0.13283938
121	0x3cf228b0	0.029560417
122	0xbc16bc8c	-0.0092002265
123	0x3d1e80f5	0.0386972
124	0xbe7416d6	-0.23836836
125	0xbd299dea	-0.041410364
126	0x3c83936b	0.016061505
127	0xbe561008	-0.20904553
128	0xbd8e797c	-0.06956765
129	0xbd0d4ce2	-0.03449715
130	0x3d9f9bce	0.07793389
131	0xbda1b8ce	-0.07896577
132	0x3e30e70c	0.17275637
133	0x3e26d230	0.16291118
134	0xbe807bc1	-0.25094417
135	0x3e905068	0.28186345
136	0xbe958d31	-0.29209283
137	0x3d90ad8d	0.07064352
138	0xbe527874	-0.20553762
139	0xbda7e215	-0.081974186
140	0xbee9a5dc	-0.45634353
141	0xbf2fd509	-0.6868444
142	0x3dede43a	0.116157964
143	0xbe755499	-0.23958053
144	0x3acc5044	0.0015587886
145	0x3e19e11d	0.1502728
146	0xbe162ebf	-0.1466627
147	0x3d9f02e6	0.07764225
148	0xbcf5ab3b	-0.029988876
149	0x3ea3a564	0.3196212
150	0x3dece735	0.11567537
151	0xbcc81e75	-0.024428586
152	0xbea6297d	-0.32453528
153	0xbf113506	-0.5672153
154	0xbf29ffa1	-0.66405684
155	0xbd52c329	-0.05145565
156	0xbe993ffe	-0.29931635
157	0xbedcba88	-0.43111062
158	0xbec720c5	-0.3889219
159	0xbdb04c2b	-0.08608278
160	0x3de1fbc0	0.110343456
161	0xbe8fba1e	-0.28071684
162	0xbe441ed5	-0.19152386
163	0x3d5a14a1	0.05324233
164	0xbe095deb	-0.13414733
165	0x3d5c929a	0.053850748
166	0x3dbc0979	0.09181494
167	0xbf78f336	-0.9724611
168	0xbec0ea9e	-0.37679
169	0xbe9a5323	-0.30141553
170	0x3ee8b34a	0.45449287
171	0x3e58eb22	0.21183446
172	0xbe347445	-0.17622478
173	0x3e02b948	0.12765992
174	0xbe71f45b	-0.2362837
175	0xbe72774e	-0.23678324
176	0x3d66320e	0.05620008
177	0xbe2a13af	-0.16609071
178	0x3e20c3a8	0.15699637
179	0xbd936d62	-0.071985975
180	0x3cdf1c7c	0.027235262
181	0xbe7e68e0	-0.24844694
182	0xbe76e21d	-0.24109693
183	0x3e78bf34	0.24291688
184	0xbd940064	-0.07226637
185	0xbedb498d	-0.42829552
186	0xbc30cff3	-0.010791766
187	0x3c32f13a	0.010921771
188	0xbe196f44	-0.1498385
189	0x3d9339a6	0.0718873
190	0x3e8864df	0.2663946
191	0xbdeb96e0	-0.115033865
192	0xbdfc4b93	-0.12319102
193	0x3e0996e5	0.13436468
194	0x3dea2b7d	0.11434076
195	0xbf78b599	-0.97152096
196	0xbe9cf503	-0.3065568
197	0x3e27acef	0.16374563
198	0xbd929ba4	-0.07158592
199	0x3c9bdc7a	0.01902603
200	0xbe05320e	-0.13007376
201	0x3e308523	0.17238288
202	0xbe82e9ac	-0.25568902
203	0xbf15925a	-0.5842644
204	0xbf01fd1a	-0.5077683
205	0xbdaed66a	-0.0853699
206	0xbe558a0b	-0.2085344
207	0xbeb1348a	-0.34610397
208	0x3e87e98a	0.26545364
209	0xbe2274d9	-0.15864886
210	0xbecb60fe	-0.39722437
211	0xbd7e6fdc	-0.062118396
212	0x3dc0532b	0.09390863
213	0x3e5126f9	0.20425023
214	0xbf9b3367	-1.2125062
215	0xbed124bf	-0.40848348
216	0xbe9c3137	-0.30506298
217	0x3ddfa163	0.10919454
218	0xbda2bdff	-0.07946395
219	0xbef57b2c	-0.47945535
220	0xbe4b104d	-0.19830437
221	0xbeaef4e8	-0.34171224
222	0xbd9706ad	-0.0737432
223	0xbe5566e3	-0.2084003
224	0xbf3b9006	-0.7326664
225	0xbe3a4861	-0.18191673
226	0xbde257f7	-0.11051934
227	0x3d1dbcf7	0.03851029
228	0xbe679ad2	-0.22617653
229	0x3e0b9ac0	0.13633251
230	0xbdc1e3ff	-0.09467315
231	0xbe4319a1	-0.19052745
232	0xbf23ba2b	-0.63955945
233	0x3e779df6	0.24181351
234	0x3e42e3cf	0.19032215
235	0xbe610c8d	-0.21977444
236	0xbf6b0516	-0.91804636
237	0xbeca82a7	-0.39552805
238	0xbe4e1aa3	-0.20127349
239	0xbda3f4e6	-0.08005695
240	0xbe1088ee	-0.14114735
241	0xbd1f279e	-0.03885614
242	0x3d48a130	0.048981845
243	0xbd13c1c8	-0.036073476
244	0x3be7560b	0.0070598177
245	0x3df831b1	0.12118853
246	0xbe6f9cd5	-0.2339967
247	0x3ec7d9fd	0.390335
248	0xbe41cb7a	-0.18925276
249	0xbdb86e00	-0.09005356
250	0x3dcd9c71	0.100396045
251	0xbc97ddea	-0.018538434
252	0x3c678875	0.014131655
253	0x3e140143	0.14453606
254	0xbf348ba2	-0.7052556
255	0xbd245bc0	-0.040126562

fc2.bias f4 [128]
0	0x3dbbc9e4	0.09169367
1	0x3c5df214	0.013546485
2	0xbd8f9036	-0.07009928
3	0xbce09a78	-0.027417406
4	0xbcaad94f	-0.020855574
5	0x3d867ab0	0.065663695
6	0xbd8fb1af	-0.07016312
7	0xbcfe280f	-0.03102496
8	0xbdbe83cc	-0.09302482
9	0x3d6b6ea1	0.05747855
10	0xbcf1e749	-0.02952923
11	0xbde7746a	-0.11301501
12	0x3dd65a51	0.10466445
13	0xbd20f9c7	-0.039300706
14	0xbc7a511e	-0.015278129
15	0xbd33c790	-0.04389149
16	0x3b442706	0.0029930486
17	0xbd91bbaf	-0.07115876
18	0xbe3d8284	-0.18506819
19	0xbc6c7443	-0.014432016
20	0xbdebdd9c	-0.11516878
21	0xbd91854d	-0.07105503
22	0x3c8e9f67	0.017409993
23	0xbcbee1e5	-0.023301074
24	0xbd4faba8	-0.050700814
25	0x3d96d9a5	0.07365731
26	0xbd53c9da	-0.051706173
27	0x3cb5c783	0.022189861
28	0x3d589f6d	0.052886415
29	0xbdde6488	-0.108590186
30	0x39bf2dcd	0.00036464483
31	0xbcb60238	-0.022217855
32	0xbdc41a69	-0.0957535
33	0x3db77fe6	0.089599416
34	0x3e03af1c	0.12859768
35	0xbdc72be8	-0.09725171
36	0xbe384a48	-0.17997086
37	0x3db026a9	0.08601124
38	0xbca5fc5c	-0.020261936
39	0x3ca0f2e9	0.019647079
40	0xbe02ae57	-0.12761818
41	0x3da100e1	0.07861496
42	0xbcacfb23	-0.021115845
43	0x3d27100b	0.040786784
44	0x3c5aa8dc	0.013345923
45	0xbd932c5b	-0.071861945
46	0xbd2ea0f6	-0.042633973
47	0xbd9207b6	-0.07130377
48	0xbdbfa938	-0.09358448
49	0xbda1366f	-0.078717105
50	0x3da1480b	0.07875069
51	0x3d0a82b0	0.03381604
52	0xbe053aa9	-0.13010658
53	0xbdae5f76	-0.085143015
54	0x3c39cb48	0.01133997
55	0xbd7ad6e4	-0.061240092
56	0xbdba2b73	-0.090903185
57	0x3d66172f	0.056174453
58	0x3d99bedc	0.07507107
59	0x3c4805b1	0.012208388
60	0xbc32b5e8	-0.010907628
61	0xbdc7dad1	-0.09758533
62	0x3cb223dc	0.021745615
63	0xbd616485	-0.055027504
64	0xbd34172a	-0.043967403
65	0x3d8f14b6	0.06986372
66	0xbdd6eda6	-0.104945466
67	0x3db2f20d	0.08737574
68	0xbbe74a54	-0.007058421
69	0x3d8e136f	0.069373004
70	0x3d60facf	0.05492669
71	0xbdc23c48	-0.09484154
72	0x3d5f9257	0.05458292
73	0x3cf164c9	0.029467003
74	0x3d1cd13f	0.03828549
75	0xbd7c5378	-0.06160304
76	0xbd80c2ef	-0.06287181
77	0x3c58bd1d	0.013228682
78	0xbdadd5c6	-0.0848804
79	0xbcccd92f	-0.025005905
80	0x3cd1193f	0.025524734
81	0x3da9135d	0.082556464
82	0xbc4fbc5c	-0.012679186
83	0xbd31da3c	-0.043421015
84	0x3d8f4b0e	0.069967374
85	0xbe140bbf	-0.14457606
86	0xbcb6f318	-0.022332713
87	0x39bda85f	0.00036174335
88	0x3d85678a	0.06513889
89	0xbdb2f4e2	-0.08738114
90	0x3cee8192	0.029114518
91	0xbdcd271f	-0.100172274
92	0xbc123b2f	-0.008925243
93	0xbdca7392	-0.098853245
94	0x3d26cf4e	0.040725045
95	0xbd5c75eb	-0.053823393
96	0x3ca00486	0.019533407
97	0xbcc15a12	-0.02360252
98	0xbdecf4b2	-0.115701094
99	0xbd34718d	-0.044053603
100	0x3d402834	0.04691334
101	0x3df61b58	0.12016934
102	0x3d61fea8	0.0551745
103	0x3c0c8ec9	0.0085789645
104	0x3db33d10	0.08751881
105	0xbcb157c4	-0.021648295
106	0xba395cc9	-0.0007071016
107	0xbdcf4729	-0.101209946
108	0xbcf5d015	-0.030006448
109	0xbd02eb48	-0.031962663
110	0xbda37297	-0.07980841
111	0x3bbab578	0.0056979023
112	0xbd77d2ed	-0.06050389
113	0xbb7520f7	-0.0037403682
114	0xbd84f798	-0.06492537
115	0xbdbdef24	-0.09274128
116	0x3cd83df8	0.026396737
117	0x3e0c397a	0.136938
118	0xbd90238e	-0.070380315
119	0xbd680418	-0.05664453
120	0x3d45f2a9	0.048327122
121	0xbdedcca1	-0.116112955
122	0xbd3c4351	-0.045962635
123	0xbdd7d8d5	-0.10539404
124	0x3d406f5f	0.04698121
125	0xbdb1ed76	-0.0868787
126	0xbd2e14d2	-0.042500325
127	0x39b1b804	0.00033897173

fc3.weight f4 [1, 128]
0	0x3e084ed9	0.13311328
1	0xbf46ac90	-0.7760706
2	0xbc7c4063	-0.01539621
3	0x3e9cd36b	0.3063005
4	0xbeb0835f	-0.34475228
5	0xbd8a294e	-0.067461595
6	0x3b446f56	0.0029973588
7	0x3ee3f930	0.44526052
8	0xbedf7528	-0.4364407
9	0x3e4e6a01	0.20157625
10	0xbdaa640b	-0.08319863
11	0xbe29ac96	-0.16569743
12	0x3e270db9	0.16313829
13	0x3b3403ab	0.0027468007
14	0x3ed66070	0.4187045
15	0x3a949359	0.0011335417
16	0xbde5ce9f	-0.112210505
17	0xbbc07c69	-0.005874206
18	0x3e80f634	0.25187838
19	0x3ea7de67	0.32786867
20	0x3d126e2e	0.035749607
21	0xbe42164d	-0.1895382
22	0x3d66ae45	0.05631854
23	0xbe79b564	-0.24385601
24	0xbecd829c	-0.4013871
25	0x3e8b70be	0.27234453
26	0xbddff65f	-0.109356634
27	0x3e19c130	0.15015101
28	0xbdd1ab85	-0.10237793
29	0xbd66440d	-0.056217242
30	0xbe7f47d4	-0.24929744
31	0xbe0b2c5c	-0.1359114
32	0x3bce0ec7	0.0062883827
33	0xbe8e29bc	-0.27766216
34	0x3e37d4bc	0.17952245
35	0x3afe21e2	0.001938876
36	0xbe76f6b3	-0.24117546
37	0xbdd04993	-0.10170283
38	0xbe6b6141	-0.22986318
39	0x3e390511	0.18068339
40	0xbc8525db	-0.016253402
41	0x3e183c88	0.14866841
42	0x3c7f9b70	0.015601024
43	0xbda1a924	-0.07893589
44	0xbe0188b0	-0.12649798
45	0xb9fa90aa	-0.000477915
46	0xbc6a7ca5	-0.014311944
47	0xbd9c6fb0	-0.0763849
48	0xbabfd321	-0.0014635065
49	0xbebbf7c2	-0.36712462
50	0x3e02b6b4	0.12765008
51	0x3d71c516	0.059025846
52	0xbe9c3918	-0.3051231
53	0x3aa7c8b9	0.0012800909
54	0x3d93c900	0.07216072
55	0xbde926be	-0.113843426
56	0xbbd3ee3e	-0.0064676097
57	0xbdfedcde	-0.12444471
58	0x3e795d37	0.24351965
59	0x3dbfb997	0.0936157
60	0xbe47a269	-0.19495548
61	0xb9cf1661	-0.0003949879
62	0x3e5516c4	0.20809466
63	0x3f08621a	0.5327469
64	0xbe949a25	-0.29023853
65	0x3e59354b	0.21211736
66	0xbc39689f	-0.0113164475
67	0xbdc951f6	-0.09830086
68	0x3ef7e76b	0.48418745
69	0xbdf81ad0	-0.12114489
70	0x3e840acb	0.25789484
71	0x3cc2766f	0.023738114
72	0x3e30b534	0.17256624
73	0xbe54136c	-0.20710534
74	0x3e2d345e	0.16914508
75	0x3ba6240a	0.005070214
76	0x3c1fe301	0.009758712
77	0xbe80df01	-0.25170138
78	0xb9c8f3fc	-0.00038328755
79	0x3e5f828b	0.21827142
80	0xbe6d8fa6	-0.23199329
81	0x3ec89999	0.39179686
82	0x3efe3cf4	0.4965588
83	0xbe4cdc4e	-0.20005915
84	0x3e6a19cd	0.22861405
85	0xbecda42c	-0.40164316
86	0x3c3bf4e2	0.011471959
87	0x3c87789b	0.016537001
88	0xbe033a7d	-0.1281528
89	0x3ca5b27f	0.020226715
90	0xbdc00f46	-0.09377913
91	0xbb474607	-0.003040673
92	0xbe039d1a	-0.12852898
93	0x3cd9745c	0.026544742
94	0x3e5575b9	0.20845689
95	0xba3d4625	-0.000722023
96	0xbe073d62	-0.1320701
97	0xbd8149ab	-0.06312879
98	0xbe57dbb5	-0.21079905
99	0xbec687d0	-0.38775492
100	0x3e41b276	0.18915734
101	0x3d871cfe	0.06597327
102	0xbe3cf145	-0.18451412
103	0xbae99d88	-0.0017823437
104	0xbe9ebb06	-0.31002063
105	0xbe1cc8d2	-0.15310982
106	0x3e166d17	0.14690052
107	0x3bd8e03c	0.0066185277
108	0xbc850df8	-0.016242012
109	0x3dee60d5	0.11639563
110	0x3c9e5433	0.019327259
111	0xbe30712e	-0.17230675
112	0xbb9170ee	-0.004438511
113	0xbe2f1d4a	-0.17101017
114	0xbab7f913	-0.0014036022
115	0x3d2373b5	0.03990527
116	0xbe307536	-0.17232212
117	0x3df918ac	0.12162909
118	0xbb2a1573	-0.0025952726
119	0x3950e097	0.00019920092
120	0xbebe8edc	-0.37218368
121	0x3b238c2e	0.002495538
122	0xbe64a825	-0.22329767
123	0xbca33e46	-0.019927155
124	0x3e501e50	0.20324063
125	0xbdf127b2	-0.117751494
126	0xbd901da7	-0.07036906
127	0xbe865ad1	-0.26241162

bn1.weight f4 [24]
0	0x3f0d2aa5	0.55143195
1	0x3e49a815	0.19693024
2	0x3df00c53	0.11721101
3	0x3b446268	0.0029965881
4	0x3f3aec6c	0.73017
5	0x3f30635f	0.6890163
6	0x3d1f3627	0.038870003
7	0x3eb267e2	0.3484488
8	0x3e365dfa	0.17809287
9	0x3dd22dfd	0.10262678
10	0x3aec81f2	0.0018044098
11	0x3d9ac39b	0.0755684
12	0x3f14cbd7	0.58123535
13	0x3e918ee8	0.2842934
14	0x3e874d82	0.2642632
15	0x3e44a278	0.19202602
16	0x3f329475	0.6975778
17	0x3ec13f7b	0.37743744
18	0x3e2f3222	0.17108968
19	0x3e86e455	0.2634608
20	0x3f30904c	0.6897018
21	0x3ee797fb	0.4523314
22	0x3e87e0bb	0.26538643
23	0x3e45f93b	0.19333355

bn1.bias f4 [24]
0	0xbdb6a026	-0.08917265
1	0x3ddbe858	0.107376754
2	0x3c9869c1	0.018605115
3	0x39007d7c	0.00012253778
4	0x3e2af16c	0.16693658
5	0x3dbce656	0.092236206
6	0x3c07720e	0.008266939
7	0x3beafe51	0.00717143
8	0x3d5f638a	0.054538287
9	0x3d316e2f	0.04331797
10	0x3b971e08	0.0046117343
11	0xbc2855bf	-0.01027435
12	0x3dc70fe5	0.097198285
13	0x3c934d47	0.017981185
14	0x3c14875d	0.009065476
15	0x3c1d8421	0.0096140215
16	0xbb0cfb3f	-0.002151206
17	0x3bd6634b	0.0065425984
18	0xbd154131	-0.036439124
19	0xbc0f456c	-0.008744579
20	0x3dae60af	0.08514535
21	0x3d1e5791	0.03865773
22	0xbca0cfb3	-0.019630289
23	0xbb9d7836	-0.00480559

bn1.running_mean f4 [24]
0	0xc0b5c2ce	-5.68003
1	0xbfb1e4ac	-1.389791
2	0x3fd764d6	1.6827648
3	0x3c874cd2	0.016516123
4	0x3d3862ab	0.045015972
5	0x4019ea57	2.404928
6	0x3fd764d6	1.6827648
7	0x3c874cd2	0.016516123
8	0xc0bc5504	-5.885378
9	0xbfb86fa3	-1.4409069
10	0x3fd8c462	1.6934931
11	0x3c91bc37	0.017789943
12	0x3d9527d4	0.07282987
13	0x4018163c	2.376357
14	0x3fd8c462	1.6934931
15	0x3c91bc37	0.017789943
16	0xc0c3738f	-6.1078563
17	0xbfbf2e48	-1.4935999
18	0x3fe270c3	1.7690662
19	0x3c8995f0	0.016795129
20	0x3d8fa7db	0.07014438
21	0x4015361b	2.3314273
22	0x3fe270c3	1.7690662
23	0x3c8995f0	0.016795129

bn1.running_var f4 [24]
0	0x41220f20	10.128693
1	0x3f2b3eb3	0.66892546
2	0x42ff6aa6	127.7083
3	0x40478f03	3.1181037
4	0x42097d8c	34.372604
5	0x409565d4	4.66868
6	0x42ff6aa6	127.7083
7	0x40478f03	3.1181037
8	0x41160dd7	9.378379
9	0x3f207d5b	0.6269128
10	0x43019643	129.58696
11	0x404b6fe0	3.1787033
12	0x4212b9b7	36.681362
13	0x409d7faf	4.9218364
14	0x43019643	129.58696
15	0x404b6fe0	3.1787033
16	0x4105cc48	8.362373
17	0x3f132a6c	0.57486606
18	0x4304e304	132.88678
19	0x40546413	3.318608
20	0x421d381d	39.3048
21	0x40ac88b1	5.391686
22	0x4304e304	132.88678
23	0x40546413	3.318608
