checkpoint_critic.pth (torch_old, 82441 bytes, 9 tensors)

fcs1.weight f4 [128, 24]
000000 90 27 4b 3c d1 ba 90 be 9f 36 a8 3e 7a 0b c9 bc
       0.012399569 -0.2826753 0.32854173 -0.024541605
000010 ab 60 c4 bd 1a 84 2f bd 43 f8 99 3e c5 94 ff 3d
       -0.095887505 -0.04285059 0.3007222 0.124795474
000020 4f 86 34 be 08 a3 01 be 48 c7 d7 3c 5a 02 40 bd
       -0.1762936 -0.12659848 0.026340142 -0.046877243
000030 3e b5 8b bd 46 08 96 be 64 95 46 be f8 1c ab bd
       -0.068216786 -0.29303187 -0.19392926 -0.08355135
000040 2b dd 09 3c a4 3e 10 3e 67 aa 96 3d 86 9f 53 bd
       0.008414547 0.14086396 0.073567204 -0.051665805
000050 e1 74 ed 3d 7e 5a 86 3e 5e f2 6a 3d 68 51 4a bd
       0.115945585 0.26240915 0.057360046 -0.04939404
000060 b5 7a 46 3e b8 10 cc 3b a7 15 b0 bd 81 87 71 3d
       0.19382747 0.006227579 -0.0859788 0.058967117
000070 79 ac 94 bd 21 07 86 bc 17 cf b5 bd 98 47 45 3c
       -0.07259459 -0.016360821 -0.0887739 0.012040995
000080 1f 79 4a 3d 54 25 20 3c 23 cc 1d bb f0 fc 58 be
       0.049431916 0.009774525 -0.0024077974 -0.21190238
000090 c5 c1 4f bd ce fd f1 bd a0 a9 a1 bc 4e 4f 9f be
       -0.050721902 -0.118159875 -0.019734204 -0.31115192
0000a0 64 0b 32 be 06 74 d0 3d 97 8e b5 3e b7 ae 4e 3d
       -0.17387158 0.1017838 0.3546035 0.05045959
0000b0 24 02 db 3d 74 49 10 3e b5 8c b2 3e f6 e6 ab bd
       0.10693768 0.1409052 0.34872976 -0.08393662
0000c0 85 42 f0 3e 30 d5 09 be bf fd 64 be 93 f1 77 3d
       0.4692575 -0.13460231 -0.22362421 0.060533118
0000d0 ad 8e 34 bd 28 db c6 bd dc e8 35 be 9a dc 6c 3c
       -0.04408138 -0.097097695 -0.1776461 0.014456892
0000e0 e6 ef 37 3d 25 a8 6f be 8a 4f 34 3c fc 3a c6 3d
       0.04490652 -0.23403986 0.011005292 0.09679219
0000f0 a3 b9 d7 3c 62 f9 27 bd 47 04 5c be 7e 31 0b 3c
       0.026333636 -0.041009314 -0.21486007 0.008495687
000100 48 ed 56 3e ee 17 14 be ed 9a 8c 3e dd 02 f5 bd
       0.20988953 -0.14462253 0.2746195 -0.11963437
000110 07 07 2f be b9 7a fb bd d1 cd 8c 3e 07 05 dd bd
       -0.17092524 -0.12279267 0.27500775 -0.107919745
000120 37 c8 d6 bb 2f fa 19 bf 8d 1e 9a bd 2e 18 41 3b
       -0.006554629 -0.60147375 -0.07525358 0.0029463875
000130 26 77 24 bd 3f c0 84 3c cb 91 0a bc d9 13 2f bc
       -0.04015269 0.016204951 -0.008457611 -0.010685884
000140 de a3 ee 3c 72 28 9d be 4e bc e6 bc 19 86 ae 3d
       0.029130872 -0.3069492 -0.028165963 0.08521671
000150 24 7f b9 bd a7 ea 53 3e 23 00 b4 3d 08 77 f4 3d
       -0.09057453 0.20694982 0.087890886 0.11936766
000160 b2 fb 58 3e cf ef 29 be 89 c5 bf 3d 29 7f 96 3e
       0.21189764 -0.16595386 0.09363849 0.2939389
000170 f1 2b 7e 3d 4b f5 83 be fd f7 8c 3d 98 c1 50 3e
       0.062053625 -0.2577308 0.068832375 0.2038635
000180 e8 14 00 be f0 24 4a be df db 1d 3e 75 9e 87 bc
       -0.12507975 -0.19740653 0.15415905 -0.01655505
000190 d9 17 44 bd b5 fe 0d 3e 74 20 17 3e 06 aa 07 3c
       -0.047874305 0.13866694 0.14758474 0.008280283
0001a0 a3 64 1e be ae 56 63 3d a1 e8 6a 3d b8 69 4c 3e
       -0.15468077 0.055502586 0.05735076 0.19962204
0001b0 fa fc 0f be 3d 28 33 3c cd 15 c0 bc b1 70 89 3e
       -0.14061347 0.0109348865 -0.023447895 0.2684379
0001c0 cc d7 9f bd 30 f0 8c 3d 62 3d a1 3c 69 1e 25 3e
       -0.07804832 0.0688175 0.01968259 0.16124882
0001d0 ae 89 b6 3b 84 91 a2 3d 6c 4a a8 3d 93 c4 59 3e
       0.005570612 0.07937911 0.0821732 0.21266393
0001e0 30 f2 c1 3e ce 90 2b be dc 6e a6 bc af cd 1f bd
       0.37880087 -0.16754457 -0.020316534 -0.039014515
0001f0 29 12 a4 be e4 2d ad bd 26 ad f0 ba ae 79 fe bd
       -0.32045105 -0.084560186 -0.0018362149 -0.12425552
000200 0a f2 aa 3e d4 5c 73 bc 38 a8 49 3d 9a 1d 4f be
       0.33387786 -0.014853675 0.04923269 -0.20226136
000210 7b 8f 17 be 3b b8 c1 3d ca 95 77 3e e9 89 ae be
       -0.14800827 0.09458967 0.24178234 -0.34089592
000220 63 2f 89 3e 64 94 27 3e 69 38 22 be b5 c3 85 3e
       0.26793966 0.163652 -0.15841831 0.26125875
000230 b0 fb f0 3d f9 4a 5f bd 5a a4 ce bd 96 56 91 3e
       0.117667556 -0.05451486 -0.10089941 0.28386372
000240 a4 c2 68 bd 4a 11 45 be a4 b5 74 bc 2c d5 f1 bc
       -0.05682625 -0.19244877 -0.014935885 -0.029520594
000250 e6 0b 74 3d 8e 28 22 bd 42 c2 9f bd ac 0e 43 3e
       0.05958166 -0.039589457 -0.078007236 0.19048566
000260 20 a7 46 bd 95 e6 4e bd f0 9a 83 bc 70 a2 5f 3d
       -0.048499227 -0.05051287 -0.01606509 0.05459827
000270 d5 98 c4 3d 69 6e 37 3e f1 27 50 3c 20 28 a3 3c
       0.09599463 0.17913212 0.012704835 0.019916594
000280 53 bc bb 3d ff c6 9b 3d 94 22 5d bc 46 ca 28 be
       0.09166779 0.07606315 -0.013497014 -0.16483411
000290 ec 10 81 3c e2 4f 9d 3e 2b 57 ab 3c f2 df 5d be
       0.01575514 0.30725008 0.020915588 -0.2166746
0002a0 52 89 99 3d 68 09 ef ba 6f 1d 7e bd 24 c6 a5 3c
       0.07496895 -0.0018237056 -0.06203979 0.020236082
0002b0 0d ae 29 be fe 60 2c be 75 12 56 bd 50 91 0d 3e
       -0.16570301 -0.16833875 -0.052263696 0.13824964
0002c0 de c8 fb 3c 1c 9c 9d 3c 5f a4 0a 3c bc d1 d0 3d
       0.03073543 0.019239478 0.008462041 0.10196254
0002d0 7f 2b 54 3e c4 e0 88 3d 56 6b b4 bc 78 85 d5 3d
       0.20719717 0.06683496 -0.022023838 0.10425848
0002e0 de 55 35 be e9 c0 08 3e 5b 07 5e 3d b7 7f 2e 3d
       -0.17708537 0.1335484 0.054206233 0.042602267
0002f0 4b bc 8b 3e e9 ef e5 be 52 60 10 bd f0 bc c1 3d
       0.27292094 -0.449096 -0.03524811 0.09459865
000300 9c cf 76 3e 69 54 7c 3e 6c 9d 1e bd 1e 67 b6 bc
       0.24102634 0.24641575 -0.038724348 -0.022265967
000310 6b a8 39 be 23 51 c3 be a0 26 24 be 76 38 f3 3c
       -0.18130653 -0.3814784 -0.1603036 0.029690009
000320 db e8 99 3d 62 51 3d bd 34 cc f4 3c 33 7e fb 3d
       0.07515117 -0.04622019 0.029882528 0.1227993
000330 60 1b 79 be c0 28 f8 bd d6 9e 19 3e 65 47 28 3e
       -0.24326849 -0.121171474 0.15001997 0.16433485
000340 d4 e8 4f be 4e 22 9d be 16 5b 45 3e c6 ce 3f 3c
       -0.2030366 -0.30690235 0.19273028 0.0117070135
000350 36 6f d6 bc 0d 62 03 3f 21 c3 1c 3e fd c7 7a bd
       -0.026176076 0.5132149 0.15308811 -0.06122588
000360 5d 81 98 3e 90 03 07 3e 59 e4 39 3e 23 4a 8c bd
       0.29786196 0.13184953 0.18153514 -0.06850078
000370 01 12 a4 bd cd 8e 33 3e 61 e3 a5 3d cf d1 8b bd
       -0.080112465 0.17534943 0.0810001 -0.06827127
000380 b7 a8 33 3e de 36 fa 3c b7 26 d8 bc a1 b7 05 3e
       0.17544828 0.03054374 -0.026385648 0.1305833
000390 c9 c5 ea 3c de ac 1b 3e b1 3f fb bd a7 32 3e 3d
       0.028658764 0.15202662 -0.122680075 0.046435025
0003a0 ea 9c 1f be 64 0a 24 bd 91 ae 01 bd 9e c7 d4 3d
       -0.15587202 -0.04004897 -0.03166062 0.103896365
0003b0 03 2a 00 bd 6e 47 98 be 1d ce 55 bd df f4 35 3e
       -0.031290065 -0.29741997 -0.052198518 0.17769192
0003c0 3a b4 19 bd d1 7e f8 bd 33 a1 42 be 04 1b 2d 3c
       -0.037525393 -0.12133563 -0.19006805 0.010565523
0003d0 67 dc 3a 3d 27 f4 e3 bd 4c 7d 84 be 41 10 98 be
       0.04562035 -0.11130553 -0.25876844 -0.296999
0003e0 d7 dc 64 bc ea 3f 90 be 05 ab de bb 9e d5 bf bd
       -0.013968668 -0.28173763 -0.0067952895 -0.09366916
0003f0 cf 22 8f bd c7 67 fb bc 7c 0c e0 bd 48 71 17 be
       -0.06989061 -0.030689133 -0.10939881 -0.14789307

fcs1.bias f4 [128]
000000 19 76 7b 3d 6d e3 a7 3d 87 3a 92 be 95 83 71 bd
       0.061391924 0.08197675 -0.28560278 -0.058963377
000010 21 4d fd bd 5c f3 5b be af 6d df 3c 14 7e 88 be
       -0.12368227 -0.21479553 0.02727398 -0.2665869
000020 14 05 2f be df df 23 bd 33 96 78 bd 3f a9 95 bb
       -0.17091781 -0.040008422 -0.060690116 -0.004567295
000030 73 e0 07 3c de 79 51 bb 41 0e f0 bc 29 00 32 be
       0.008293259 -0.0031963508 -0.029303672 -0.17382874
000040 2a c5 15 be 9e d8 67 bb 06 27 c8 bd 5a 97 92 bc
       -0.14625993 -0.0035376917 -0.09773068 -0.017894436
000050 ca 81 a0 3c 1f 66 b6 3b 45 7b fc bd 7b 62 26 be
       0.019593138 0.005566373 -0.12328199 -0.16248505
000060 a2 c5 6f be 42 82 54 bd 49 93 1c be f5 1c d0 bd
       -0.23415235 -0.051882036 -0.1529056 -0.10161773
000070 ed 1c e1 be 6e e1 79 bd cb de 4b bd 00 86 f4 bd
       -0.4396738 -0.061006002 -0.04977302 -0.11939621
000080 5d 33 03 bd aa 3c 3b bd c4 49 77 be 98 d2 37 3d
       -0.032031406 -0.04571215 -0.24149233 0.044878572
000090 4e b8 42 bd f4 5a b3 3d bb e1 9c be b3 02 a0 be
       -0.047539048 0.08757582 -0.3064097 -0.3125206
0000a0 01 a6 7d be 75 48 5f bd 90 8f 3d 3d 8c 12 47 be
       -0.24770357 -0.05451246 0.04627949 -0.19440669
0000b0 5a 8f 52 bd b4 ea 7d bb 0c 0b d0 bc 2b a3 82 be
       -0.051406242 -0.003874463 -0.025395893 -0.25515112
0000c0 21 47 39 3e d2 cc 83 be d8 e6 34 be e7 31 93 be
       0.1809354 -0.25742203 -0.17666185 -0.2874901
0000d0 5a 56 46 be de 86 9b be d8 20 bb bb 1d 82 16 be
       -0.19368878 -0.30376333 -0.0057107024 -0.14698072
0000e0 f5 34 41 3d 0d 3e a2 ba 5c 16 4f be f8 9d 1e bd
       0.047169644 -0.0012378112 -0.20223373 -0.03872487
0000f0 1c 5e cc bb 9d e8 1d be 21 88 61 3d 16 f3 cd 3d
       -0.0062368046 -0.15420766 0.055061463 0.100561306
000100 bd 85 c9 3d 92 a8 36 bd 57 e2 10 be 90 b1 21 bd
       0.09839962 -0.044594355 -0.14148842 -0.039475977
000110 26 1c 81 bd a4 78 38 3d 55 e7 3b 3c fe 10 24 3c
       -0.06304197 0.045036927 0.011468728 0.010013817
000120 ad fa e9 bd 41 3c de be a3 27 b5 be b6 0c 1d bd
       -0.11424766 -0.43405345 -0.35381803 -0.0383422
000130 24 6e b1 be b6 a6 6f be e1 f1 b1 bd 5f dd 33 3a
       -0.34654343 -0.23403439 -0.08688713 0.0006861295
000140 40 fc f0 be 68 f2 fb be c7 b5 92 3c 98 e8 21 be
       -0.4706745 -0.4920838 0.017908944 -0.15811384
000150 9a 9b d8 3d 6f 29 64 3d bd 7c 1b be f7 f4 9f bd
       0.10576554 0.055703577 -0.15184303 -0.07810395
000160 72 7c 84 bc 56 e3 9e bd 6e 85 37 be 14 8e 46 be
       -0.016172621 -0.07758205 -0.17921993 -0.19390136
000170 dc 58 da bd b6 1b b0 bc e2 4c 32 3d d0 6c a1 bd
       -0.1066148 -0.021497589 0.043530352 -0.078820825
000180 71 10 b2 be 29 23 37 bb 48 09 81 be 67 3d a6 3c
       -0.3477817 -0.002794454 -0.25202394 0.02029295
000190 e0 49 0e bd b8 62 87 be 14 43 79 bd 4b 0c 9d bd
       -0.03473842 -0.26442504 -0.060854986 -0.0766836
0001a0 f6 61 9f be be c1 c3 3d 34 c3 31 bd 9a 3f c0 be
       -0.31129426 0.09558438 -0.04339905 -0.37548524
0001b0 f2 b2 c4 bd 30 ed cb bd 07 75 67 be 91 1a 0e be
       -0.096044436 -0.09957349 -0.22603236 -0.13877322
0001c0 23 40 36 bd 22 4b 32 3e b9 1d 6f be 9c d4 a1 bd
       -0.04449476 0.17411473 -0.23351182 -0.0790188
0001d0 90 d1 c3 bd 5f 9b ac bd 5c 1f 92 bb e5 d0 84 be
       -0.09561455 -0.08428072 -0.0044593047 -0.25940624
0001e0 cf 1f 29 3a 2d dd f8 bc 97 93 dd 3c 27 d5 91 3d
       0.0006451578 -0.030378902 0.027047915 0.07120734
0001f0 15 30 67 be 02 ba 4e bd 18 ac 00 3d e5 d2 31 be
       -0.22576936 -0.05047036 0.03141412 -0.17365606

fc2.weight f4 [128, 130]
000000 5e f1 ef 3d 95 d6 c2 bc 03 b0 1f bb 0d ac 7b 3d
       0.11715959 -0.023783961 -0.0024366386 0.061443377
000010 cc 46 a7 bd 6c 78 c3 3d f6 f3 60 be 9d 74 3e bf
       -0.081678 0.09544453 -0.21968064 -0.7439669
000020 c6 4e 05 be a4 03 f3 bd af d6 02 bd 08 e3 b0 bc
       -0.13018331 -0.11865929 -0.03194302 -0.021592632
000030 bb 84 9d be f2 42 d4 bd cf 8a 32 3e 20 6a b6 bb
       -0.30765328 -0.10364331 0.17435764 -0.0055668503
000040 c5 38 a1 be ed be 94 bc 9d 66 15 bd 8a c7 66 be
       -0.31488624 -0.018157447 -0.036474813 -0.22537056
000050 30 42 88 bc 79 3c 01 3e 07 5d 2c 3f a1 d0 8e 3e
       -0.016633123 0.12620725 0.6732945 0.27893546
000060 83 f0 45 3e 9d b0 08 be 56 fa 07 bd 8e 6c 20 bc
       0.19330029 -0.13348623 -0.033197723 -0.009791506
000070 bb 33 32 be 83 c0 14 be 29 77 0f bd de 17 fe be
       -0.17402546 -0.14526562 -0.03502575 -0.49627584
000080 21 90 97 bd 30 99 4b 3e 1d b3 64 bf ac b5 0a 3e
       -0.07400537 0.19882655 -0.89335805 0.13545865
000090 e2 20 48 bf 93 77 cf 3c 83 12 03 3d d6 55 1f be
       -0.78175175 0.025325572 0.032000076 -0.15560088
0000a0 be 04 71 3e 69 bc 82 3e 2a 33 a7 3e 67 ab ff 3c
       0.23536965 0.2553437 0.32656223 0.03120966
0000b0 51 bf b0 bd 78 a5 cd be ee fe 87 bc 97 49 6d bc
       -0.08630241 -0.40165305 -0.016601052 -0.014482877
0000c0 25 58 c3 3d 3a f9 05 bf 84 eb 34 be b0 f6 9c 3d
       0.095382966 -0.52333415 -0.17667967 0.076642394
0000d0 ae c2 44 3d 25 a8 91 3d f7 f5 50 3d cc 5f 72 3e
       0.048037224 0.07112149 0.05101582 0.23669356
0000e0 49 46 ff bd f8 25 f9 3c ed f7 14 bf 26 38 38 be
       -0.12464578 0.030413613 -0.58190805 -0.17990169
0000f0 e3 2e 98 be f4 14 18 3e 59 fa 84 be 1e 82 24 bd
       -0.29723272 0.14851743 -0.2597225 -0.040163152
000100 aa 31 b8 bd 18 70 b6 bd fd 8e 11 c0 be 64 92 3d
       -0.08993848 -0.08908099 -2.2743523 0.07148121
000110 e4 c0 67 3e 9c fb cf bb 48 b9 b1 3d cb d5 04 3e
       0.22632176 -0.006347133 0.08677918 0.1297218
000120 3a 0d e8 be 23 63 43 be 68 4e 00 3e a7 6b 29 bf
       -0.4532259 -0.19080786 0.1252991 -0.6617989
000130 15 f0 7f be ee e4 77 bd 45 63 fa bd 90 36 d2 bd
       -0.24993928 -0.06052106 -0.122259654 -0.10264313
000140 bb 08 c2 be 2c 0f 52 3d c5 1d 35 3e 22 17 cf bd
       -0.37897286 0.051284 0.17687137 -0.10111834
000150 d8 72 92 be 49 61 85 bd ad 50 54 be e4 2a 49 be
       -0.28603244 -0.06512696 -0.207339 -0.19645268
000160 61 3a 33 bd 9b bf ef bd 95 b1 e2 3e 86 9f d0 be
       -0.043756846 -0.11706468 0.4427611 -0.40746707
000170 aa c8 ab be b2 0c b9 3d ce fe e9 3d 4f d2 8a bd
       -0.33551532 0.090356246 0.11425553 -0.067783944
000180 63 0e b9 be b3 3b 50 bd e4 68 a2 bf 1d 76 64 3e
       -0.3614379 -0.050838184 -1.268826 0.22310682
000190 a9 d7 22 3d bc b4 39 be 7d 38 30 3e 71 65 e9 3e
       0.03975645 -0.18135351 0.17209049 0.45585206
0001a0 76 89 0b bf 03 51 14 3d 48 d1 d0 3d 9b 9b 34 bd
       -0.54506624 0.03621007 0.10196167 -0.04409371
0001b0 bc bf f7 3d 2e 32 76 3d 8b 1f 87 be 40 5f bf bd
       0.12097117 0.06010645 -0.26391253 -0.09344339
0001c0 29 c1 f3 bd 7f f7 fd bc f0 78 3c be 0d 74 01 bf
       -0.11902077 -0.031001804 -0.18405509 -0.50567704
0001d0 f8 84 1a 3e a5 a7 a6 3d 91 9a b1 be 9d 4c 8e bd
       0.15089786 0.081374444 -0.34688237 -0.069482066
0001e0 f1 8c 1c be 7f 0f aa bc c1 94 5e bd c3 cc c6 3b
       -0.1528814 -0.020759342 -0.05434108 0.00606689
0001f0 ac 8b 0b be fc c6 fe bc 95 a5 b6 3c 47 50 b1 bd
       -0.136275 -0.031100743 0.022295753 -0.0865789
000200 5e 54 ca bc 88 7f 3a bd 54 de e7 3d b7 3b 7e bd
       -0.024698433 -0.04553178 0.113217026 -0.062068667
000210 bd 32 05 3e 76 29 78 bb 0f 69 8e be 84 d0 32 3f
       0.13007636 -0.003786651 -0.27814528 0.6984942
000220 92 94 d5 be 6e 7c 18 be 21 3e f1 bd 69 d5 dd bd
       -0.41714913 -0.14891216 -0.11779428 -0.108317204
000230 b2 f3 c1 be 02 e9 5a bf 56 84 17 3f 83 8a 0c bf
       -0.37881237 -0.8551179 0.59186304 -0.5489885
000240 a5 05 1a bc 51 4e 59 3d b2 b8 9e be 07 64 8a 3c
       -0.00940076 0.053053204 -0.31000286 0.0168934
000250 e8 ca 0f 3e 4c 8f bb 3e 36 20 a7 3d 36 04 ac 3e
       0.14042246 0.36632764 0.081604406 0.33596963
000260 e9 0c 88 be 6b 4e 30 bf 0f 44 30 bf bd 92 37 be
       -0.2657235 -0.68869656 -0.6885385 -0.1792707
000270 23 4f 9c be ab 30 5e bf bd ac 06 bf 1b 9d 5d 3e
       -0.30529127 -0.8679301 -0.5260733 0.21641962
000280 7c 09 06 bd 2c 99 8e bd 07 af 0a be f8 e1 38 3d
       -0.03272389 -0.06962809 -0.1354333 0.045137376
000290 bb 30 ee 3e b3 da ab 3c ef dc f4 3d bf c3 bb bf
       0.46521553 0.020978307 0.11956202 -1.4669112
0002a0 dd 48 32 bf 12 01 9b be 56 0f 70 3e 60 f2 93 3e
       -0.6964243 -0.30274254 0.2344335 0.28895855
0002b0 af 70 13 be 76 f5 c5 3e 10 0a dc be 98 fd 61 bc
       -0.14398454 0.38663834 -0.42976427 -0.013793372
0002c0 d1 34 44 3d 0d de 5e be c9 83 53 3e 06 2b cc 3d
       0.047901932 -0.21764393 0.20655741 0.099691436
0002d0 95 10 f3 3c 0e 81 67 be 42 12 82 be ec ae 16 be
       0.029670993 -0.22607824 -0.25404555 -0.14715165
0002e0 9c 07 0f bf 42 a5 d8 be d8 d8 86 3d 4e f5 c5 bc
       -0.55870986 -0.42313582 0.065843284 -0.024164822
0002f0 d2 1a 26 3e 28 8e 83 3c 1e aa 91 3e e3 cc 5c be
       0.16221169 0.016058996 0.28450102 -0.21562533
000300 8e c7 5b be 9c 33 19 3e b5 0b 33 3e 6b 58 ab bf
       -0.21462843 0.14961094 0.17484935 -1.3386358
000310 51 b0 0a be 81 48 35 3e 45 a7 79 bd 92 a8 a7 3d
       -0.13543822 0.1770344 -0.060950536 0.08186449
000320 5a 98 96 be 9d 59 ed 3d 8d df b4 bd a7 a2 0f bf
       -0.2941311 0.11589358 -0.088317014 -0.5610756
000330 c1 6e 4d bf 91 4a 97 be 3c de 69 be 29 4f 87 be
       -0.8024712 -0.29549077 -0.22838682 -0.26427582
000340 3c 64 07 3f 44 5a a7 be 78 47 fd be dc 6f 7e bd
       0.5288732 -0.32686055 -0.4946859 -0.062118396
000350 94 b5 02 3e 8c f7 8b 3e f5 f5 d3 bf b2 6c ed be
       0.12764579 0.273373 -1.6559435 -0.4637199
000360 8b 99 9f be 95 81 31 3d 58 bc a5 3d 81 43 65 bf
       -0.3117183 0.04333647 0.08092564 -0.8955613
000370 bb a4 9c be d3 98 9f be bf 23 0f be 72 54 d2 3e
       -0.3059443 -0.31171283 -0.1397848 0.41080052
000380 9a d1 f4 be 6f 18 b9 bd 42 5c b8 be 55 ea a6 3d
       -0.47816163 -0.090378635 -0.36007887 0.08150164
000390 39 b0 8a be 55 4b 96 3d f5 87 66 be a3 9d a5 be
       -0.27087572 0.07338587 -0.22512801 -0.3234683
0003a0 f3 00 8a be d6 b5 88 bd 67 fa cf 3d c4 fd 82 be
       -0.2695385 -0.066753075 0.10155182 -0.25584233
0003b0 07 2f 3a bf 3e f7 cb be 99 a4 d0 be be c9 9b be
       -0.7272801 -0.39837068 -0.40750578 -0.30427355
0003c0 b4 8b 14 be 12 ba b9 be 2d e2 93 3c 51 37 6c bc
       -0.14506418 -0.36274773 0.018052185 -0.014417485
0003d0 7b b3 39 3e d8 82 b9 3d 3d bd ca 3d 55 0a a4 3e
       0.18134873 0.090581596 0.098993756 0.32039133
0003e0 c6 b8 f5 be 4f 09 e7 bd 91 6c e5 3d 3d 17 6c 3d
       -0.47992533 -0.11281072 0.11202348 0.05763935
0003f0 97 c4 2f 3d 3b 8d be 3e af 92 4d be b3 e3 65 be
       0.042912092 0.37217125 -0.20075487 -0.22450142

fc2.bias f4 [128]
000000 3e 80 cc 3d cc a2 65 3d 36 90 8f bd fe 63 84 bd
       0.09985398 0.05606346 -0.07009928 -0.064643845
000010 b1 3b 8b bc 16 a9 cd 3d 01 bb b0 bd ba 60 80 bd
       -0.016996237 0.10042016 -0.08629418 -0.06268449
000020 f1 3e 1b be ba 00 72 3d 63 af be bc 01 e2 1d be
       -0.15160729 0.059082724 -0.02327699 -0.15418245
000030 38 40 ff 3d c7 f9 20 bd d0 cc 2f bd 90 c7 33 bd
       0.12463421 -0.039300706 -0.042919934 -0.04389149
000040 5c cf a6 bd a3 90 bf bd b1 8a 8d be ac 8b e1 bc
       -0.081450194 -0.09353759 -0.27644876 -0.027532421
000050 9c dd eb bd 54 c0 97 bd e7 09 6f 3d 6c 18 f7 bd
       -0.11516878 -0.074097306 0.058359053 -0.12065205
000060 7d 28 03 be c1 53 88 3d 0f a5 82 bd 0b 2d 5d 3c
       -0.12808414 0.066566 -0.06379139 0.013499509
000070 43 23 a8 3a 58 7b 67 bd a8 59 47 3c 31 a5 0e 3d
       0.0012827892 -0.056514114 0.012167372 0.034825508
000080 69 1a c4 bd aa 61 91 3d 9c aa ed 3d e8 2b c7 bd
       -0.0957535 0.07098706 0.11604807 -0.09725171
000090 0a d0 5b be 05 b8 ca 3d d9 04 81 3c d5 32 ff 3b
       -0.2146608 0.0989838 0.015749382 0.007788042
0000a0 57 ae 02 be b3 da 91 3d 23 fb ac bc 0b da 4a 3d
       -0.12761818 0.07121792 -0.021115845 0.04952435
0000b0 6e 11 18 3d 5b 2c 93 bd ce 0d 98 bd 4b 78 e4 bd
       0.037125997 -0.071861945 -0.07424508 -0.111557566
0000c0 38 a9 bf bd e3 88 c1 bd 08 b5 95 3d 9e 20 4e 3d
       -0.09358448 -0.09449937 0.073099196 0.050324075
0000d0 e4 ed 58 be 01 e0 c3 bd 91 d5 9c bb 63 fa 7f bd
       -0.21184498 -0.0956421 -0.0047862013 -0.062494647
0000e0 73 2b ba bd e2 d0 84 bb 95 85 c7 3d cb ed 95 bc
       -0.090903185 -0.004053221 0.097422756 -0.018301865
0000f0 5b ab e2 bc d1 da c7 bd 01 87 cc 3c bc 55 58 bd
       -0.0276696 -0.09758533 0.024966719 -0.052816138
000100 bc c6 80 bd 7a c4 25 3d a6 ed d6 bd 3e 68 be 3d
       -0.062879056 0.040470578 -0.104945466 0.09297226
000110 45 c2 62 bc 04 de b8 3d fe 2a 8b 3d 0f 2e 01 be
       -0.013840263 0.09026721 0.067953095 -0.12615226
000120 d5 80 2f 3d 4d 9d 7b bd a5 50 75 3d 78 53 7c bd
       0.042847473 -0.06142931 0.05989136 -0.06160304
000130 20 e8 a7 bd 35 d2 83 3c c6 d5 ad bd d4 b5 4e bd
       -0.08198571 0.016091445 -0.0848804 -0.050466374
000140 a5 ad e2 3c 1f 41 97 3d ac 87 8f bd de 44 08 bd
       0.02767069 0.07385468 -0.07008299 -0.033268802
000150 23 cd a9 3d d2 1f e1 bd c5 8a cc bd fc 4d c6 bc
       0.0829108 -0.10992397 -0.09987406 -0.024207108
000160 0d 92 0f 3e e2 f4 b2 bd b4 e6 38 bb 1f 27 cd bd
       0.14020558 -0.08738114 -0.0028213682 -0.100172274
000170 3c e6 43 3b 92 73 ca bd 38 44 84 3d a0 b0 f8 bd
       0.002989187 -0.098853245 0.06458324 -0.121430635
000180 dd 87 48 bc eb d6 8c bd 85 0b 60 bd b3 f1 94 bd
       -0.012239424 -0.0687693 -0.054698486 -0.07272663
000190 30 73 ab ba 1a 84 b9 3d 9e d2 83 3d c9 8e 0c 3c
       -0.0013080593 0.090583995 0.064366564 0.0085789645
0001a0 10 5e dd 3d cb 56 65 bc a5 b9 fe 3c 29 47 cf bd
       0.108089566 -0.013997744 0.031094382 -0.101209946
0001b0 15 d0 f5 bc b6 eb 18 bc 97 72 a3 bd 02 f7 26 bd
       -0.030006448 -0.009333542 -0.07980841 -0.04076291
0001c0 ed d2 77 bd 84 7c fb bc 98 f7 84 bd 24 ef bd bd
       -0.06050389 -0.030699022 -0.06492537 -0.09274128
0001d0 2d 21 87 bc 78 81 10 3e 8e 23 90 bd 18 04 68 bd
       -0.016495312 0.14111888 -0.070380315 -0.05664453
0001e0 f4 35 95 3d a1 cc ed bd 5b dd d1 bd d5 d8 d7 bd
       0.07285681 -0.116112955 -0.10247298 -0.10539404
0001f0 c7 4b 65 3d 54 60 c7 bc 3a 5d d2 bc 01 13 a6 bc
       0.05598047 -0.024337925 -0.02567922 -0.020272734

fc3.weight f4 [1, 128]
000000 4f c2 d1 3d 38 13 83 bf 63 40 7c bc 15 a8 e9 3e
       0.102421395 -1.024024 -0.01539621 0.4563605
000010 47 24 12 bf c1 2a 95 bd 17 e5 cd bc 54 f4 e1 3e
       -0.57086605 -0.07283545 -0.025133653 0.4413172
000020 e6 83 34 bf 8e 7d 88 3e ad 72 19 be 77 90 a0 be
       -0.7051376 0.2665829 -0.14985152 -0.31360218
000030 27 cb 23 3e ab 03 34 3b 99 50 43 3f 59 93 94 3a
       0.15995465 0.0027468007 0.7629486 0.0011335417
000040 e6 cb db bd 83 29 65 3c 5a 26 d5 3e a9 82 d8 3e
       -0.1073225 0.013986948 0.41630822 0.42287186
000050 2e 6e 12 3d 4f 41 b1 be cd 8a 12 3e a8 32 8a be
       0.035749607 -0.3462014 0.14310761 -0.26991773
000060 2f 57 03 bf b5 97 4d 3e b3 93 0f be 97 39 37 3e
       -0.51304907 0.20077403 -0.14021187 0.17893063
000070 8d 50 79 be d8 e5 58 bd 31 fa 6d be cd 9d f4 bd
       -0.24347134 -0.05295357 -0.23239972 -0.119441606
000080 c7 0e ce 3b 35 1f 3d be a3 3d 1e 3e e2 21 fe 3a
       0.0062883827 -0.18468936 0.154532 0.001938876
000090 b0 63 d5 be 5f bb 9e bd 1f 74 45 be 37 68 83 3e
       -0.41677618 -0.07750582 -0.19282578 0.25665447
0000a0 db 25 85 bc 46 7d f7 3d 70 9b 7f 3c 92 97 d1 bd
       -0.016253402 0.12084441 0.015601024 -0.10233988
0000b0 be 86 f2 bd aa 90 fa b9 8c b8 55 3c 7e d9 11 be
       -0.11842106 -0.000477915 0.013044488 -0.14243123
0000c0 21 d3 bf ba ed ca ee be 31 72 30 3e 3a d5 b5 3d
       -0.0014635065 -0.46639195 0.1723106 0.0887856
0000d0 20 f7 d5 be 01 82 6f b9 66 2b fa 3d c7 6a e1 bd
       -0.41790104 -0.00022841246 0.12215309 -0.11006694
0000e0 3e ee d3 bb 17 f7 80 be 30 03 4d 3e 77 29 1a 3e
       -0.0064676097 -0.25188515 0.20020747 0.1505488
0000f0 fc 51 34 be 61 16 cf b9 d3 f3 17 3e 14 1e 21 3f
       -0.176094 -0.0003949879 0.14839105 0.6293652
000100 04 3f 04 bf 56 44 3d 3e 9f 68 39 bc 93 d8 88 bd
       -0.51658654 0.184831 -0.0113164475 -0.06681933
000110 79 f3 18 3f 80 cb 22 be bf 28 2d 3e e9 bc 9d bb
       0.5974651 -0.15897942 0.16910075 -0.0048137796
000120 3d 9c 1a 3e d5 50 1e bf 42 3e 14 3e 0a 24 a6 3b
       0.15098663 -0.6184209 0.14476874 0.005070214
000130 0f 2c cd bc e4 a8 af be fc f3 c8 b9 71 f0 99 3e
       -0.025045423 -0.3430854 -0.00038328755 0.30066255
000140 34 80 53 be b3 6b cf 3e 45 2f 7a 3f bf 01 61 be
       -0.20654374 0.40511855 0.9772838 -0.21973322
000150 62 1f 42 3e 70 29 18 bf f5 c5 19 3e 88 2f 0e 3c
       0.18957284 -0.5943823 0.15016921 0.0086783245
000160 2e 74 0b be 7f b2 a5 3c 12 81 17 be 07 46 47 bb
       -0.13618538 0.020226715 -0.1479533 -0.003040673
000170 2d a3 93 bd 5c 74 d9 3c c9 16 3d 3e a1 06 ea 3c
       -0.07208858 0.026544742 0.18465723 0.028567614
000180 84 dc a8 be 88 f6 1b be c2 5f 9f be 6d 09 f2 be
       -0.3298074 -0.15230763 -0.31127745 -0.47272816
000190 51 f8 75 3e b9 6c 48 3d 87 f6 a3 be 88 9d e9 ba
       0.24020506 0.04893181 -0.32024023 -0.0017823437
0001a0 7e 3a 96 be 2a d8 ef bd 31 b4 0c 3e 3c e0 d8 3b
       -0.293415 -0.11711152 0.13740613 0.0066185277
0001b0 f8 0d 85 bc 0b 3f ed 3d 33 54 9e 3c b6 66 6a be
       -0.016242012 0.1158429 0.019327259 -0.22890744
0001c0 ee 70 91 bb fd f4 19 be 13 f9 b7 ba b5 73 23 3d
       -0.004438511 -0.15034862 -0.0014036022 0.03990527
0001d0 af 38 75 be cd 39 8e 3d 73 15 2a bb 97 e0 50 39
       -0.23947404 0.069446184 -0.0025952726 0.00019920092
0001e0 c4 ab c8 be 2e 8c 23 3b 8e d8 d1 be 46 3e a3 bc
       -0.39193547 0.002495538 -0.4098553 -0.019927155
0001f0 3e 94 7e 3e e8 e7 b9 be 5c 79 92 bd 2e 4c 59 be
       0.24861237 -0.36309743 -0.07152054 -0.21220466

bn1.weight f4 [24]
000000 a2 87 bd 3e b9 c7 4d 3e 4a c6 92 3d 56 6d ee ba
       0.37017542 0.2009572 0.07166727 -0.0018190544
000010 38 02 3f 3f 58 40 23 3f f1 72 dd 3c 6d 50 4d 3e
       0.7461276 0.63770056 0.027032347 0.20050211
000020 d5 9a ac 3d b0 50 dc 3c 70 c6 2c 3b 53 69 43 3c
       0.08427969 0.026893944 0.0026363395 0.011926967
000030 c8 e0 04 3f dd e1 c2 3e 06 0f 43 3e c2 fc ed 3d
       0.5190549 0.38062945 0.190487 0.11620475
000040 ee fa 1d 3f d3 0d 9f 3e 85 d2 e1 3d 69 c3 50 3e
       0.61711013 0.31065235 0.110264815 0.20387043
000050 61 a4 41 3f d2 29 ff 3e 1e 78 43 3e 66 76 03 3e
       0.7564145 0.49836594 0.1908879 0.12838134

bn1.bias f4 [24]
000000 b0 50 01 be 9f 75 c0 3d c9 59 8e 3b 3b 09 8e 3a
       -0.12628436 0.093974344 0.0043441993 0.0010836491
000010 96 c3 2c 3e 3c 9e 1b 3e 59 24 86 3b 48 4f 51 3c
       0.16871485 0.1519708 0.0040936884 0.01277525
000020 e4 8d de 3a f0 14 b3 3b 42 c1 1c bb a9 6c 23 3a
       0.0016979543 0.0054651424 -0.0023918902 0.0006234148
000030 bc 01 ad 3d 08 a8 24 3d 6f 0c 5e bc d3 7e d0 3a
       0.084475964 0.04019931 -0.013552769 0.0015906937
000040 20 5a ae bc af 39 63 bd b8 f1 0c bd 1c 60 d0 bc
       -0.02128321 -0.055474933 -0.03441021 -0.025436454
000050 e2 fa a5 3d 7f fa 5d 3d 48 2c e6 bc ee 21 82 bc
       0.08104493 0.05419397 -0.028097287 -0.01588532

bn1.running_mean f4 [24]
000000 25 39 cc c0 4a ea c1 bf 03 e3 e6 3f 1f fc 18 bc
       -6.3819757 -1.5149624 1.8038028 -0.009337454
000010 74 dd 40 bd 93 6b 0c 40 03 e3 e6 3f 1f fc 18 bc
       -0.047086194 2.1940658 1.8038028 -0.009337454
000020 12 2b d0 c0 0c da c5 bf e1 0d cf 3f dc e1 72 bc
       -6.5052576 -1.5457168 1.617611 -0.014824357
000030 68 75 3c bd cd 28 0b 40 e1 0d cf 3f dc e1 72 bc
       -0.046010405 2.1743653 1.617611 -0.014824357
000040 67 cd d3 c0 10 dd c9 bf 95 b3 dd 3f 0d 33 d2 bc
       -6.6188235 -1.5770588 1.7320429 -0.025659109
000050 34 55 14 bd 5b 6a 08 40 95 b3 dd 3f 0d 33 d2 bc
       -0.03621407 2.1314914 1.7320429 -0.025659109

bn1.running_var f4 [24]
000000 39 dc 31 41 c9 cf 08 3f e7 ca 21 43 80 fb 27 40
       11.116265 0.53442055 161.79259 2.6247253
000010 ce 7c f7 41 83 97 70 40 e7 ca 21 43 80 fb 27 40
       30.93594 3.7592475 161.79259 2.6247253
000020 5d 57 27 41 9f 28 fe 3e da 02 27 43 d5 8b 30 40
       10.458829 0.49640366 167.01114 2.7585347
000030 9f 1b 01 42 0f c0 7a 40 da 02 27 43 d5 8b 30 40
       32.276974 3.9179723 167.01114 2.7585347
000040 29 e2 1a 41 aa c0 ea 3e 50 0a 2e 43 b2 a8 3b 40
       9.680215 0.45850116 174.04028 2.9321713
000050 4c 23 07 42 84 55 87 40 50 0a 2e 43 b2 a8 3b 40
       33.78447 4.229189 174.04028 2.9321713
