checkpoint_critic_best_avg_max.pth (torch_old, 82441 bytes, 9 tensors)

fcs1.weight f4 [128, 24]
0	0x3fc0bc3d	1.5057446
1	0xbed1e654	-0.4099604
2	0x40702781	3.7524111
3	0x3d567767	0.052359965
4	0x3e565195	0.20929559
5	0x3ed01c94	0.40646803
6	0x3dadb615	0.08481995
7	0xbe6f26c5	-0.23354633
8	0x3ea08082	0.31348044
9	0x3dd6c1a1	0.104861505
10	0x3c8c82ea	0.017152268
11	0x3e616652	0.22011688
12	0x3e1d7f91	0.15380694
13	0xbf939f2a	-1.1532948
14	0xbf5820f9	-0.8442531
15	0xbedace3b	-0.42735466
16	0xbe94034f	-0.28908774
17	0x3f0a0f71	0.5392981
18	0x3db000be	0.085938916
19	0xbd0c1ebf	-0.03420901
20	0x3d63d41a	0.055622198
21	0x3e6098da	0.21933308
22	0x3ea12ac3	0.31477937
23	0xbd69b83b	-0.05706046
24	0x401f995a	2.4937348
25	0xbe2f3495	-0.17109902
26	0xc066b548	-3.6048145
27	0x3d29dff6	0.04147335
28	0xbf102aec	-0.56315494
29	0xbea9ca7f	-0.33162305
30	0x3c7e0047	0.015502996
31	0xbf394ccb	-0.723828
32	0xbdb7b9de	-0.08970998
33	0xbdb82799	-0.08991928
34	0x3d4de37f	0.050265785
35	0xbd6a76cd	-0.057242204
36	0xbe3b137c	-0.18269151
37	0xbe81543a	-0.25259572
38	0xbfb42f88	-1.4077005
39	0xbfb9bf48	-1.45115
40	0xbf0a9bfe	-0.54144275
41	0xbf31e344	-0.69487405
42	0x3de07105	0.10959057
43	0x3e21bd62	0.157949
44	0x3ef2ff96	0.47460622
45	0x3e199b03	0.15000539
46	0x3fe64dca	1.7992489
47	0xbd4c770c	-0.04991822
48	0x3fb2fc1f	1.3983191
49	0x3ec9b007	0.3939211
50	0xbf46111a	-0.77369845
51	0xbcf5762f	-0.02996358
52	0x3c808f08	0.015693203
53	0xbe3c2b15	-0.1837581
54	0xbdeedd93	-0.11663356
55	0xbe3002c8	-0.17188561
56	0x3c97ca20	0.018528998
57	0xbc68d435	-0.01421075
58	0x3e2c6b1a	0.16837731
59	0x3dcedcca	0.10100706
60	0x3e00b3c5	0.12568577
61	0xbeb02e86	-0.34410495
62	0xbeed2532	-0.4631744
63	0x3ee80879	0.45318964
64	0x3fdec400	1.7403564
65	0x3ecb5160	0.39710522
66	0x3da9815b	0.08276626
67	0xbf1b5056	-0.6066946
68	0xbec8ed04	-0.3924333
69	0xbf26ffd8	-0.65234137
70	0xbf1614b0	-0.58625317
71	0x3d92acaa	0.07161839
72	0x3cbce70d	0.023059392
73	0xbfb45261	-1.408764
74	0xbefc0e9e	-0.49229902
75	0x3e585f53	0.21130113
76	0xbd66107d	-0.05616807
77	0x3e5b6f0c	0.2142908
78	0xbd840a20	-0.06447244
79	0x3d107b06	0.035273574
80	0x3dc93dd0	0.09826243
81	0x3b04fc1c	0.002029187
82	0x3afbeaf7	0.0019219805
83	0xbcd1efe1	-0.025627078
84	0x3ccac96a	0.024754245
85	0x3f1c5e9b	0.61081856
86	0xbf358338	-0.7090335
87	0x3ec337b6	0.38128442
88	0x3f1316ff	0.57456964
89	0xbe801eaf	-0.2502341
90	0xbda87b18	-0.08226603
91	0x3f681325	0.9065421
92	0x3dc9f870	0.09861839
93	0xbf8397b4	-1.0280671
94	0x3fc4b1d6	1.5366771
95	0xbb38addd	-0.0028179802
96	0x3edc293a	0.43000203
97	0xbf43c23f	-0.7646827
98	0x3e0f461d	0.1399159
99	0x3de962fa	0.113958314
100	0x3e8586b2	0.26079327
101	0xbf00d8fc	-0.5033109
102	0x3e26e235	0.16297229
103	0xbf810d71	-1.0082227
104	0xbbdd7203	-0.006757976
105	0xbe110911	-0.14163615
106	0x3e1c43c6	0.15260229
107	0xbe43cba4	-0.19120651
108	0xbe45c56f	-0.19313596
109	0xbd05b65b	-0.03264461
110	0x3e3ad1cf	0.18244098
111	0xbf495a4f	-0.78653425
112	0x3db64681	0.08900166
113	0x3e657601	0.22408296
114	0xbd931967	-0.071825795
115	0x3fa8a16f	1.3174266
116	0xbeabe343	-0.33571824
117	0x3f236bb2	0.63836205
118	0xbe959275	-0.292133
119	0xbe992852	-0.29913574
120	0xbd7112a4	-0.058855668
121	0xbea530b2	-0.32263714
122	0x3f0f8f16	0.56077707
123	0xbd0ae6af	-0.033911403
124	0xbeffede8	-0.49986196
125	0xbeeef707	-0.46672842
126	0x3dcaa6c5	0.0989509
127	0x3f431b23	0.7621328
128	0x3d3d3925	0.046197075
129	0xbdbd3e98	-0.092404544
130	0x3e222b10	0.1583674
131	0xbc3f3119	-0.011669421
132	0x3d60695e	0.054787986
133	0x3d3500cb	0.04419021
134	0x3e28a2a1	0.16468288
135	0xbf5f27ba	-0.8716999
136	0x3f9ca983	1.2239231
137	0xbc30ba85	-0.010786657
138	0xbe06c629	-0.1316153
139	0x3f9b4bf4	1.2132554
140	0x3dca260d	0.09870539
141	0xbf24d7c8	-0.64391756
142	0x3ee5eb3f	0.4490604
143	0xbdc5a8a1	-0.09651304
144	0x3edd018a	0.43165237
145	0xbc32d263	-0.010914418
146	0xbdac40e7	-0.08410817
147	0xbd4bf22e	-0.049791507
148	0x3e4cf22d	0.20014258
149	0xc00b5bc4	-2.177476
150	0x3b6f0451	0.0036471079
151	0x3d1ccabd	0.038279284
152	0xbe123367	-0.14277421
153	0x3d65051f	0.055913087
154	0x3d079c40	0.033107996
155	0xbda40b71	-0.08009995
156	0x3e2e0ca4	0.1699701
157	0x3d9640e4	0.07336596
158	0x3e90d2ed	0.28285924
159	0x3dfc6eb4	0.123258024
160	0xbe02eafa	-0.12784949
161	0xbe0df33f	-0.13862322
162	0xbca9de53	-0.020735895
163	0x3eb16541	0.34647563
164	0xbe7019e6	-0.2344738
165	0x3fb56b6d	1.4173409
166	0x3e3a2c57	0.18180977
167	0x3c565997	0.013082883
168	0xbe82c401	-0.25540164
169	0x3f4d1eca	0.80125105
170	0x3bec5da9	0.0072133136
171	0xbd3c0007	-0.045898464
172	0xbf1a8a62	-0.60367405
173	0xbece17dd	-0.4025258
174	0xbc48539a	-0.012226963
175	0xbdf59652	-0.11991562
176	0xbd82288c	-0.0635539
177	0xbcdc0326	-0.02685697
178	0x3c22d508	0.009938486
179	0xbd80fd02	-0.062982574
180	0x3ec139df	0.37739465
181	0x3db0e75e	0.0863788
182	0xbea9cc27	-0.33163568
183	0x3f2cdaa4	0.6752112
184	0xbf32d7c6	-0.69860494
185	0x3fcc15d5	1.5944163
186	0xbd220117	-0.03955182
187	0x3ea2231d	0.31667414
188	0x3f0e5149	0.5559278
189	0xbfad225e	-1.3526113
190	0xbe8dc75e	-0.27691168
191	0xbd4cbba2	-0.049983628
192	0x405ba8a5	3.4321682
193	0x40bb3219	5.8498654
194	0xbedaee66	-0.4276001
195	0x3da0ef9f	0.07858204
196	0x3f140ac3	0.5782892
197	0xbf51375b	-0.8172509
198	0xbd443b32	-0.047908016
199	0x3fde066b	1.7345709
200	0x3e397224	0.18109947
201	0xbe4a2486	-0.19740495
202	0xbdf6d34c	-0.120520204
203	0x3e8c7281	0.2743111
204	0xbf8f53b4	-1.1197419
205	0xbf216e65	-0.63059074
206	0x3f1cc6cb	0.61240834
207	0x405e0e65	3.4696286
208	0xbf83f6ed	-1.0309731
209	0xc08d2ff3	-4.412103
210	0xbbfa18c0	-0.007632345
211	0x3fa180f4	1.2617478
212	0x3e69ed52	0.22844437
213	0x3f3ebedc	0.7450998
214	0x3f7cbea5	0.987284
215	0x3be71246	0.007051739
216	0x3fcb1808	1.5866709
217	0xbfb6c483	-1.4278721
218	0x3fcd8386	1.6055763
219	0xbe033aee	-0.12815449
220	0xbec5dada	-0.38643533
221	0x3f782f8b	0.96947545
222	0xbe202413	-0.15638761
223	0x3f919b9f	1.1375617
224	0xbe2107e1	-0.15725662
225	0x3d64f938	0.055901736
226	0x3df79fb9	0.120910116
227	0xbe0f0ee6	-0.13970527
228	0x3e47b06d	0.19500895
229	0xbe2021cc	-0.15637892
230	0xc0109dc4	-2.2596292
231	0x3e841f7b	0.25805268
232	0xbf42a590	-0.7603388
233	0xbf257e5b	-0.6464593
234	0x3e680f09	0.22661985
235	0x3f96d6cc	1.1784301
236	0x3d9902c5	0.07471231
237	0xbef248a9	-0.4732106
238	0x3db3784a	0.08763178
239	0x3e6e5043	0.23272805
240	0xbf66deac	-0.9018352
241	0x3d8fb969	0.07017786
242	0xbf83e9ee	-1.0305765
243	0xbd690fcd	-0.056899834
244	0x3ea27e68	0.31737065
245	0x3f5dfaec	0.86711
246	0x3e49c92f	0.19705652
247	0xbf0dbcfe	-0.55366504
248	0xbde84127	-0.11340552
249	0xbdd20a45	-0.10255865
250	0xbc2cea61	-0.010553927
251	0xbc938f15	-0.018012563
252	0xbe9750ea	-0.2955392
253	0xbf82210b	-1.0166334
254	0xbfe2d5a2	-1.7721446
255	0xbed82fb5	-0.42223898

fcs1.bias f4 [128]
0	0xbf43b17f	-0.7644271
1	0xbf2befab	-0.6716258
2	0xbf9059fe	-1.1277463
3	0xbf437d40	-0.7636299
4	0xbf14e630	-0.5816374
5	0xbf63b399	-0.8894592
6	0xbe705658	-0.23470438
7	0xbf303ee7	-0.6884598
8	0xbfacaef6	-1.3490894
9	0xbf5c08fc	-0.8595121
10	0xbeea34ad	-0.45743313
11	0xbc2ce862	-0.010553451
12	0xbec7b3ca	-0.39004356
13	0xbf12fe1f	-0.5741901
14	0xbf11c3aa	-0.56939185
15	0xbf1dfe35	-0.61716014
16	0xbeab94ab	-0.33511862
17	0xbf04ab92	-0.51824296
18	0xbf0311a3	-0.51198786
19	0xbdfc3915	-0.12315575
20	0xbeebc7d0	-0.46050882
21	0xbe07b298	-0.13251722
22	0xbf132e3c	-0.57492423
23	0xbf00bf99	-0.50292355
24	0xbf426c73	-0.7594673
25	0xbe0b49c8	-0.13602364
26	0xbf6ea29f	-0.9321689
27	0xbf509277	-0.8147349
28	0xbf6417d9	-0.8909889
29	0xbe99fe6b	-0.30076918
30	0xbebf7ca3	-0.37399778
31	0xbf14aee0	-0.5807934
32	0xbed9d493	-0.42544994
33	0xbf0b864a	-0.54501784
34	0xbf8d04dc	-1.1017108
35	0xbf140c88	-0.5783162
36	0xbed90f15	-0.4239432
37	0xbf4d6109	-0.8022619
38	0xbf567b40	-0.83781815
39	0xbfbdc46f	-1.4825572
40	0xbf911461	-1.1334344
41	0xbfb6df6f	-1.4286937
42	0xbd80cdcf	-0.06289255
43	0xbf46ea74	-0.777015
44	0xbfbae0db	-1.459987
45	0x3d097343	0.033557188
46	0xbe761b32	-0.24033812
47	0xbf10da8d	-0.5658348
48	0x3e392dc0	0.18083858
49	0xbf27c76e	-0.6553868
50	0xbe51ac35	-0.20475848
51	0xbf7b407d	-0.98145276
52	0xbf5b223a	-0.855991
53	0xbf867983	-1.0505832
54	0xbde7ad64	-0.113123685
55	0xbef96000	-0.48706055
56	0xbeff7c50	-0.4989953
57	0xbe1439c1	-0.14475156
58	0xbf51289f	-0.8170261
59	0x3cfa2240	0.03053391
60	0xbeae93ad	-0.34097043
61	0xbf3cdf99	-0.7377868
62	0xbb6fc918	-0.0036588367
63	0x3dcaff13	0.09911933
64	0x3ea20815	0.3164679
65	0x3cd7b1f8	0.02632998
66	0xbee055a3	-0.43815336
67	0xbeeb5839	-0.45965746
68	0xbe2ea2b5	-0.17054255
69	0xbf5207a5	-0.82042915
70	0xbd1e4cb4	-0.03864737
71	0xbede4c7d	-0.4341773
72	0xbef4005c	-0.47656524
73	0xbfd65e4b	-1.6747526
74	0xbf9a2fcb	-1.2045835
75	0xbefe4fc0	-0.4967022
76	0xbf880a88	-1.0628214
77	0xbf8c2508	-1.0948801
78	0xbe47453a	-0.19460002
79	0xbe863458	-0.2621181
80	0xbf564798	-0.83702993
81	0xbfa67bfa	-1.3006585
82	0xbf478c8e	-0.77948844
83	0xbf4cce8b	-0.8000266
84	0x3deef650	0.11668074
85	0x3d768b05	0.060191173
86	0xbdc552f7	-0.09634965
87	0xbef215f6	-0.4728238
88	0xbead235f	-0.33816049
89	0xbe481ffd	-0.19543453
90	0xbf399364	-0.72490525
91	0xbfc75e1f	-1.5575598
92	0xbf15803c	-0.58398795
93	0xbf9edd9a	-1.2411377
94	0xbeee275d	-0.46514407
95	0xbf1834c5	-0.5945552
96	0xbfbbbb1b	-1.4666475
97	0xbebb3c65	-0.36569515
98	0xbeef2125	-0.46704975
99	0x3d783ad9	0.060602996
100	0xbe599680	-0.21248817
101	0xbf9810b1	-1.1880094
102	0xbf80da0c	-1.0066543
103	0xbee017b6	-0.4376809
104	0xc0076983	-2.115815
105	0x3e290102	0.1650429
106	0xbe8e469b	-0.27788243
107	0xbfb8c634	-1.4435487
108	0xbefab078	-0.4896276
109	0xbf62909f	-0.88501924
110	0xbf9f9eff	-1.2470397
111	0xbf0d9f23	-0.5532095
112	0xbed9c3c1	-0.4253216
113	0x3ed11b22	0.40841013
114	0xbf7b75b3	-0.9822647
115	0xbdf5a34d	-0.11994038
116	0xbf5f6018	-0.87256
117	0xbe8ec475	-0.2788426
118	0xbe65f924	-0.22458321
119	0xbefb6442	-0.49099928
120	0xbf0bafbf	-0.5456504
121	0xbf01d323	-0.50712794
122	0xbe9c3e39	-0.30516222
123	0xbeed767a	-0.46379453
124	0xbf6a76dd	-0.9158762
125	0xbf3975a4	-0.7244513
126	0x3d2fd11b	0.042924028
127	0xbf800d1b	-1.0004

fc2.weight f4 [128, 130]
0	0x3e255e5f	0.16149281
1	0x3d0e3abe	0.03472399
2	0xbc2fba54	-0.010725576
3	0x3e4d78c5	0.20065601
4	0x3d1b19bd	0.037866343
5	0x3d890fc3	0.066924594
6	0xbd060e0d	-0.032728244
7	0x3dcd2362	0.10016514
8	0x3f550e7f	0.83225244
9	0xbd1a94c1	-0.03773952
10	0xbd2faa27	-0.04288688
11	0xbdb9e0df	-0.09076094
12	0xbf8e1779	-1.1100913
13	0xbe9f1fd1	-0.31078961
14	0xbea855ee	-0.3287806
15	0x3e4055da	0.1878275
16	0x3de5f1e8	0.112277806
17	0x3ad68a4b	0.0016368119
18	0x3cfd51e6	0.030922841
19	0xbd76d977	-0.060265984
20	0x3d8472f0	0.06467235
21	0xbee6b054	-0.45056403
22	0xbe0224cd	-0.12709351
23	0xbe948dbb	-0.29014382
24	0x3e01d6fa	0.12679663
25	0xbd10a659	-0.03531489
26	0x3c29452c	0.010331433
27	0x3dd8b651	0.10581649
28	0x3d76ef25	0.06028666
29	0xbef68f8d	-0.48156396
30	0x3ea4753b	0.3212069
31	0xbde5f930	-0.11229169
32	0x3d8db9d6	0.06920211
33	0x3d810855	0.06300417
34	0x3e27ee05	0.16399391
35	0x3ede1f52	0.4338327
36	0x3e7551c5	0.23956974
37	0xbbd00e62	-0.006349371
38	0xbdbca64d	-0.09211407
39	0x3e22a8cf	0.15884708
40	0xbf761194	-0.9612057
41	0x3e32303e	0.17401215
42	0xbdaffe32	-0.08593406
43	0x3e2bc993	0.16776113
44	0xbd7f89ed	-0.062387396
45	0x3c850b2a	0.016240675
46	0xbe5c91a5	-0.21539934
47	0xbd9ababc	-0.07555148
48	0xbf57a22a	-0.8423182
49	0xbf3504c1	-0.7071038
50	0xbfa7742a	-1.3082325
51	0x3bba0436	0.0056767715
52	0xbf427fdb	-0.7597634
53	0xbf2123fe	-0.62945545
54	0xbfb2d2c1	-1.3970567
55	0x3d959255	0.07303301
56	0x3717808f	9.030234e-06
57	0x3e3335d0	0.17500997
58	0xc00ab5f7	-2.1673563
59	0xbca9eab2	-0.020741794
60	0xbe303eab	-0.17211406
61	0xbe30b293	-0.1725562
62	0xbe9d93f8	-0.30776954
63	0xc0896904	-4.2940693
64	0xbed0d445	-0.4078695
65	0xbf77b153	-0.9675495
66	0xbe5fe260	-0.21863699
67	0x3f14d07b	0.58130616
68	0xbd7a6a24	-0.06113638
69	0x3b84628e	0.004040069
70	0xbd685797	-0.056724157
71	0xbc9e5f77	-0.01933263
72	0x3dabbc0c	0.083854765
73	0xbe17b953	-0.1481679
74	0xbd8da624	-0.069164544
75	0x3e24e952	0.1610463
76	0xbf588466	-0.84577024
77	0x3e82c4ef	0.25540873
78	0xbe069633	-0.13143234
79	0xbf007c80	-0.5018997
80	0xc0367ba9	-2.8512976
81	0x3f356bc4	0.7086756
82	0xbe0e142c	-0.13874882
83	0x3f14cab5	0.58121806
84	0x3e7a3e8d	0.24437924
85	0x3cab8a26	0.020939898
86	0x3e338352	0.17530563
87	0x3a6c1b39	0.0009006742
88	0xbf8a5d98	-1.0809813
89	0xbfaeed98	-1.3666258
90	0x3dbc0546	0.09180693
91	0xbee910fd	-0.45520774
92	0xbe492f3d	-0.19646926
93	0xbe0bb92a	-0.13644853
94	0xbdd62d42	-0.10457851
95	0x3d306d52	0.043073006
96	0xbf5efcd2	-0.87104523
97	0xbd794ac2	-0.06086231
98	0xbfd837d2	-1.6892035
99	0xbdc63dbd	-0.096797444
100	0x3f3df596	0.7420286
101	0xc0e5790b	-7.1710258
102	0xbc057640	-0.008145869
103	0xbc9ede7f	-0.019393204
104	0x3d3ed05d	0.04658543
105	0xbf575bfb	-0.84124726
106	0xbe33080e	-0.17483541
107	0x3e654205	0.22388466
108	0xbe69f577	-0.22847544
109	0x3d925506	0.07145123
110	0x3ef28f2c	0.47374856
111	0x3e9c0cec	0.3047861
112	0xbfc36e05	-1.526795
113	0xbd83242c	-0.064033836
114	0x3cd173fe	0.025568005
115	0x3ec76632	0.38945156
116	0xbcc2bd9b	-0.023772052
117	0x3dac695a	0.08418532
118	0xbfba6539	-1.4562141
119	0xbe323143	-0.17401604
120	0xbd77f310	-0.060534537
121	0x3f3e1578	0.7425151
122	0xbcd7d21f	-0.02634531
123	0xba7f6c80	-0.0009743646
124	0xbc4a2752	-0.012338476
125	0x3bd22493	0.0064130514
126	0xbe925cf3	-0.2858654
127	0x3d06349c	0.032765016
128	0xbc6706e0	-0.01410076
129	0x3bd26d31	0.006421708
130	0x3fcbf151	1.5933019
131	0xc01fe431	-2.4983027
132	0x3f80e405	1.0069586
133	0xbf10003e	-0.5625037
134	0xbee29965	-0.44257656
135	0x3f3c7b5a	0.7362572
136	0xbfb60db5	-1.4222933
137	0xc006228f	-2.0958593
138	0x3f5cfbba	0.86321604
139	0xbf419188	-0.7561269
140	0xbfc885ed	-1.5665871
141	0x3dd54f54	0.10415521
142	0x3f5e26b5	0.8677781
143	0x3e54e30c	0.20789737
144	0xbe838062	-0.25683886
145	0x3d968d9b	0.07351228
146	0xbfabd867	-1.3425416
147	0x3e9a5fdc	0.3015126
148	0xbe46671a	-0.19375268
149	0x3e0f90af	0.14020036
150	0xbf3421a6	-0.70363843
151	0x3f02c8da	0.51087725
152	0xbf96ca20	-1.1780434
153	0xbeb11cc4	-0.3459226
154	0x3f83e622	1.0304606
155	0x3fd4ae73	1.6615738
156	0xbf58e030	-0.8471708
157	0x3dee1c2d	0.11626468
158	0xbfa9b510	-1.3258381
159	0xbfd121be	-1.6338422
160	0x3f528e36	0.82248247
161	0x3e96817e	0.2939567
162	0xbda50a74	-0.080586344
163	0xbf6eea8d	-0.93326646
164	0x3eb37bfe	0.35055536
165	0xbebea4fc	-0.37235248
166	0xbddc9c97	-0.10772055
167	0xbf96334c	-1.1734405
168	0xbfb3cf8f	-1.4047717
169	0xbeff84b6	-0.49905938
170	0xc017aa17	-2.3697565
171	0x3eddfc3e	0.43356508
172	0xbf6f6161	-0.93507963
173	0x3ea0cb43	0.31405076
174	0xbf4e7fe7	-0.80663913
175	0x3ed725ea	0.42021114
176	0x3dbd86f4	0.09254256
177	0xbe5ede0d	-0.21764393
178	0x3f09e0ba	0.5385853
179	0xbf8b26e9	-1.087125
180	0xbd793bb5	-0.060847957
181	0xbf92ee7d	-1.1479031
182	0x3fe91e2d	1.8212334
183	0xbefe6883	-0.4968911
184	0xc07406b4	-3.8129091
185	0xbfe52382	-1.7901461
186	0xbe363277	-0.17792688
187	0xbf262633	-0.6490204
188	0xbe9356d9	-0.28777197
189	0x3e16adfb	0.14714806
190	0xbf2a6d2c	-0.66572833
191	0xbf32ff15	-0.69920474
192	0xbec8a686	-0.39189547
193	0x3f828761	1.0197564
194	0xbe0fd4c8	-0.14046013
195	0x3f539a5f	0.82657427
196	0xc05b2b73	-3.424527
197	0x3e87ef65	0.2654983
198	0x3ef74150	0.48292017
199	0xbfa22e6c	-1.2670417
200	0x3de018cf	0.10942232
201	0x3f638d42	0.8888742
202	0xbfbd928c	-1.4810348
203	0xbfe5723c	-1.7925487
204	0xc029a13b	-2.6504657
205	0xbea4ef68	-0.32213902
206	0xbe966842	-0.29376417
207	0xbf0ff4c2	-0.56232846
208	0x3edbdd6d	0.42942372
209	0xbba38c63	-0.0049911006
210	0xbfa0232c	-1.2510734
211	0xbd7e6fdc	-0.062118396
212	0xbf73b2ef	-0.95194906
213	0xbe903966	-0.28168792
214	0xc047b167	-3.1202028
215	0xc09fdc57	-4.995647
216	0xbfab2fb7	-1.3373936
217	0x3f2b7e61	0.66989714
218	0xbf02c095	-0.51075107
219	0xc0c250ba	-6.0723543
220	0x3d5cae66	0.053877257
221	0xbf626929	-0.8844171
222	0xbf820cf0	-1.0160198
223	0x3d695008	0.05696109
224	0xbf096e68	-0.5368409
225	0xbefce596	-0.4939391
226	0xbeadf5df	-0.33976647
227	0x3da0cb81	0.07851315
228	0xc0010313	-2.0158126
229	0xbe055d61	-0.13023902
230	0xbf966ad3	-1.175135
231	0xc026d3d0	-2.606678
232	0xbfbfd201	-1.4985963
233	0xbf8654bd	-1.049461
234	0x3edf6ee2	0.43639284
235	0xbe841a2b	-0.25801215
236	0x3dd210d8	0.10257119
237	0xbedc261d	-0.42997828
238	0xbfc4f671	-1.5387708
239	0xbe236813	-0.1595767
240	0xc03c9aa9	-2.9469397
241	0xbf1c89cf	-0.6114778
242	0xbed3e4b0	-0.41385412
243	0xbebe0605	-0.37113968
244	0xbff15e34	-1.8856874
245	0x3f6c14e5	0.9221938
246	0x3e7c294f	0.24625133
247	0xbe4f2206	-0.20227823
248	0xc0264f84	-2.5986032
249	0xbfa9f286	-1.3277137
250	0xbdc830db	-0.097749434
251	0x3f9386e4	1.152554
252	0xbe37850f	-0.17921852
253	0x3ff47fa9	1.9101459
254	0xbe912948	-0.28351808
255	0xbf81266a	-1.0089848

fc2.bias f4 [128]
0	0x3fa6d3b7	1.303336
1	0x3e69f9f5	0.22849257
2	0xbde26d17	-0.110559635
3	0xbed947ca	-0.42437583
4	0xbd3fada1	-0.046796445
5	0x3cc8a375	0.024492005
6	0xbdf0d0d6	-0.11758582
7	0xbdc12403	-0.09430697
8	0xbed6e577	-0.41971943
9	0x3ec346ff	0.38140103
10	0x3ca17c11	0.01971248
11	0xbf8dc0de	-1.1074483
12	0xbe7b0a9c	-0.24515766
13	0xbf238c04	-0.6388552
14	0xbf0f140e	-0.55889976
15	0xbda90c2c	-0.08254275
16	0xbede1782	-0.4337731
17	0xbdfa8327	-0.122320466
18	0xbfbb2051	-1.4619237
19	0x3d22a788	0.03971055
20	0xbe16722e	-0.14691994
21	0xbe511bcf	-0.20420764
22	0x3f14f7b9	0.58190495
23	0xbf02c81d	-0.510866
24	0xbf83c5ef	-1.029478
25	0x3ed34e24	0.41270554
26	0x3ea71e76	0.32640427
27	0xbe999e48	-0.30003572
28	0xbe3b165b	-0.18270247
29	0xbf635cd5	-0.88813525
30	0x3f293aa6	0.66105115
31	0x3e88b61d	0.2670144
32	0xbdc41a69	-0.0957535
33	0xbe02dd9c	-0.1277985
34	0x3e5619c8	0.20908272
35	0xbe039134	-0.1284836
36	0xbf7b9764	-0.9827788
37	0x3ec77317	0.38954994
38	0x3e49a3a5	0.19691332
39	0xbf9eee43	-1.2416462
40	0xbe21c5c4	-0.15798098
41	0x3e5152d8	0.20441759
42	0xbd5751cd	-0.052568246
43	0xbf3ec54d	-0.7451981
44	0xbe5eedfa	-0.21770468
45	0xbdf2ef8f	-0.118620984
46	0xbe132822	-0.14370778
47	0xbf160ac2	-0.58610165
48	0xbe07269e	-0.13198325
49	0xbec69a26	-0.3878948
50	0xbe12adf7	-0.14324175
51	0x3f958f73	1.1684402
52	0xbfb8d626	-1.4440353
53	0xbe12df52	-0.14343002
54	0xbddfff86	-0.10937409
55	0xbdd445bf	-0.103648655
56	0xbdfa0b06	-0.12209134
57	0xbf098882	-0.5372392
58	0xbe29baeb	-0.1657521
59	0x3ead6694	0.33867323
60	0xbe1cf6c6	-0.15328512
61	0xbe1a6de1	-0.15080978
62	0x3ea27df9	0.31736735
63	0xbe481ed5	-0.19543011
64	0xbf158b63	-0.5841581
65	0xbdd31e4f	-0.10308515
66	0xbdd6eda6	-0.104945466
67	0x3e330340	0.17481709
68	0xbbbd77f9	-0.005782124
69	0xbfb0f8a6	-1.3825881
70	0x3e182d34	0.14860994
71	0xbe0c2232	-0.1368492
72	0xbe867419	-0.2626045
73	0xbf442247	-0.76614803
74	0x3f124e83	0.5715105
75	0xbdf5724d	-0.11984692
76	0xbda7e820	-0.08198571
77	0x3eea217a	0.45728666
78	0xbde8fb2c	-0.11376032
79	0xbe246ca0	-0.16057062
80	0xbedd8abd	-0.4326991
81	0xbdbfe6f9	-0.093702264
82	0xbea371f5	-0.3192288
83	0x3f1a2687	0.6021504
84	0xbef34cd4	-0.47519553
85	0xbe9c3ebe	-0.30516618
86	0xbe2fc7a4	-0.17166
87	0xbcc64dfc	-0.024207108
88	0x3eae3fde	0.34033102
89	0xbdcae344	-0.09906629
90	0x3ea52e53	0.32261905
91	0xbe0675d9	-0.13130893
92	0xbedf824d	-0.436541
93	0xbe05bb32	-0.1305969
94	0x3dfbfc83	0.12304022
95	0xbdf8b0a0	-0.121430635
96	0xbe628f5d	-0.22125001
97	0x3dc99fd0	0.09844935
98	0xbf042851	-0.5162402
99	0xbeef6525	-0.46756855
100	0xbf3b1369	-0.7307649
101	0xbd3c295f	-0.045937892
102	0x3f022902	0.5084382
103	0xbce8c7a1	-0.028415503
104	0x3e6d78fb	0.23190682
105	0xbf0e8769	-0.5567537
106	0x3e8b0c6f	0.27157924
107	0xbe069d80	-0.13146019
108	0xbcf5d015	-0.030006448
109	0xbe483a37	-0.19553457
110	0xbde43906	-0.11143689
111	0xbea11cda	-0.31467324
112	0xbdf9f54c	-0.1220499
113	0xbd6ef2ef	-0.05833715
114	0xbd84f798	-0.06492537
115	0xbdfeeea6	-0.12447862
116	0xbf48d8c5	-0.78455764
117	0xbee74803	-0.45172128
118	0xbe01674c	-0.12637061
119	0xbdcb342a	-0.09922059
120	0x3e6b2b96	0.22965845
121	0xbe15b1c6	-0.14618596
122	0xbf7860d5	-0.97022754
123	0xbdf09f85	-0.11749176
124	0x3f686ef5	0.90794307
125	0x3f1fdd02	0.62446606
126	0xbe034e9d	-0.12822957
127	0x3f25a11b	0.6469895

fc3.weight f4 [1, 128]
0	0x3c9c92f6	0.019113045
1	0xbddd5a86	-0.108082816
2	0xbc845aec	-0.016156636
3	0x3d8b6459	0.06806249
4	0xbdcb5e3e	-0.09930085
5	0xbd2aadab	-0.04166953
6	0x3b51cba7	0.0032012255
7	0x3ed4ec34	0.4158646
8	0xbdccd2e0	-0.10001159
9	0x3cbf7ef0	0.023375958
10	0xbd0ddec7	-0.034636285
11	0xbced0051	-0.028930815
12	0x3da60bed	0.081077434
13	0x3d59e329	0.053195152
14	0x3cfcbccc	0.030851744
15	0xbb517422	-0.003196009
16	0xbd5ec342	-0.05438543
17	0x3b1d082a	0.0023961165
18	0x3d9f3465	0.07773665
19	0x3e1fd203	0.15607457
20	0x3b904410	0.004402645
21	0xbdd3ef5f	-0.10348391
22	0x3daebe85	0.085324325
23	0xbf8cf4eb	-1.1012243
24	0xbe090804	-0.13381964
25	0x3d53e87a	0.05173538
26	0xbd436479	-0.04770324
27	0x3dac8550	0.08423865
28	0xbcd290b8	-0.025703773
29	0xbd5a19e8	-0.053247362
30	0xbd9665ab	-0.073436104
31	0xbcd8fb1b	-0.026486924
32	0x3bce0ec7	0.0062883827
33	0xbd25c7a5	-0.0404736
34	0x3c303032	0.010753678
35	0xbce7e4c4	-0.028307326
36	0xbe789fb7	-0.24279676
37	0xbd1bb885	-0.03801777
38	0xbcfc9ff8	-0.030837998
39	0x3e23ca2c	0.15995091
40	0x38e4fbcf	0.0001091879
41	0x3c3de484	0.011590127
42	0xbc0107a4	-0.007875357
43	0xbd9e43ac	-0.07727751
44	0xbc934091	-0.017975124
45	0xba9a2003	-0.0011758808
46	0xbc685200	-0.014179707
47	0xbd5885c3	-0.05286194
48	0xbca3cb44	-0.019994386
49	0xbd2b0616	-0.04175385
50	0x3ddec228	0.10876876
51	0x3cafc595	0.02145652
52	0xbd97f56a	-0.07419856
53	0xbc1f7c39	-0.009734207
54	0x3d679b8e	0.056544833
55	0xbce63456	-0.028101128
56	0x3bb9fd36	0.005675937
57	0xbe2c12a1	-0.16803981
58	0x3d3fee84	0.046858326
59	0x3cf721c8	0.030167475
60	0xbd42d9cf	-0.047571
61	0x3bbe42a9	0.0058062864
62	0x3d60fe81	0.054930214
63	0x3f74d2a7	0.9563393
64	0xbe084e6a	-0.13311163
65	0x3d3c5016	0.045974813
66	0xbc39689f	-0.0113164475
67	0xbd27de7f	-0.040983673
68	0x3daaca9c	0.08339426
69	0xbd872a08	-0.06599814
70	0x3e0dfc10	0.13865685
71	0xbd1aca94	-0.03779085
72	0x3cb7010b	0.022339365
73	0xbe18c707	-0.14919673
74	0x3ceffb25	0.02929456
75	0xbcab6500	-0.020922184
76	0xbccd2c0f	-0.025045423
77	0xbdaaa73a	-0.08332677
78	0x3ca0a796	0.019611161
79	0x3e0b658e	0.13612959
80	0xbd5e1f59	-0.054229114
81	0x3f57511d	0.84108144
82	0x3d67e5ed	0.05661576
83	0xbc931aac	-0.017957054
84	0x3d864ff7	0.06558221
85	0xbeebc5a1	-0.46049216
86	0x3d07b05c	0.033127174
87	0x3c0e2f88	0.0086783245
88	0xbcdf7425	-0.027277062
89	0x3aa737a2	0.0012757669
90	0xbd4c622b	-0.049898308
91	0x3ce35629	0.027751045
92	0xbe11646d	-0.14198466
93	0xbb9739d5	-0.0046150484
94	0x3bc0eb1a	0.0058874013
95	0x3cea06a1	0.028567614
96	0xbd4c1126	-0.04982104
97	0xbd763531	-0.06010932
98	0xbdacc2e6	-0.084356114
99	0xbe1d7da7	-0.15379964
100	0x3dcce359	0.100043006
101	0x3cd9c11c	0.02658134
102	0xbda096ab	-0.07841238
103	0xbc72abd4	-0.014811475
104	0xbdb21e6e	-0.0869721
105	0xbd8b5c4a	-0.06804712
106	0x3d54ff68	0.052001387
107	0xba0e6bec	-0.0005432952
108	0xbc850df8	-0.016242012
109	0x3d41c3c6	0.047305845
110	0xbc1b09fb	-0.009462829
111	0xbd0126bc	-0.03153108
112	0xbb84bc53	-0.0040507703
113	0xbd1c8772	-0.03821511
114	0xbab7f913	-0.0014036022
115	0x3c0c913c	0.008579548
116	0xbd397e66	-0.04528656
117	0x3d1c247a	0.038120724
118	0x3d1ed100	0.038773537
119	0xbc547253	-0.01296671
120	0xbd8ca60f	-0.06867611
121	0xbcd89ff1	-0.026443454
122	0xbd6c0d99	-0.057630155
123	0x3b56536a	0.0032703527
124	0x3d2fdf00	0.04293728
125	0xbd103b75	-0.035212953
126	0xbcbc4e10	-0.022986442
127	0xbd1329b5	-0.035928447

bn1.weight f4 [24]
0	0x3e089c6a	0.13340917
1	0x3e4139a9	0.18869652
2	0x3dde6798	0.10859603
3	0x3bf8e460	0.007595584
4	0x3f38d624	0.7220175
5	0x3ec32b71	0.3811908
6	0x3c6f8e56	0.014621338
7	0x3db4410f	0.088014714
8	0x3bf0ed86	0.0073525338
9	0xbc46e520	-0.012139589
10	0xbc6361f7	-0.013878337
11	0x3c12b2ad	0.008953732
12	0x3f177467	0.5916199
13	0x3efec7ee	0.4976191
14	0x3de5b212	0.11215605
15	0x3dd3609c	0.10321161
16	0x3ebfbde9	0.37449577
17	0x3e858018	0.2607429
18	0x3c989d64	0.018629737
19	0x3e573185	0.21014984
20	0x3f9489c4	1.1604543
21	0x3f180e8e	0.5939721
22	0x3e159a7f	0.14609717
23	0x3c944066	0.018097114

bn1.bias f4 [24]
0	0xbd120ac6	-0.035654806
1	0x3dab8c9c	0.083764285
2	0x3be128d1	0.006871321
3	0x3a8fcca9	0.0010971028
4	0x3e46c255	0.1941007
5	0x3ef30cec	0.47470796
6	0x3bb4c7ae	0.0055169677
7	0xbb9bedab	-0.004758557
8	0x3b751bc8	0.0037400592
9	0x3b9eeef9	0.004850265
10	0xbaf37374	-0.0018573836
11	0x3b96df35	0.004604245
12	0x3d6b59ab	0.05745856
13	0x3f20e498	0.62848806
14	0x3b33963a	0.0027402774
15	0xbc2e5344	-0.010639969
16	0xbe084ab0	-0.13309741
17	0x3cdf3f76	0.02725194
18	0x3b01de17	0.0019816214
19	0xbd94dcfa	-0.072687104
20	0x3dc5bb86	0.09654908
21	0x3f2b75d9	0.66976696
22	0x3c05bfe1	0.008163423
23	0x3ac3bb13	0.0014933072

bn1.running_mean f4 [24]
0	0xc0fa6d38	-7.8258324
1	0xbf30220e	-0.68801963
2	0x405d05ec	3.4534864
3	0xbe0241bf	-0.12720393
4	0x3ade23d9	0.0016947939
5	0x40565809	3.3491232
6	0x405d05ec	3.4534864
7	0xbe0241bf	-0.12720393
8	0xc0fb4fc6	-7.853488
9	0xbf2f1572	-0.683921
10	0x4041f712	3.030705
11	0xbd532ed8	-0.051558346
12	0xbbd90581	-0.0066229706
13	0x405658ce	3.3491702
14	0x4041f712	3.030705
15	0xbd532ed8	-0.051558346
16	0xc0fb1c6e	-7.8472204
17	0xbf2df9ac	-0.67959094
18	0x405f76b9	3.4916213
19	0xbd66f749	-0.056388173
20	0xbc8e5c9a	-0.01737814
21	0x40568205	3.3516858
22	0x405f76b9	3.4916213
23	0xbd66f749	-0.056388173

bn1.running_var f4 [24]
0	0x41624457	14.141685
1	0x3f8b08b6	1.0862033
2	0x43a7ada5	335.3566
3	0x4161d7d0	14.115189
4	0x41caafc1	25.335817
5	0x4039ee2d	2.905162
6	0x43a7ada5	335.3566
7	0x4161d7d0	14.115189
8	0x41611a4e	14.068922
9	0x3f8b6eb5	1.089316
10	0x43a85ad7	336.7097
11	0x415d650b	13.837169
12	0x41cbc927	25.473219
13	0x403ae042	2.9199376
14	0x43a85ad7	336.7097
15	0x415d650b	13.837169
16	0x416090ee	14.035383
17	0x3f8c8d51	1.0980626
18	0x43a89afd	337.21085
19	0x415b93a0	13.723541
20	0x41cd7dad	25.686365
21	0x403c3b6e	2.9411273
22	0x43a89afd	337.21085
23	0x415b93a0	13.723541
