checkpoint_actor_best_agent_max.pth (torch_old, 81931 bytes, 10 tensors)

fc1.weight f4 [128, 24]
00000000: 7412 313f b1bb 3dbe e92b 0d3e 10c5 06be
00000010: 0fe8 06be 46f6 043f 51be 7f3e b254 ff3d
00000020: 402f 473f 8752 56bd 8954 ad3e 81f5 1fbd
00000030: 9d43 d43c c9ad ffbc 899e 2e3e d613 dabe
00000040: 4da7 453f e501 92be ce46 123e c216 85bd
00000050: 9484 1e3c 7ed8 f8be f8f3 2f3d b3c2 48be
00000060: 4e31 da3d 7181 6a3d 5fd2 543d 2d99 6c3e
00000070: 8c25 d5be 12fe ce3e 89ef 2a3b 65ea 4cbe
00000080: 4b98 8abd 0181 e9bc 7884 993d 8aed 37be
00000090: 7dc8 bfbd e1e7 89be 9a04 2bbe 25c7 4ebe
000000a0: 301d 75be 1afc a9bd 6d0b dc3d 6d73 2e3c
000000b0: 7cce 0a3f 1f04 2abf f02f a23d 9e93 893d
000000c0: 7c06 db3e e477 d8be 4f48 6b3e 25d3 063e
000000d0: 7ecc babe cd1c 5cbe 2893 603d d3fd af3e
000000e0: bd64 0e3f 1b66 bcbe 14a4 3e3d 6c2a 2d3e
000000f0: 0a85 abbe 42c2 833d e10b 27bc ef0f 773e
00000100: 132f 463f 4577 2dbf 480e 1f3e 0a39 03bf
00000110: 9ab8 c6be c7c8 aa3e ecb4 653e e7f6 e7be
00000120: aad3 b73e d111 463f c921 a9bc d9b8 943d
00000130: 99f8 a23e db29 8d3e a1d5 52be cadd 003f
00000140: f40f c93d 3b9e 263f 6dd3 0e3e e6fa 9ebb
00000150: 25b7 e1bd 700b 3b3e f124 8f3e 830b 5f3d
00000160: 5254 00bd bc23 db3e 7d31 313d 92c9 843c
00000170: 130a 84be a12a 09bf 6235 6e3e e3bd c83d
00000180: c969 45be 846b d6be d25f 80be 2bda db3e
00000190: 0e2c 053f 7be0 ce3e 6cc6 90be a89b 55bc
000001a0: e1b3 f63c afe6 99be cbdc 913d 72b3 0d3e
000001b0: 7825 593e 331b e03b 6135 1d3d 8e0e 803e
000001c0: da2c c63e 7971 a0be b370 9d3e 6424 3cbd
000001d0: f201 82be 1578 07be a88c af3e ff50 1c3c
000001e0: 5de6 7fbe 616c 54bf c8a5 813d 71fe 7f3d
000001f0: 2a7c 2abe ad89 c2be c5a0 d83d d067 b93d
00000200: 1583 5a3d 24b1 06bf 2adc 9bbd 66df 053d
00000210: f655 383d 587a 783d 124a 873d 38ba a1bd
00000220: ec81 b73e 7a40 d9be 4e36 a43d cd90 0b3e
00000230: 427c 34bd f6f0 5a3f e45b dcbc 36c5 1c3e
00000240: 2aa3 a43e 88a6 d43e 3819 bdbe 0bcc e33e
00000250: 1e65 083f b8b6 19be e5a4 a8be ee71 0d3f
00000260: c5ee febd 5e05 343f 3c89 ccbd 8727 1a3f
00000270: 2ba4 a13e 51d1 ae3d c878 003f 35a2 e43e
00000280: a86c d4be 2e67 703e 595b 64be 0db3 81be
00000290: fa25 f73e 8a50 90be ea6a 093e 355d 80be
000002a0: cee6 ff3e 7838 ae3d 6040 903d 3550 f03e
000002b0: 8beb 4f3e 68ae 353e 9dac 82bd 622a 833f
000002c0: a1d4 a23d 5a06 5c3e c457 253c dd1b 563f
000002d0: 3a1f 473e d87f 25be 1b2a 7e3d c486 0d3f
000002e0: a0bc a83e 0e7f 013e 104c 363d 90d7 f5bc
000002f0: b2f1 e63e 9457 3bbf a6fd 603e 304b 903d
00000300: c34a a73d 354a de3e 9526 2c3e 5b92 643e
00000310: 74a8 b63e 6fc2 55be c2c2 4c3e ee65 cc3d
00000320: 86d6 40be eea4 f23e 6b98 f0bc fb2c 4f3e
00000330: e11b 283e b5ef ac3e 2ad9 833e 172f 903e
00000340: 29b3 1abf b260 b93e ad13 87be b5af d13e
00000350: b942 213e b44e 573f 303c 46be e670 033f
00000360: 9027 bd3e 6084 95be 0dec 683d 57a3 0c3f
00000370: c946 42be 69ec 0ebf 96a9 9cbc d748 4d3d
00000380: 24a6 003f 5f42 57be a4f5 0ebc 4c8c 6f3e
00000390: 7dc8 5d3e a09c 153b e949 e73e 9a59 9c3e
000003a0: 678e 233f 036f 42be 2055 393d 9b22 263e
000003b0: e86c f83d 9a21 563f 7949 1a3e 29b1 8d3e
000003c0: 8e59 acbd eb9b 0fbf b21c 95be deed 76bd
000003d0: 3465 cfbe e2ae ca3e 01a1 66be 82b3 193e
000003e0: 8992 67bd 4f1a abbe ad7b babd c8a1 9bbd
000003f0: 94ca 903d 0a82 183e ed14 da3c 0128 d83e
0.6916878 -0.1852863 0.13786282 -0.13161111 -0.13174461 0.51938283 0.24974944 0.12467326
0.7780647 -0.052324798 0.33853558 -0.03905249 0.025911147 -0.031210797 0.17052664 -0.4259326
0.77208406 -0.2851707 0.14284822 -0.06498481 0.009675164 -0.4860267 0.042957276 -0.19605522
0.106539354 0.05725235 0.051958438 0.23105307 -0.41630208 0.40428215 0.0026082715 -0.2001129
-0.06767329 -0.028503897 0.074959695 -0.17961708 -0.09364412 -0.26934722 -0.16700974 -0.20193155
-0.23936915 -0.08300038 0.10744367 0.010647637 0.5422132 -0.6641254 0.079192996 0.06717609
0.42778385 -0.4227897 0.22976802 0.13166483 -0.3648414 -0.21495362 0.05482784 0.3437334
0.55622464 -0.3679665 0.046543196 0.16910714 -0.33499938 0.06433536 -0.010195703 0.24127172
0.7741558 -0.67760116 0.15532792 -0.5125891 -0.38812715 0.33356306 0.22432297 -0.4530556
0.35903674 0.77370936 -0.020645993 0.072618194 0.3183029 0.27570996 -0.20589305 0.50338423
0.09817496 0.6508519 0.1394784 -0.004851687 -0.1102126 0.18266082 0.27957872 0.054454338
-0.031330414 0.428007 0.043260086 0.016209397 -0.25788936 -0.5358067 0.23262551 0.09801843
-0.19278635 -0.41878903 -0.25073105 0.42939886 0.5202035 0.4040564 -0.28276384 -0.0130376
0.03011507 -0.3005881 0.07122191 0.13837984 0.212057 0.00683918 0.038380984 0.25011104
0.38706094 -0.31336573 0.30750045 -0.045933142 -0.2539211 -0.13229401 0.34287 0.009540795
-0.2499022 -0.82977873 0.063304484 0.062498514 -0.16648927 -0.37995663 0.10577539 0.09053004
0.053347666 -0.52614045 -0.07610352 0.032683752 0.045003854 0.06066355 0.06605925 -0.078968465
0.3584131 -0.42432004 0.0801817 0.13629456 -0.044063814 0.8552393 -0.026899286 0.15309605
0.32155734 0.41533303 -0.36933303 0.4449161 0.5327929 -0.15011108 -0.32938305 0.5525197
-0.124478854 0.7032069 -0.09987113 0.60216564 0.31570563 0.08536018 0.501843 0.44655004
-0.41489148 0.2347686 -0.22300471 -0.25331917 0.4827116 -0.28186446 0.1341969 -0.2507111
0.49980778 0.08506864 0.070435286 0.46936193 0.20304696 0.17742312 -0.063805796 1.0247309
0.07950712 0.21486798 0.010091726 0.83636266 0.19445506 -0.1616205 0.062051874 0.5528376
0.3295641 0.12646124 0.044506133 -0.030010015 0.45106274 -0.7318051 0.21971759 0.07045591
0.081685565 0.4341599 0.16811593 0.22321455 0.35675395 -0.20874952 0.19996169 0.09980379
-0.18831834 0.47391456 -0.029369554 0.20232002 0.16416885 0.33776632 0.2575162 0.28160927
-0.60429627 0.36206585 -0.263822 0.40954366 0.15748109 0.84104466 -0.19358897 0.51344144
0.36944246 -0.29202557 0.05686574 0.54936737 -0.18972315 -0.55829483 -0.019123834 0.050118294
0.5025351 -0.21021412 -0.0087255575 0.23393363 0.21658511 0.0022828951 0.45173576 0.3053711
0.63889164 -0.1898766 0.045247197 0.16224138 0.12130147 0.8364502 0.1506709 0.27674225
-0.08415519 -0.56097287 -0.29123455 -0.06028544 -0.405069 0.3958655 -0.22522356 0.15009883
-0.05653623 -0.3341851 -0.091056205 -0.07599217 0.07069889 0.14893356 0.026621306 0.4221802

fc1.bias f4 [128]
00000000: 95a4 a33d da4b 603e 36db 8fbe 8153 0fbf
00000010: 526b 783e 6080 183e 80a1 66bf 16a7 4cbf
00000020: 094d b8be e127 ac3d 424f 823e abf1 25be
00000030: c679 8ebd e7e0 c0be 201f c5bd 8f23 a7be
00000040: a711 0abf e865 5bbe 9b63 75be 5a0c 323e
00000050: 2b38 14bf 6914 1bbe d515 d7be 17c1 5cbe
00000060: c37a 51bf 0d21 a93e 06f0 88be dd51 e9be
00000070: 3934 08bf 8c34 acbe 55ef 963d f41c 00be
00000080: f05d f4bb a08d 06bf a438 31bf ed24 203e
00000090: 890d 973c 1188 913d 9d65 70be 8e0f abbe
000000a0: 7416 27bf e571 31be 4e08 0fbf 1cc1 1abe
000000b0: 4009 05bf de56 2abe 86dd 4bbe 01ff adbe
000000c0: 691c ed3b 6fd7 8abe a2a2 adbe b46b e2be
000000d0: c63a d0be d10d 1abf 487d 5bbe 2848 45be
000000e0: 3d02 28be cc16 ad3c 785a 3b3d a9f5 ebbc
000000f0: 1868 1e3e e80d 07be 3b13 0cbe bfd5 c73e
00000100: 8e78 ffbe e1b6 a1be a1ac 4dbf 1454 99be
00000110: cc10 b1be 90cc a93d fa5d 94bd b400 67be
00000120: 398e 65be 7a5b dcbd 2882 72be 8970 91bd
00000130: e726 38bf 65fa 79be 0722 8fbe 48ba a5be
00000140: 162a abbe 7f14 2fbf ce43 ea3b f3a7 93be
00000150: 25eb 5ebd 6e44 94be 700c dabe 96b4 d7be
00000160: f737 b63e 1528 913e 5a4e 37be 37df b9bd
00000170: 64c0 febe 90fa e33e 8ddb 27be 9055 85bd
00000180: e00b 3fbe 691b a6be 04f8 b6be 8e14 633e
00000190: 0270 a9be f11e 143c 7589 3d3d c11b 34be
000001a0: 8972 78be 8135 b3bc 98eb a1bd 6efa 48bf
000001b0: 0e2c 233e 5a0b 2abe adb8 01bf 29a3 c6be
000001c0: 4085 19be 76db d5bd 71f5 f2be b673 fabe
000001d0: ad77 08bf 793f 18be fc7a 3fbe 008b 96be
000001e0: 72bc c53c 718f 633e 71f5 96be d6a3 58be
000001f0: f865 ecbe 4de8 33be fbea ecbe db77 60bf
0.07990376 0.21903935 -0.28096932 -0.5598679 0.2425969 0.14892721 -0.9009018 -0.7994245
-0.35996273 0.08406044 0.25451094 -0.1620547 -0.0695682 -0.37671587 -0.09625077 -0.32644317
-0.53933185 -0.21425593 -0.23963778 0.17387524 -0.57898206 -0.15144505 -0.42008844 -0.21558033
-0.81827945 0.33033028 -0.26745623 -0.4557027 -0.53204685 -0.3363384 0.07369868 -0.12511045
-0.0074574873 -0.5255985 -0.6922705 0.15639086 0.018439071 0.07106031 -0.23476262 -0.33410305
-0.65268636 -0.17328604 -0.55872047 -0.15112728 -0.5196724 -0.166347 -0.19908723 -0.33983615
0.007236053 -0.27117488 -0.3391314 -0.44222796 -0.4066984 -0.6017733 -0.2143451 -0.19265807
-0.16407104 0.021129034 0.045740575 -0.028803663 0.15469396 -0.13188899 -0.13679211 0.39030263
-0.49896663 -0.31584838 -0.80341536 -0.2994696 -0.34583127 0.0829097 -0.07244487 -0.22558862
-0.22417535 -0.10759635 -0.23682463 -0.071015425 -0.7193436 -0.24411924 -0.27955648 -0.32368684
-0.33430547 -0.6839065 0.007149196 -0.28839073 -0.05442347 -0.28958458 -0.42587614 -0.42129964
0.35589573 0.28350893 -0.17900982 -0.09075778 -0.49756157 0.44527102 -0.16392346 -0.065104604
-0.18656874 -0.32442787 -0.35736096 0.2217581 -0.33093268 0.00904058 0.046273667 -0.17588712
-0.24262442 -0.021876099 -0.07906264 -0.78507125 0.15934774 -0.16605893 -0.5067242 -0.38796356
-0.14992237 -0.104422495 -0.47452882 -0.48916405 -0.5330761 -0.14867963 -0.18699259 -0.29402924
0.02413771 0.22222687 -0.29484132 -0.21156248 -0.46171546 -0.17569084 -0.46273026 -0.87682885

fc2.weight f4 [128, 128]
00000000: 8a61 04be ca10 62bf cfee 593d abd0 8ebe
00000010: 48bc 283e 7672 bc3d b217 babe fd3a d7bd
00000020: 6870 a43e af26 5c3e 80eb d8be d3e2 24bf
00000030: 819d 67bf 1858 9dbe cd2c 483e 9313 babe
00000040: 0971 afbf 2e7e 80bf d92a 80bf 0719 9fbc
00000050: 2d65 bf3b b3e5 113d 6143 60bd 0f7d bdbe
00000060: bf0f 7dbe 9076 dcbe f46b 7bbf e7c9 593d
00000070: 4511 d93c d160 96bd b9dd 18be 525c 14be
00000080: 97d8 9ebd d84d d8be ddaf cb3d 13c0 b33d
00000090: 38d7 803e 3a48 dfbe 215b e2bf 2cf7 3fbe
000000a0: 29af afbf d525 0d3e 0b6d ef3d 65c1 bfbe
000000b0: ab30 103f 5cf6 26be f76f 80bd 733a 283e
000000c0: ea99 a4be cc15 4bbf 4e0e 3c3e d5ef 91be
000000d0: 4bff 46bf 0b47 ff3d 27c2 d33e 096b be3e
000000e0: 1eb5 50be aab0 61bf 8da5 9a3e db06 8f3c
000000f0: 4a35 80be 3656 eb3e 58e3 93bd eb3f 7bbb
00000100: 0d97 98bf f51b 0d3e 0a3b 25be 637b 35bf
00000110: 69ce 85be 0487 bb3e a383 b83e 0f54 ccbd
00000120: e4b7 05be fe1b 3ebe 164a 19c0 6440 c23d
00000130: bae0 683e 9cf4 173a 0606 8b3d adc2 13bb
00000140: 1cb4 7cbe 4e1f 96bd f4ce 00bf 1fcf 59bf
00000150: ed57 6fbf 8921 173d cd2e fdbe 8a13 dcbe
00000160: 7422 78bd 4635 6fbe 8696 30bf 2566 cbbd
00000170: 72d5 e23d e456 e93d 50be 7abe fb28 1bbd
00000180: 327a 1cbd d453 05bf 0a1f 08bf cb02 9b3d
00000190: a066 41be 541c e13e dd96 c3bd d8cf 853e
000001a0: 2581 ef3e b6f6 01be 1113 2cbf 051c 193d
000001b0: 091a 8a3e c089 5c3d 66a8 11bf 4d0f 0a3c
000001c0: 5834 a13b 1cf3 24bd 2f45 fe3c b590 133e
000001d0: cb5b ccbd f6cd b7be eee1 ccbc 6eae 97be
000001e0: 0b39 0dbf c432 dfbe 3737 e7be 35ef a23e
000001f0: 9213 603e 6336 b3be 3c7d 67be c1fe 1bbe
00000200: 9262 cb3e 722d e1bb b60a 35be ff53 ef3d
00000210: 5e0c b6b8 e7e7 1bbf 4c73 383e 1d32 26be
00000220: 8b8e 2c3e bac4 30bf 01c9 c43d 56d5 d1bb
00000230: 90bb 963e 34aa 43bf df52 0f3e 136c 14bd
00000240: 22e6 45be be80 a7bd c3ff 64be 5b31 74be
00000250: fe57 1bbe dfd9 963e 65ea 503e f480 1fbd
00000260: 05bf 1c3f 5162 0cbf 6e26 e03d e89f 113f
00000270: e542 bfbf 727c cfbe 7fc7 2cbf e03c 76bd
00000280: 0349 03bf 8ac0 68be b747 14be 648d 0ebd
00000290: 1072 f43e 853b 5fbd 4f87 9abf b5eb 52be
000002a0: 85c3 0bbf 7c51 d4bd 2b6e e9be d2cc c63e
000002b0: 80a1 093e 03f3 53be 1238 31bf f9cc 62be
000002c0: 6b49 143e 8e6c 743e f85a 863e 100d 283e
000002d0: def7 6f3e a6f3 70be 5a8b 2d3f 04ee 3e3f
000002e0: 6bb0 8b3c e1d4 1c3e 0473 ab3d f78b 09bf
000002f0: 310e 96bd 2eef b0bd 281f d63e 8ec8 f7bd
00000300: f8a7 953d 1fbb d83d c03e 1b3e 05f0 913d
00000310: a54f 48bd f6fc 263e 2fb8 dc3e 857a 833d
00000320: 19a3 9cbc 824f 5abe 1d75 6ebe cc8a 51bf
00000330: d2d8 87bf adb4 19bf c34e 7ebf 8c35 23bf
00000340: 8495 1abe 460f 3b3f 56d2 dfbd f43f 7dbf
00000350: 7f97 60be 6f7a 57be 2b51 a53e 1643 07bd
00000360: b610 70bf 67a0 28bd 40a1 813e 203f d5bf
00000370: a64c d83e 91a6 e8be ae87 dbbd 1c09 98bd
00000380: b951 213e 1956 2bbe a857 1f3e 160a 23be
00000390: 108f b9bc f513 fb3d 9672 183e c099 97bc
000003a0: 5a6b 42bf d605 a63e f116 9abe f6f4 1ebe
000003b0: 51ff bbbe 67d8 383e 6f2c 323e 5087 32be
000003c0: aabc b5be dd73 363d f01d 383e 8323 c2bd
000003d0: 7fd8 a83d a5b7 783e 54a0 203f 369b b13b
000003e0: 79cf 713d e8bd 01bf 0a94 343e 5401 81bf
000003f0: af52 843d 1aef ba3e cc0b a5bd a9bd 6fbf
-0.12927833 -0.8830687 0.05320626 -0.27893576 0.16478074 0.09201519 -0.36346203 -0.10509298
0.3211701 0.21499132 -0.42367172 -0.64408606 -0.90474707 -0.30731273 0.1954834 -0.3634306
-1.370637 -1.0038507 -1.0013076 -0.019421114 0.0058409185 0.03561945 -0.054751758 -0.37009475
-0.24713038 -0.43059206 -0.982116 0.053171065 0.026497493 -0.07342685 -0.1492833 -0.14488342
-0.07756155 -0.4224689 0.09945653 0.087768696 0.251642 -0.43609792 -1.768406 -0.18746632
-1.372533 0.13783963 0.1169072 -0.37452236 0.5632426 -0.16304916 -0.062713556 0.16428547
-0.32148677 -0.79330134 0.18364832 -0.2850329 -0.77733296 0.12464722 0.41359064 0.37191036
-0.2038159 -0.8816019 0.3020443 0.017459324 -0.25040656 0.4596421 -0.07221097 -0.0038337659
-1.1921097 0.13780196 -0.16135803 -0.708914 -0.2613404 0.36626446 0.3603793 -0.099769704
-0.1305843 -0.18565366 -2.3951468 0.09484938 0.22741976 0.00057966425 0.06788258 -0.0022546456
-0.24678081 -0.0733019 -0.50315785 -0.85081667 -0.9349354 0.036897216 -0.4944977 -0.42983657
-0.060579732 -0.23360166 -0.6897968 -0.09931592 0.11075868 0.11393526 -0.24486661 -0.03788088
-0.038202472 -0.52081037 -0.5317236 0.07568892 -0.18886805 0.43966925 -0.09550259 0.26135135
0.46778217 -0.12691769 -0.67216593 0.037380237 0.26972988 0.053842306 -0.5689758 0.0084265
0.00491957 -0.04027091 0.031038849 0.1441067 -0.099784456 -0.35899323 -0.025010075 -0.29625267
-0.55165166 -0.4359342 -0.45159313 0.31823125 0.21882465 -0.3500243 -0.22606367 -0.152339
0.3972364 -0.0068718726 -0.17679867 0.11685943 -8.68074e-05 -0.6090073 0.18012732 -0.16230054
0.16851251 -0.6905018 0.09608651 -0.0064036055 0.29439974 -0.76431584 0.13996457 -0.03623588
-0.1932607 -0.081788525 -0.2236319 -0.23846953 -0.15170285 0.29463097 0.20401914 -0.03894134
0.6122897 -0.5483752 0.1094483 0.5688462 -1.494229 -0.40524632 -0.67491907 -0.06011665
-0.5128328 -0.22729698 -0.14480482 -0.03480281 0.47743273 -0.05450012 -1.2072543 -0.20597728
-0.54595214 -0.103671044 -0.45591864 0.3882814 0.13440514 -0.2069817 -0.6922618 -0.22148503
0.14481132 0.23869535 0.2624128 0.16411233 0.23434398 -0.23530445 0.6779076 0.74581933
0.017051896 0.15315582 0.08371547 -0.53729194 -0.073269255 -0.0863937 0.41820645 -0.120988
0.07307428 0.105825655 0.15160656 0.07125858 -0.04890408 0.16307434 0.4310927 0.06419853
-0.01912074 -0.21319392 -0.23286863 -0.8185241 -1.0613043 -0.60041314 -0.9933893 -0.6375358
-0.15096098 0.7307018 -0.1092879 -0.9892571 -0.21932791 -0.21042798 0.3228849 -0.033022963
-0.937755 -0.041168597 0.25318336 -1.6659889 0.42245978 -0.4543958 -0.10719238 -0.074236125
0.15753831 -0.16732062 0.15560782 -0.15921816 -0.022651225 0.12259666 0.14887461 -0.01850593
-0.75945055 0.32426327 -0.30095628 -0.15523133 -0.36718228 0.18051301 0.17399763 -0.1743443
-0.35495502 0.04454409 0.1798017 -0.094794296 0.08244418 0.24288805 0.6274464 0.005420114
0.059035752 -0.506804 0.17634597 -1.007853 0.06461083 0.36510545 -0.08058891 -0.93648773

fc2.bias f4 [128]
00000000: 9f78 843c e493 a53b 9820 e83d 436b eebd
00000010: e617 f3bc 8189 cebe 0155 993c 2e4d bc3c
00000020: 7567 f3bd 4ed8 113d deb6 6b3d 93fb 39bd
00000030: d2c6 23be 2ce9 5ebd 155f 633c 1325 04bd
00000040: 8651 c8bd 1bec f2bd b8b2 4bbc de86 69bc
00000050: 3a48 493d 8ec6 bbbe 1fb6 ddbe 502e 233c
00000060: 1627 fabe d44f 173d 2b59 9bbe c31a b6bd
00000070: 5c79 5dbd 041b 133e eb93 c13c 9d44 8e3d
00000080: a29e 52be 69ec e0bb db5e babd 2497 2ebd
00000090: a6e1 cdbd d688 703b d3db 82be a658 de3c
000000a0: ad87 05bd e60a 99be d205 c9be 6d78 6cbe
000000b0: c676 0ebe 5897 56bd 9c45 a8be 73c6 57be
000000c0: ed35 47be 43be 89be 6beb a0bd efec df3c
000000d0: 8fc1 b5be 1397 bfbc f635 54be 7cc8 833d
000000e0: bba7 7cbe 890e 573e a9ed c6bd 6700 6abe
000000f0: 922f 62bd ee3e 95bc 8b7a 51be 7e28 f1be
00000100: 9f71 b1bd 1196 c2bd e006 06bd 8c88 acbd
00000110: f4c9 62be 62cb 0bbe 37ad a9be 2eb0 1c3d
00000120: 9245 583d 624e 44bd 78d1 2cbd 02f9 aabd
00000130: 5564 9abd 76be 5d3d d75f 44be e98a 8cbe
00000140: c1c9 8ebe cb22 a6bc 0aeb 03bf adcc fdbd
00000150: d433 05bd 6cff d0be 636e 97bd 3739 55bc
00000160: 5b5a f5bd 2a66 1fbb 4ecb 28be de50 b7be
00000170: 2af9 e33a d1ee f6bd ff6c edbd 6d6d a63c
00000180: fe68 8dbc 91e4 8abe 4ab2 b73d 9568 18be
00000190: 2003 96bc 1c6d 24be a299 d1bc 2df3 7fbd
000001a0: 3a21 253d 5c07 98be ae97 a5ba be64 6dbe
000001b0: d4bc ddbd 8f8d 4dbe 412e b8be 86e2 e83d
000001c0: 1841 6ebd 5ddc 493c f473 b4bd 9da7 f5be
000001d0: 5bfa 1ebe 3a55 f53c 5b15 ae3c 8754 42be
000001e0: 9635 8ebe b493 56bd 1709 2fbd f4d1 573d
000001f0: 7e17 b9bd 2b70 933b 25a8 203e 31db 82be
0.016170798 0.0050530303 0.11334342 -0.11641552 -0.029674482 -0.40339282 0.01871729 0.02298602
-0.11884967 0.035606675 0.057547443 -0.045405935 -0.15993813 -0.05442159 0.01387765 -0.03226192
-0.09781174 -0.1186144 -0.012432747 -0.014253346 0.049141146 -0.36674923 -0.4330301 0.009959772
-0.48857945 0.036941364 -0.30341467 -0.08891823 -0.054070815 0.14365774 0.023630103 0.06946681
-0.20568326 -0.00686412 -0.091001235 -0.042624608 -0.10052805 0.0036702654 -0.25558338 0.02714188
-0.032600094 -0.29891127 -0.39262253 -0.23092814 -0.13912496 -0.052390426 -0.32865608 -0.21071796
-0.19454165 -0.2690297 -0.078574024 0.027334658 -0.35499236 -0.023387467 -0.2072371 0.06434724
-0.24673359 0.21001638 -0.09713299 -0.22851716 -0.055221148 -0.018218484 -0.20456903 -0.47101206
-0.0866425 -0.09501279 -0.0327214 -0.08424482 -0.22147352 -0.13651803 -0.33139965 0.038253956
0.052800722 -0.047926314 -0.042191952 -0.08348276 -0.07538668 0.054136716 -0.19177185 -0.2744973
-0.278883 -0.020280262 -0.51530516 -0.123925544 -0.03252013 -0.4081987 -0.073941015 -0.013014129
-0.119801246 -0.002432237 -0.16483805 -0.35803884 0.0017392982 -0.12057269 -0.11593055 0.02031585
-0.017261978 -0.27127507 0.08969553 -0.14883645 -0.018312037 -0.16057247 -0.025585953 -0.06248777
0.04031489 -0.29693115 -0.0012633705 -0.23182961 -0.10827032 -0.20073532 -0.3597279 0.11371331
-0.058167547 0.012320605 -0.08811179 -0.4797944 -0.1552519 0.029947866 0.021250417 -0.18977557
-0.27775258 -0.052386954 -0.042733278 0.05269046 -0.09037684 0.0044994554 0.15689142 -0.25557855

fc3.weight f4 [2, 128]
00000000: d0a7 7b3f d7e4 5f3f 451b 48c0 537f 23be
00000010: 39fd 303d 0325 c23f 5b71 603e 43ec 633f
00000020: 11f8 c43d fc67 673e 141d 263d f47c a0bc
00000030: b127 1340 b094 a9bd 6500 be3d bc9c 45be
00000040: d8ec cb3c 3c32 cc3c e3b1 69bd 6a8a dc3d
00000050: eb08 883d c304 4840 cc1e 5e40 31d2 893d
00000060: 194e 1cc0 93a7 1d3d f024 603f 4ded 133e
00000070: 34b2 a53f 49bb ad3e b9f5 0e3e d2b1 c7be
00000080: 28df 06bf c016 1c3e f4af 273c 3937 a13d
00000090: 620c 74be dd14 da3d 0ba9 d8bf 3980 eb3d
000000a0: c5ff dabf 77b1 99be a469 a0bf b87a 303e
000000b0: 455b 65bd ad63 823e 3b38 573c 185d 173e
000000c0: 6eaf fd3f ca7c f03b 0216 a23e 00c8 373e
000000d0: f7ff 02c0 2e2d c53d 28eb e93f 6a32 983d
000000e0: 74c2 afbc e028 37bd a9c1 2ebf 434e b33e
000000f0: f6bf 033e 3124 233b 7a4a 6640 9bf4 d83f
00000100: 8ed5 153e 308e c3bc f316 2a3e 291f f33d
00000110: 958d 32bf 1565 6a3e 1f09 9b3f 170d d2bd
00000120: c1f4 4d3d 8dd5 dc3f 55d5 ad3d 3c47 0540
00000130: 3c17 a8bc 43aa 6d3d f9e1 e9bc 25fb d73e
00000140: 6d1d 65bd 6060 0d3d b5fa 28bf f7de f6bc
00000150: 76dd df3f 0f3f 2e40 7e4e 913e 3c79 113e
00000160: afcd a93e 78e5 1fbd 9663 15bf f219 0b3f
00000170: 10f5 93bc 9039 d63f 4226 47be 9c7c c13c
00000180: b1cd 8dbc 3cd1 22bf a52f d7bc 67da e0be
00000190: 7bb3 173d 59b5 8abe 6114 dd3f a954 743e
000001a0: 180e 753d bf16 cc3f 0e87 3e3d e941 b73e
000001b0: 18fb acbf faa9 8840 bcd9 70c0 bb80 3bbd
000001c0: c901 8e3c 58d6 823d b18e 343c 2417 bbbe
000001d0: b0e9 a140 7594 37bf d31c 2a3e 9c1a 55bd
000001e0: 5991 47bd ba3e 92bb c9f8 08be 52d8 cb3d
000001f0: bae0 4fbd b8fa cd3e 74c9 323e 9c1b c93e
00000200: 9624 b2be 1e2f 213d 6c71 49c0 921f bf3d
00000210: 815b 9ebc fce6 0abe 0160 803a 842b 813d
00000220: 297a a13e 714c 38bd bf37 313c 36ad 193d
00000230: 9b52 3cbe 76bd 30c0 f2ed 833c 5727 20be
00000240: 2d94 69c0 5d0d 0fbe a4a1 b3c0 e789 9c3b
00000250: 0d2f 493c 0b98 fb3a e611 a33d a4aa 963c
00000260: 8a91 02be f57a 5e3d 6d4e c2bd 0b72 113d
00000270: b7c2 9b3e 40d1 e33d de95 6c3a 9174 c2bb
00000280: 2234 9c3d 5751 133c 8061 ba3e 9010 81bc
00000290: 75b8 4f3e 9b2d a33c 2487 44be 867d 0c3c
000002a0: b464 bfbd 4935 103e df32 7e3d 39a0 0bbf
000002b0: 6d95 423c 0744 4dbc bf47 46c0 7be0 7fbf
000002c0: f452 0e3e 5b02 0cc0 2ca1 25bd 9842 4c3a
000002d0: 40f0 12c0 bec2 b23c 65cc 0abd abd7 0b3e
000002e0: eb7f cabf 69ce 4e3e b620 47bd c2ef c6be
000002f0: 57df 923b 3a49 4d3e 79f1 f1bd 503c bfbf
00000300: 45c1 a4bb 7f2e ee3c eee1 96bc 88e3 273c
00000310: 43cb 8dbf f9ef 91bf 05be c5bc 2a55 6ac0
00000320: b9b8 673b 3dc5 0abe 5fcb 5abc b0c0 c53d
00000330: 2d7c 483d 387d 653c 8835 5ebf 3139 1bbf
00000340: 14a6 3ec0 fb44 023d b953 57be 3a98 d9bf
00000350: a9ba adbd 6142 a93d eb28 bb3d 8fbc 773c
00000360: 7190 cbbe 48a0 823d 98ad 903d f6e7 0c3e
00000370: efb7 e0bc 818a 983e 947f 8bbb c9ed 8f3d
00000380: 7cdd 763d d8bf 3dbe 3a8b 46be c68c 143c
00000390: 6882 833f b3d0 26bd 497a 85be ede6 953c
000003a0: 757f 4c3e 15e3 a1bd 0f34 223c dd04 e83e
000003b0: f8ff f0bd d1c1 973d 26f9 e7bd 3dea bec0
000003c0: da08 b43c b939 80c0 8fde e3bd 81d1 5bbf
000003d0: f85a d03d 11c5 aec0 0385 873c ff84 6fc0
000003e0: e159 42c0 d30c f93c d208 583e 505e 163e
000003f0: 63b4 813e 5126 123f e48a bf3d 2050 713c
0.98302937 0.87458557 -3.1266644 -0.15966539 0.043210242 1.5167545 0.21918242 0.8903238
0.096176274 0.2259826 0.040555075 -0.019590832 2.2992976 -0.08280313 0.09277419 -0.1929807
0.02489321 0.024926297 -0.05705441 0.10768588 0.06642326 3.1252906 3.4706297 0.06729544
-2.4422667 0.03848989 0.8755636 0.14445992 1.2945008 0.3393195 0.13960923 -0.39002854
-0.5268426 0.15243053 0.010234822 0.07871861 -0.23832849 0.106485106 -1.6926588 0.11499066
-1.7109305 -0.30018207 -1.2532239 0.17234313 -0.055995245 0.25466672 0.013135965 0.14781606
1.9819162 0.0073390948 0.31657416 0.17947388 -2.0468729 0.09627758 1.8274889 0.07431491
-0.021455027 -0.044716716 -0.6826425 0.35020646 0.12866196 0.0024893398 3.5982957 1.6949648
0.14632246 -0.023871511 0.16610317 0.11871178 -0.6974729 0.22890122 1.2112159 -0.10256403
0.050282244 1.725267 0.084879555 2.0824728 -0.020518892 0.058023702 -0.028550135 0.42183796
-0.055936266 0.03451574 -0.6600755 -0.030135615 1.748946 2.7225988 0.28380197 0.14206403
0.33164737 -0.039037198 -0.5835508 0.54336464 -0.01806119 1.6736317 -0.19448188 0.023618989
-0.017309995 -0.63600516 -0.026267836 -0.43916628 0.0370364 -0.27091482 1.7271844 0.2386042
0.059827894 1.5944442 0.046515517 0.35792473 -1.3514128 4.270749 -3.7632895 -0.045777064
0.017334836 0.06388539 0.011020348 -0.36541092 5.0597763 -0.717109 0.16612558 -0.05202733
-0.0487226 -0.004463044 -0.13376154 0.09953369 -0.050751425 0.40230346 0.17459661 0.39278877
-0.34793538 0.039351575 -3.1475477 0.093321934 -0.019330742 -0.13564676 0.0009794236 0.06307128
0.31538513 -0.044994775 0.010816514 0.037518702 -0.18390886 -2.7615638 0.016104672 -0.15640007
-3.649669 -0.13969941 -5.6134815 0.0047771814 0.012279284 0.0019195093 0.07962398 0.018391915
-0.12750831 0.05431648 -0.09487615 0.03550915 0.30421993 0.11123896 0.00090250175 -0.005934306
0.07627131 0.008991561 0.36402512 -0.015754968 0.20285209 0.019919207 -0.19192177 0.008574849
-0.093453795 0.14082827 0.062060233 -0.54541355 0.011876446 -0.012528426 -3.098129 -0.99951905
0.13898832 -2.1876438 -0.04043691 0.00077919057 -2.2959137 0.021821376 -0.033886332 0.1365649
-1.5820287 0.20195927 -0.04861518 -0.38854796 0.0044821906 0.20047465 -0.118136354 -1.4940281
-0.0050279223 0.029074905 -0.018418279 0.010247119 -1.1077656 -1.1401359 -0.02413846 -3.661448
0.0035357906 -0.13551803 -0.0133541515 0.09655893 0.04894655 0.014006905 -0.8680043 -0.6063414
-2.9788866 0.031804066 -0.21028031 -1.6999581 -0.08482868 0.08264614 0.09138664 0.0151206395
-0.39758638 0.063782275 0.070643604 0.13760361 -0.027431456 0.2979317 -0.004257152 0.07027776
0.060269818 -0.18530214 -0.19389048 0.009066766 1.0274172 -0.040726375 -0.2606986 0.01829859
0.19970496 -0.079046406 0.009900107 0.4531621 -0.11767572 0.074100144 -0.11326818 -5.9660935
0.021976877 -4.007046 -0.11126434 -0.8586655 0.10173601 -5.461556 0.016542917 -3.7424924
-3.0367358 0.030401623 0.21097115 0.14684415 0.25332937 0.57089716 0.09352663 0.014728576

fc3.bias f4 [2]
00000000: 594f 9f3d bd61 5b3e
0.07778806 0.21424003

bn1.weight f4 [24]
00000000: ac5a 133f 0898 0f3f a480 8e3e a64b 463f
00000010: 434f ba3f 956e c03f 29a8 383e a9f7 c2be
00000020: 377c 003f e0b9 143f 325d 353f 6efa 9cbe
00000030: c211 be3e 15f0 e13e 9f73 87bd 99c6 0f3f
00000040: ccce 403f d334 063f 4287 983e d3b9 2e3f
00000050: 93be c73f 9a72 af3f 19f9 2d3f 8c02 473f
0.5756023 0.56091356 0.2783252 0.7745918 1.4555439 1.5033747 0.18032898 -0.38079575
0.50189537 0.5809612 0.7084533 -0.30659813 0.37122923 0.4412848 -0.0661385 0.5616241
0.75315547 0.52424353 0.29790694 0.68252295 1.5605034 1.3706849 0.6795822 0.7773826

bn1.bias f4 [24]
00000000: ebba aabe 3b18 a43d 18ab cc3c 6a48 55be
00000010: 1e4d 003e de35 a73d aa88 853c 3a06 e7be
00000020: 4170 21be 77f1 93bb 1383 1fbe 5f9d 01bf
00000030: 37f4 363e b467 f3bc d7e8 0dbd 924b b4be
00000040: 7502 01be 6d09 6e3e eeab 6d3c 96d1 393c
00000050: e5b2 c03d 939f 603e 4a83 1ebe 94d4 2cbd
-0.33345732 0.08012434 0.024983928 -0.20828405 0.12529418 0.08164571 0.016300518 -0.45121938
-0.15765478 -0.004514869 -0.15577345 -0.50630754 0.17866598 -0.029712535 -0.03464588 -0.35213906
-0.12598594 0.23245783 0.014506323 0.011341473 0.094091214 0.21935873 -0.1547977 -0.042194918

bn1.running_mean f4 [24]
00000000: f3f3 d2c0 ca50 b4bf eedc d83f 9c89 21bd
00000010: 8e29 de3c 56b5 1140 eedc d83f 9c89 21bd
00000020: 1353 d6c0 6152 b7bf f3a2 df3f e292 70bd
00000030: 9c9b ca3c a731 1140 f3a2 df3f e292 70bd
00000040: 6ee4 d9c0 aa2f babf 1178 e33f 4366 3dbd
00000050: e9bc d03c 49e8 0f40 1178 e33f 4366 3dbd
-6.592279 -1.4087155 1.6942422 -0.039437875 0.027119424 2.2766929 1.6942422 -0.039437875
-6.697641 -1.4322015 1.7471603 -0.05873383 0.024732403 2.2686555 1.7471603 -0.05873383
-6.8091345 -1.4545796 1.7771016 -0.046240102 0.025480704 2.2485526 1.7771016 -0.046240102

bn1.running_var f4 [24]
00000000: f224 3a41 b153 2f3f 63c9 4f43 7afe 8240
00000010: a923 ec41 b58f 6640 63c9 4f43 7afe 8240
00000020: 0429 3141 44af 293f 37a7 5443 c4e7 8440
00000030: 6a86 f441 c7c6 6d40 37a7 5443 c4e7 8440
00000040: 5aff 2841 57ea 223f d3b1 5843 f505 8a40
00000050: 7a9d fd41 e5e5 7a40 d3b1 5843 f505 8a40
11.63402 0.6848708 207.78667 4.093564 29.517412 3.6025212 207.78667 4.093564
11.072514 0.6628306 212.65318 4.1532917 30.565632 3.7152574 212.65318 4.1532917
10.562342 0.63638824 216.69463 4.313227 31.701893 3.9202816 216.69463 4.313227
