checkpoint_critic_both05.pth (torch_old, 82441 bytes, 9 tensors)

fcs1.weight f4 [128, 24]
000000 03 09 00 3d 78 fd 65 be bf d3 0b 3e 8b b1 0d 3c
       0.031258594 -0.22459972 0.13654993 0.008648287
000010 f9 dc ec bd c3 28 d2 bb fa 52 2d 3e 89 03 02 3e
       -0.11565585 -0.0064135506 0.16926184 0.12696661
000020 d5 11 dd bd 24 bf ab bd ef 20 1a 3d 60 db b5 3d
       -0.10794417 -0.083860666 0.037629064 0.08879733
000030 eb 9e 40 bb 4a 7b 62 be a5 d9 e4 bd a5 b0 7a 3d
       -0.0029391597 -0.22117344 -0.11174325 0.061203618
000040 18 ce 1c 3d db b2 02 3e c9 86 7a 3d 70 36 9a bc
       0.038282484 0.1276354 0.061163697 -0.018824786
000050 8c 59 cd 3d ad af 49 3e 3b 30 27 3d de e3 96 bc
       0.10026845 0.19695921 0.04081748 -0.018419202
000060 1f 24 a2 3d f3 75 17 3d f7 13 4e 3b 37 dd f7 3c
       0.07917046 0.03697772 0.0031445005 0.03025685
000070 01 64 a2 bd 17 fd 84 bd 8b e4 33 3c 9a b4 e6 ba
       -0.079292305 -0.064935856 0.010979782 -0.0017601431
000080 ae b1 1e bd 1e eb dc 3d f3 44 8f bc a5 9c 89 bd
       -0.038743667 0.107870325 -0.017488932 -0.06719331
000090 ac be 8c bd c7 53 e6 bb 97 40 8d 3d ac 1f 27 be
       -0.06872305 -0.00702903 0.06897085 -0.16320676
0000a0 13 98 31 be bc 64 38 3e 87 22 b7 3e 10 9a 84 3d
       -0.17343168 0.18007177 0.3576853 0.064746976
0000b0 67 76 b3 3d 1e 78 ec 3d 5b 92 a9 3e 0b 6b 8f bd
       0.08762818 0.11546348 0.33119473 -0.07002839
0000c0 3b 94 95 3e f4 4c 01 be 7f 07 cb bd 50 4e bf 3c
       0.29214653 -0.12627012 -0.09913539 0.023352772
0000d0 f2 7d f3 bc 81 2c 78 bd 3d 07 bb bd 82 5f 01 3e
       -0.029723141 -0.060589317 -0.0913224 0.1263409
0000e0 55 95 95 ba 8f c6 70 be a7 f7 3e 3c e6 c5 98 bd
       -0.0011412302 -0.23513244 0.011655725 -0.07459621
0000f0 d9 26 fd bc 48 3c 0b bc 45 f2 2c bd 8b a9 30 be
       -0.030902313 -0.008498259 -0.042223234 -0.17252176
000100 e9 5c 27 3e f8 ed 4a be 78 6f 55 3e 50 26 43 bd
       0.16344036 -0.1981734 0.20843303 -0.04764396
000110 10 60 31 be 81 30 c0 bd 52 56 61 3e 23 31 14 bd
       -0.17321801 -0.093842514 0.22005585 -0.036179673
000120 b1 5c 4f 3d 36 00 f9 be d9 7e 1d be 5a 08 82 3d
       0.050625507 -0.48632973 -0.1538042 0.06349249
000130 5f 60 06 bc 3b 77 2c 3d 20 7c 02 be d1 02 6a 3a
       -0.008201688 0.042105895 -0.12742662 0.0008926811
000140 33 c2 66 3d be 18 a2 be a4 b6 da bc d0 9e b9 3d
       0.056337547 -0.31659502 -0.026698418 0.09063494
000150 0a f3 ac bd a6 a6 da 3d 5f 17 b9 3c f8 a1 cb 3d
       -0.084447935 0.10676317 0.022594152 0.099430025
000160 a8 eb 4e 3e 30 76 3e be dd 3c a5 3d 21 a7 1f 3e
       0.20207083 -0.18599772 0.080682494 0.15591098
000170 a9 e0 93 3d 96 49 74 be d8 07 81 3d 56 7e 8a 3d
       0.07220585 -0.23856196 0.06300324 0.06762378
000180 cf 39 a1 bd cf 3a 16 be 88 d7 a8 3d c0 8a de 3b
       -0.07872354 -0.14670871 0.08244234 0.0067914426
000190 e7 ac fb bc f5 6d be 3d 72 9e f7 3d 67 61 51 3d
       -0.030722095 0.092983164 0.12090768 0.05111828
0001a0 da 0d 7d bd eb d7 e0 3d df 53 9c 3d 3b 16 f4 3d
       -0.061780788 0.10978683 0.07633185 0.119183026
0001b0 78 7c 09 be 5d 2f 6a bd 0a 5a 2d 3d 84 7d 50 3e
       -0.13426387 -0.057174075 0.042322196 0.2036038
0001c0 e1 df 91 bd a6 74 b6 3d db 67 4b bc 1f bc 01 3e
       -0.0712278 0.08908968 -0.012414898 0.12669419
0001d0 7a de 9c 3c f7 7a b1 3d ed e6 a4 3d 36 4c 3c 3e
       0.019149054 0.08666032 0.08051858 0.18388447
0001e0 28 5b 3a 3e 17 95 20 be 88 48 c8 3d 12 85 1d bd
       0.18198836 -0.15681873 0.09779459 -0.038456984
0001f0 95 93 ab be 4f 81 c9 bb 7b e6 11 3e 58 f0 2b be
       -0.33511034 -0.006149448 0.14248078 -0.16790903
000200 1c c3 49 3e 34 38 4d 3d 96 48 8b bd 45 55 15 bd
       0.19703335 0.050102428 -0.06800954 -0.036458272
000210 ad 98 07 be e7 92 15 bc e8 de 6c 3d 11 40 0e be
       -0.13241835 -0.0091292625 0.057829767 -0.13891627
000220 cf 27 27 3e 34 1a 7f 3e 7c e8 84 bd a5 17 40 3e
       0.1632378 0.2491234 -0.064896554 0.1875902
000230 ad d7 4b 3e d0 6c c5 bc 17 e5 40 bb eb 4b 57 3e
       0.19906493 -0.024099737 -0.0029433423 0.21025054
000240 c5 0f cb bd 8e cd 06 be fb 1d 82 3d aa 8f 94 bd
       -0.09915117 -0.1316435 0.063533746 -0.07253964
000250 6c 0e 94 3d 63 3b a8 3d a9 52 2a bc 85 ff 36 3d
       0.07229313 0.08214452 -0.010395684 0.044677276
000260 49 57 62 bc a9 af 63 bd 31 43 da bb a2 67 15 3d
       -0.013814756 -0.055587444 -0.006660842 0.036475785
000270 57 26 db 3d e3 18 3e 3e 6f 5b 6c bb 6f 39 40 3c
       0.10700672 0.18564181 -0.003606524 0.011732443
000280 63 4d 01 3e 79 35 f1 3c 64 3b d9 bb 67 ea 05 be
       0.12627177 0.029444443 -0.0066293944 -0.13077699
000290 3b 40 ff bc d7 1c 5d 3e 82 7e e7 3c c6 1e 3f be
       -0.031158557 0.21593033 0.028258566 -0.18664083
0002a0 5d 57 e1 3c 95 de ca bd 5f fc c6 3c d9 35 b7 3c
       0.027507478 -0.099057354 0.024290262 0.022364544
0002b0 a1 22 12 be 19 7c 4c bd cc 58 3e 3d 97 ef e4 3d
       -0.14271022 -0.049923036 0.046471402 0.11178511
0002c0 51 a4 2e bd 5f c5 b1 bd 67 48 8b 3c 2f f7 f6 3d
       -0.042637173 -0.08680224 0.017002298 0.12058865
0002d0 1e 7f 39 3e 0d 2d 81 3d 6a 80 41 bc 04 2b 8c 3d
       0.18114898 0.06307421 -0.011810401 0.06844142
0002e0 96 f4 b4 bd 7f 20 f6 3c c1 a8 25 3d 6d 66 0a 3d
       -0.088357136 0.030044792 0.04044414 0.033789087
0002f0 f6 d5 6b 3e 47 6d dd be 57 ec 1d bd c4 60 b6 3d
       0.23030838 -0.43247434 -0.03855547 0.08905175
000300 44 b3 be 3d da 13 39 3d 97 1a e9 bc fe 07 6a 3d
       0.09311536 0.045184948 -0.028455062 0.05713653
000310 ce 4a e4 bd 15 ab 61 be 0c dd 30 be cf e5 66 3b
       -0.1114708 -0.22037919 -0.17271823 0.0035232191
000320 8b 02 f6 3c 50 17 a3 bd 04 30 c1 3c 42 ec aa bc
       0.03003051 -0.07963431 0.023582466 -0.02086461
000330 a5 65 24 be 9a ff 10 bd be a3 fe 3c e6 b6 82 bc
       -0.160544 -0.03540001 0.031083938 -0.015956353
000340 19 c1 86 bd fa 3f 43 bd 46 34 a4 3d 39 28 bc 3d
       -0.06579799 -0.047668435 0.08017783 0.09187359
000350 1c e6 7c 3c 97 d1 c2 3e 49 bf 94 3d 9e a3 6e 3c
       0.015435722 0.3805053 0.07263047 0.014565377
000360 63 b8 3d 3e b0 ef 1d 3e c3 c0 47 3e 9e c2 22 bd
       0.18527369 0.15423465 0.19507127 -0.039736383
000370 ad 87 69 bd 66 ed 0c 3e 28 98 b9 3d d7 f1 b5 bd
       -0.057014156 0.13762435 0.090622246 -0.08884018
000380 0d 52 79 3d dd 08 13 3c bd 19 fa bb e7 f5 12 3e
       0.060869265 0.008974281 -0.007632463 0.14351617
000390 a0 b5 ef 3c db 8c 2d 3e 27 69 a5 bd ac bf 35 3d
       0.02926141 0.16948263 -0.08076697 0.044372246
0003a0 f3 df 17 be a6 4b 93 bd c1 f5 84 bd fb f0 03 3d
       -0.14831524 -0.07192163 -0.06492186 0.03221224
0003b0 e4 ca 5a 3c 43 97 90 be 3e 05 a2 bd e4 19 e8 3d
       0.013354037 -0.28240404 -0.07911156 0.11333063
0003c0 8f 02 51 bc ed a5 83 be 01 e6 20 bd f5 0f a0 bd
       -0.012756958 -0.2571253 -0.03928185 -0.078155436
0003d0 5f 6c 12 3d fb 0a 12 be a5 79 06 be a5 ed 6b be
       0.035747882 -0.14262001 -0.13132341 -0.23039873
0003e0 68 a2 13 3b 22 ae a1 be ff fb 20 3c 6d 43 41 bd
       0.0022527222 -0.31578165 0.009825706 -0.047183443
0003f0 78 e5 72 bd e5 3a 9f 3d f2 ed fb bc 81 a8 90 bd
       -0.05930087 0.07774905 -0.03075311 -0.070633896

fcs1.bias f4 [128]
000000 d2 5a b5 3d 9e 4d d8 3b 84 a3 57 be 6c 91 33 bd
       0.08855213 0.0066010496 -0.2105847 -0.043839857
000010 26 3c b4 bc 8b 29 67 be e9 dd 5a 3d 76 fc 4e be
       -0.022001337 -0.22574441 0.053434286 -0.20213494
000020 06 91 88 bd a4 dc 97 bb 27 ff 2c bd 77 c2 a4 ba
       -0.06668286 -0.0046344567 -0.04223552 -0.0012570162
000030 36 d4 5f bb be 8a 6e 3c e5 5b f6 ba 25 0d 03 be
       -0.0034153587 0.014559446 -0.0018795697 -0.12797983
000040 98 86 2c be eb e3 ef 3c c3 f3 9a bd 96 2f a1 3b
       -0.16848218 0.029283484 -0.07566025 0.0049190028
000050 7b 5b 86 3d 32 9a aa 3c c6 74 d2 bd 4d eb 0c be
       0.06560417 0.02082548 -0.10276179 -0.13761635
000060 1e 64 4a be a2 09 43 bd 70 9f c0 bd 78 02 14 bc
       -0.19764754 -0.04761661 -0.0940541 -0.009033792
000070 b7 18 b2 be 90 64 a3 bd 57 bd 06 bd b5 4e b1 bd
       -0.3478448 -0.07978165 -0.032895412 -0.0865759
000080 ce 24 97 3d bb b0 b3 b9 52 f9 3e be bc 5e 84 3d
       0.07380067 -0.00034273215 -0.18649796 0.06463382
000090 d7 e2 18 bd 98 d6 03 3e 4b 5d 8b be 55 8b 5a be
       -0.037325706 0.1287483 -0.27219614 -0.21342213
0000a0 9c 2f 0f be 91 e6 c1 bc 9c 87 94 3d 76 1b 10 be
       -0.13983005 -0.023669513 0.07252428 -0.14072976
0000b0 17 f1 fc 3b 0e e9 df bc 89 f4 90 3d f2 4a 49 be
       0.00771917 -0.027332809 0.070778914 -0.19657496
0000c0 60 42 21 3e 6d 64 8e be 25 07 16 be 12 89 68 be
       0.15747976 -0.27810994 -0.14651163 -0.22708538
0000d0 75 26 c2 bd d4 c9 45 be f5 ab 41 3c 40 95 3e be
       -0.09479991 -0.19315273 0.011820783 -0.18611622
0000e0 f0 1b f7 3d ad 97 b6 3c 0f e2 4c be 2b 31 4b bd
       0.120658755 0.022289122 -0.2000811 -0.049607437
0000f0 ab 72 b0 bc 74 77 53 be 63 29 ef 3c ba 66 b8 3d
       -0.021539053 -0.20651037 0.02919454 0.090039685
000100 99 33 dd 3d 5a d4 02 bc 5b b4 d6 bd a7 bc d7 bc
       0.10800857 -0.007985199 -0.10483619 -0.026335074
000110 de bf 2d bd 62 68 2e 3d 7a a5 03 3d 06 04 ab 3c
       -0.042419307 0.042580016 0.032140233 0.020875942
000120 3d c0 91 bd e2 3b b4 be 1b 3e 85 be 77 03 70 3c
       -0.07116745 -0.35201937 -0.26023945 0.014649264
000130 30 60 88 be 1e 72 3f be 0d 1c bc bd 61 12 b2 bb
       -0.26635885 -0.18695876 -0.09185038 -0.00543432
000140 44 4b c7 be f0 db e9 be 67 6b ec 3c 1a 0a 11 be
       -0.3892461 -0.45675611 0.028859807 -0.1416401
000150 1c d4 dc 3d a4 19 3a 3d f1 94 30 be dc 03 dc bd
       0.10782644 0.04543461 -0.17244317 -0.107429236
000160 e1 30 6e 3d 84 4c 80 bd 3d 2c 09 be b5 e0 13 be
       0.058152083 -0.06264594 -0.13395782 -0.14441188
000170 ee c7 7a bd 15 ea bb 3c 44 ad a4 3d 98 02 85 bd
       -0.061225824 0.022938767 0.0804086 -0.06494635
000180 be 4f 9d be f5 ca f7 3c 5f 54 50 be ca 6c 91 bc
       -0.307249 0.030248145 -0.20344685 -0.01775207
000190 ed b4 11 bd 29 ad 5e be ef 0b 07 bd e2 8d 04 be
       -0.035572935 -0.21745743 -0.032970365 -0.12944749
0001a0 87 74 0c be 2e cd 40 3d 51 c8 a2 bc 42 ab a6 be
       -0.13716327 0.047070675 -0.019870909 -0.32552534
0001b0 df 5f e2 bd e4 3a 40 bd 02 b4 40 be 3a 4c c6 bd
       -0.11053442 -0.046931162 -0.18818668 -0.09682508
0001c0 0c 22 35 bd 5c 6f 0d 3e f3 79 1c be 79 58 9e bc
       -0.044221923 0.13812011 -0.15280895 -0.019329296
0001d0 c9 e9 cb bd 71 0c d5 bd 93 2d a4 3b 0f 3e 88 be
       -0.099567 -0.10402764 0.0050103157 -0.26609847
0001e0 04 0d 31 3d f1 92 8a 3c a3 0d 10 3d e0 84 af 3d
       0.043225303 0.01691577 0.035169255 0.08570266
0001f0 71 53 39 be f8 0e 9e bc 0e 81 e5 3b bf 04 17 be
       -0.18098237 -0.019294247 0.00700391 -0.14747904

fc2.weight f4 [128, 130]
000000 ae b1 e4 3d c2 51 56 3c cb 6d b9 bd a3 33 e2 3c
       0.11166702 0.013081016 -0.090541445 0.027612513
000010 4d 6b bb bd b2 30 88 3d c4 1a 33 be fe 3a 32 bf
       -0.091513254 0.06649913 -0.17490679 -0.69621265
000020 cc 8f de 3c 25 a5 91 3b da fa d7 bd 60 0c 10 3d
       0.027168177 0.0044447356 -0.10545893 0.03516805
000030 a0 aa a4 be be f6 8b bc ca 63 48 3e 03 3a eb bc
       -0.32161427 -0.01708543 0.19569317 -0.028714186
000040 69 79 e3 be 69 6a 8c 3d 31 5d 1c bd 99 84 98 3c
       -0.44428566 0.068562336 -0.03817481 0.018617915
000050 c3 ac b3 bd 5d 3a 1f bb 29 db ee 3e d7 33 29 3e
       -0.08773186 -0.0024296262 0.4665158 0.16523682
000060 c7 cb dd 3d 9f ac c2 bd 9a af 5a be 3b c6 b7 3d
       0.10829883 -0.09505581 -0.21356049 0.08973356
000070 1f eb 8c bc 90 1c 11 3e d1 c3 fd 39 d5 4a dd be
       -0.017201958 0.14171052 0.00048401815 -0.43221155
000080 06 18 63 bd 70 58 c8 3d 82 7e 10 bf f0 a3 f4 3c
       -0.055442832 0.09782493 -0.56443036 0.029863328
000090 8f ad ae be 7b 73 44 3b 16 7e 07 3e 1b dd d0 bd
       -0.3411679 0.0029976058 0.13231692 -0.101984225
0000a0 ef 64 1d 3e 56 db 55 3e 81 de 80 3e 5a 1d 5f 3d
       0.15370534 0.20884451 0.25169757 0.05447135
0000b0 11 80 bf bd 46 2a 97 be d2 96 3e bc 45 5f 99 bd
       -0.093505986 -0.2952444 -0.011632638 -0.07488874
0000c0 59 c4 e6 3c 13 41 89 be 62 af 9d bd 5f 6b 5c bd
       0.028169798 -0.2680746 -0.07699467 -0.053813335
0000d0 7d e2 d1 bd eb ca dc bd b3 22 95 3d 13 02 ab 3e
       -0.10248277 -0.10780891 0.07282009 0.3340002
0000e0 34 6b 35 be 0d 23 5e 3d 5f e1 4e bd b3 eb de bc
       -0.17716676 0.054232646 -0.0505079 -0.027212
0000f0 c8 f7 96 be 40 b2 39 bd 75 37 d7 be a8 65 a8 bc
       -0.29485917 -0.045336008 -0.42034498 -0.020556286
000100 9a ab b4 bb 16 93 63 be af 0a f8 bf 9d d1 da 3d
       -0.0055136206 -0.22224078 -1.937826 0.10684512
000110 b9 a2 01 3e 8b 57 00 bd 5c 02 05 3e ce 31 ea 3d
       0.1265973 -0.031333487 0.12989181 0.11435281
000120 1d 3b 2c bf 1e ab 62 be 87 11 24 3e 00 27 b7 be
       -0.672777 -0.22135589 0.16022311 -0.35771942
000130 4a fd 80 bd 08 24 77 bd c6 6e 9d bd 67 3f 4e 3c
       -0.06298311 -0.060337096 -0.07687144 0.0125883585
000140 74 82 0c 3c a9 e8 70 bd ec ed 28 3e 34 0f 86 be
       0.008576024 -0.058815632 0.1649701 -0.26183474
000150 d3 a6 30 be 8b 05 d8 bd c8 a2 e9 be 4a e4 eb bd
       -0.17251138 -0.10547932 -0.45632005 -0.11518152
000160 6c 26 09 bc 20 ca b3 bd 70 c8 f7 3e eb bb 5f 3c
       -0.008370977 -0.08778787 0.4839511 0.013655643
000170 96 8e 24 be 60 e2 d1 3d 62 59 9a 3d 04 3b 12 be
       -0.16070017 0.10248256 0.0753658 -0.14280325
000180 ac 2f ac be 42 da 4f bd 95 f2 12 bf 87 5a 3d 3e
       -0.3363012 -0.050745256 -0.574014 0.18491565
000190 0a 0a c4 3c 59 8b 43 bc 42 d2 26 3e ef 15 4c 3e
       0.023930568 -0.011935079 0.16291144 0.19930242
0001a0 a5 fa 9a bd 40 0c 23 3d 4e bc 4a 3d 92 06 33 be
       -0.07567338 0.039806604 0.049495988 -0.17482975
0001b0 56 04 dc 3d 61 9c e4 bc 3f 92 2d 3e f6 ad 60 3d
       0.107430145 -0.027906599 0.1695032 0.054853402
0001c0 bc 59 92 bd 24 e2 8b bc a9 0d e9 be 8f 51 db be
       -0.07146022 -0.017075606 -0.45518234 -0.42835662
0001d0 82 7d 6f 3d 49 61 84 3d 78 db 91 be f8 1f 44 bd
       0.058469303 0.06463868 -0.28487754 -0.04788205
0001e0 c5 a7 f6 bd 36 cb e6 3c 4b 29 43 bb 09 ac 19 3d
       -0.12043718 0.02817307 -0.0029779251 0.03751758
0001f0 b6 10 79 be 9a 6f 35 bd c4 c9 87 3c 13 b9 68 be
       -0.24322781 -0.044295885 0.016575702 -0.2272685
000200 a7 43 80 bd 09 76 f7 bc 7e c1 a1 3d 58 82 cf bd
       -0.06262904 -0.03020765 0.07898234 -0.10132283
000210 d3 1a 2b 3e 92 23 28 3e 90 39 6d be 39 f4 81 3e
       0.16709451 0.16419819 -0.2316649 0.2538164
000220 2e 32 92 be 3f d3 8d 3d 74 6f 53 be 0b 24 6a bd
       -0.2855391 0.069250576 -0.20647985 -0.05716328
000230 ee 48 e2 be d7 1e 2d bf 2a da f6 3c 5b 27 8d be
       -0.44196266 -0.6762518 0.030133326 -0.27569088
000240 e5 82 8f 3c b4 35 11 3e bf 2e 16 be b0 1c a3 3d
       0.01751847 0.14180642 -0.1466627 0.07964456
000250 64 80 25 bd 14 04 a0 3e 3e 7b 00 3e 0b 44 ac bd
       -0.040405646 0.3125311 0.12547013 -0.08411416
000260 e2 1e ae be 13 ff 01 bf 9a 37 2a bf 35 f8 49 3c
       -0.34007937 -0.5077984 -0.6649109 0.012327244
000270 70 d6 98 be 34 a7 ca be 87 f5 e9 be 2b 4c b0 bd
       -0.29851103 -0.3958069 -0.45695135 -0.08608278
000280 40 39 f0 3d 43 97 8d be 7d c2 20 be ef f2 5c 3d
       0.117296696 -0.27654466 -0.15699191 0.053942617
000290 86 5e 01 be f2 e8 42 3d 6b e9 89 3d 59 83 6b bf
       -0.12633714 0.047585435 0.06733974 -0.91997296
0002a0 fe f2 c0 be f5 0d 81 be 0e cf d9 3e a9 2d 39 3e
       -0.37685388 -0.2520596 0.42540783 0.18083824
0002b0 2c 42 2f be 90 f6 e2 3d 8e 65 54 be 19 68 54 be
       -0.17115086 0.11082184 -0.20741865 -0.20742835
0002c0 a4 2f 5b 3d af 13 2a be a8 3d 29 3e d2 99 92 bd
       0.05351223 -0.16609071 0.16527426 -0.07158245
0002d0 a3 93 06 3d 48 42 78 be ab 40 7d be 97 f2 46 3e
       0.03285564 -0.24244034 -0.247317 0.19428478
0002e0 38 35 98 bd 14 11 db be 6f 37 32 bc 97 02 d0 3b
       -0.07432026 -0.42786467 -0.010877474 0.006347965
0002f0 44 6f 19 be 10 a8 a5 3d e5 0e 8c 3e e7 bf e4 bd
       -0.1498385 0.08088696 0.27355114 -0.11169415
000300 d3 25 eb bd 8c 49 07 3e d8 1f d9 3d 17 5b 77 bf
       -0.11481824 0.1321165 0.10601777 -0.9662337
000310 a0 32 de be 70 26 26 3e d6 f3 92 bd 4a fd f6 3b
       -0.43398 0.162256 -0.07175414 0.0075375186
000320 93 91 c4 bd d5 e1 0f 3e f1 51 80 be 3a 8c 08 bf
       -0.095980786 0.14050992 -0.25062516 -0.5333897
000330 f1 83 02 bf e6 33 eb bd fc 8d 5a be 4b de b4 be
       -0.50982577 -0.11484508 -0.21343225 -0.35325846
000340 da 15 7a 3e 9b 37 0e be 54 fc cd be dc 6f 7e bd
       0.24422398 -0.138884 -0.40231574 -0.062118396
000350 e8 be c8 3d c2 c3 3e 3e 88 e0 94 bf bc 87 bd be
       0.098020375 0.18629363 -1.1631021 -0.3701762
000360 e2 f2 9e be 26 b5 ee 3d 01 78 c6 bd 98 e9 f9 be
       -0.3104468 0.11655645 -0.09690858 -0.4881103
000370 4d 10 4b be ed 3e bf be f4 e0 a2 bd b8 f3 56 be
       -0.19830437 -0.37352696 -0.07953063 -0.20991409
000380 b6 62 3b bf a7 2f 6d be ba 4e c0 bd 74 83 11 3d
       -0.73197496 -0.23162709 -0.09390016 0.035525754
000390 54 56 78 be f5 00 01 3e f3 0f c8 bd bf b8 4b be
       -0.24251682 0.12598021 -0.09768667 -0.19894694
0003a0 db 7f 25 bf e8 8b 73 3e f5 1e 1c 3e e3 1e 57 be
       -0.64648217 0.23783839 0.15246184 -0.21007876
0003b0 8a a7 6b bf 2a 75 bb be 16 8f b9 bd 62 b3 bc bd
       -0.9205252 -0.36612827 -0.090604946 -0.09213902
0003c0 b8 e3 10 be cf 84 4a bc ef 90 52 3d 46 38 f8 bc
       -0.14149368 -0.012360766 0.05140775 -0.03030027
0003d0 9f 51 ed 3c c8 b2 fb 3d 56 bf 74 be bb f6 c7 3e
       0.028969584 0.12289959 -0.23901114 0.39055428
0003e0 3c 82 44 be a8 94 bb bd a1 96 d0 3d 10 ad e7 bc
       -0.19190305 -0.09159213 0.1018498 -0.028280765
0003f0 f5 af 98 3c 3f 58 f2 3d f7 9f 36 bf f0 09 9b bd
       0.01863859 0.11833238 -0.71337837 -0.07570255

fc2.bias f4 [128]
000000 fc 5b b2 3d f4 a5 0f 3c 36 90 8f bd 83 87 e2 bc
       0.08708951 0.008767594 -0.07009928 -0.027652508
000010 92 39 83 bc a8 18 99 3d af b1 8f bd 51 27 e7 bc
       -0.016018663 0.07475406 -0.07016312 -0.02821699
000020 35 39 ae bd 44 08 84 3d 58 73 ec bc 9b 73 df bd
       -0.08507005 0.06446889 -0.028863594 -0.10910722
000030 8d 19 d1 3d c7 f9 20 bd 98 3b 4a bc 90 c7 33 bd
       0.102099515 -0.039300706 -0.01234331 -0.04389149
000040 3e 17 05 3c af bb 91 bd 76 c7 36 be 32 78 72 bc
       0.008123217 -0.07115876 -0.17849526 -0.014799165
000050 9c dd eb bd 0c b8 8c bd 49 ef 63 3c 54 f4 a5 bc
       -0.11516878 -0.06871042 0.0139120305 -0.020258106
000060 44 73 2f bd b6 04 96 3d 30 c5 4c bd 38 f1 e0 3c
       -0.042834535 0.07325117 -0.04999274 0.027458772
000070 6c f6 64 3d 80 a2 ea bd 2e b1 8a bb 4a 92 d1 bc
       0.05589907 -0.11456776 -0.0042325472 -0.025582451
000080 69 1a c4 bd 57 c6 ba 3d 1a a2 f8 3d e8 2b c7 bd
       -0.0957535 0.091198616 0.121402934 -0.09725171
000090 8a 19 34 be d4 71 b3 3d d8 a5 91 bc 43 44 9e 3c
       -0.17587867 0.08761945 -0.017779276 0.01931966
0000a0 57 ae 02 be 27 6a 98 3d 23 fb ac bc 76 4b 32 3d
       -0.12761818 0.07442122 -0.021115845 0.043528996
0000b0 7a 47 75 3c 5b 2c 93 bd f6 a0 2e bd 1b 45 7e bd
       0.014970655 -0.071861945 -0.042633973 -0.062077623
0000c0 38 a9 bf bd cb 76 af bd d9 fb 9d 3d 52 3c a3 3c
       -0.09358448 -0.0856758 0.07714052 0.019926224
0000d0 04 31 01 be 76 5f ae bd fc 56 54 3c 36 53 6e bd
       -0.12616354 -0.085143015 0.012960192 -0.058184825
0000e0 73 2b ba bd cb f5 5d 3d cf ff 8d 3d 24 d7 32 3c
       -0.090903185 0.054189485 0.06933557 0.010915551
0000f0 3b de b3 bb d1 da c7 bd da 95 aa 3c 7a 26 6e bd
       -0.0054891384 -0.09758533 0.020823408 -0.058142163
000100 6c b8 19 bd 50 9e 96 3d a6 ed d6 bd 61 32 c1 3d
       -0.037529394 0.073544145 -0.104945466 0.09433437
000110 19 04 95 bb 64 9a 8b 3d ed 18 64 3d 48 3c c2 bd
       -0.0045476076 0.06816557 0.055687834 -0.09484154
000120 11 98 46 3d 79 ac 0b 3d 16 77 17 3d 78 53 7c bd
       0.048484866 0.03410003 0.036978804 -0.06160304
000130 ef c2 80 bd cf 5f 87 3c c6 d5 ad bd 5a 5a ee bc
       -0.06287181 0.016525177 -0.0848804 -0.029095817
000140 05 72 d6 3c 97 21 a6 3d 54 32 4c bc b3 df 33 bd
       0.026177416 0.081118755 -0.012463171 -0.043914508
000150 82 62 8b 3d 77 38 0e be 18 f3 b6 bc 5f a8 bd 39
       0.06805898 -0.13888727 -0.022332713 0.00036174335
000160 b5 e3 7d 3d e2 f4 b2 bd 98 28 27 3d 1f 27 cd bd
       0.061984736 -0.08738114 0.040810198 -0.100172274
000170 aa 7c a1 bb 92 73 ca bd 09 df 16 3d eb 75 5c bd
       -0.004928191 -0.098853245 0.036833797 -0.053823393
000180 58 93 86 3c e0 ca 8a bc 0d 0a f4 bd 15 22 34 bd
       0.01642768 -0.016942441 -0.119159795 -0.043977816
000190 ef 65 4f 3d 67 96 fa 3d c4 6d 52 3d c9 8e 0c 3c
       0.05063432 0.12235718 0.051374212 0.0085789645
0001a0 34 f0 bd 3d ff 21 9e bc 1b 9b 3b bc 29 47 cf bd
       0.09274331 -0.01930332 -0.011450554 -0.101209946
0001b0 15 d0 f5 bc 70 7d 23 bd 97 72 a3 bd 35 2f b3 3b
       -0.030006448 -0.03991455 -0.07980841 0.005468274
0001c0 ed d2 77 bd 49 be 1b 3b 98 f7 84 bd 24 ef bd bd
       -0.06050389 0.0023764542 -0.06492537 -0.09274128
0001d0 92 17 f7 3c 05 ee 06 3e 8e 23 90 bd 18 04 68 bd
       0.030162606 0.13176735 -0.070380315 -0.05664453
0001e0 5f ce 3a 3d a1 cc ed bd 23 c6 30 bd d5 d8 d7 bd
       0.045606967 -0.116112955 -0.043157708 -0.10539404
0001f0 8f 44 33 3d cc 8f cf bd ed 7b 0d bd b8 c6 c7 3b
       0.043766554 -0.10134849 -0.034542013 0.006096687

fc3.weight f4 [1, 128]
000000 19 7e 0a 3e bd 54 44 bf 63 40 7c bc 8b 23 99 3e
       0.13524665 -0.766918 -0.01539621 0.2990993
000010 af 06 b5 be 11 92 89 bd 56 6f 44 3b 55 1b e4 3e
       -0.35356662 -0.06717313 0.0029973588 0.44552103
000020 fb 22 c4 be c1 5f 55 3e 72 54 ae bd 27 a6 2a be
       -0.38307938 0.20837308 -0.085122004 -0.16664945
000030 4c 7a 25 3e ab 03 34 3b d9 4c c7 3e 59 93 94 3a
       0.16159934 0.0027468007 0.38925818 0.0011335417
000040 03 22 e8 bd 69 7c c0 bb 21 6e 81 3e ed 1c a5 3e
       -0.11334612 -0.005874206 0.25279334 0.3224863
000050 2e 6e 12 3d 30 6e 36 be 8b 3f 80 3d 37 b5 77 be
       0.035749607 -0.1781547 0.0626212 -0.24190222
000060 27 c6 cb be 47 f3 8c 3e b1 67 e3 bd 58 0b 18 3e
       -0.39799616 0.27529356 -0.11103762 0.14848077
000070 bf 59 d3 bd 65 9f 7b bd b0 7b 83 be 7d e1 09 be
       -0.10319852 -0.061431307 -0.25680304 -0.13464923
000080 c7 0e ce 3b 1c 8e 8b be 4a 74 43 3e e2 21 fe 3a
       0.0062883827 -0.27256858 0.1908733 0.001938876
000090 ad c0 86 be 6d 08 da bd 30 d4 71 be 69 65 28 3e
       -0.26318875 -0.10646138 -0.236161 0.16444935
0000a0 db 25 85 bc 10 0c 27 3e 70 9b 7f 3c 3d 93 ab bd
       -0.016253402 0.16313195 0.015601024 -0.08377693
0000b0 0c 0a 07 be aa 90 fa b9 a5 7c 6a bc 71 85 92 bd
       -0.13187426 -0.000477915 -0.014311944 -0.07154358
0000c0 21 d3 bf ba b6 eb c9 be ca 0e 08 3e 33 69 4d 3d
       -0.0014635065 -0.39437646 0.13286892 0.050149154
0000d0 87 e9 99 be b9 c8 a7 3a 0f 44 9b 3d a9 4e e5 bd
       -0.3006098 0.0012800909 0.075813405 -0.11196644
0000e0 3e ee d3 bb 73 7e 02 be d0 5e 79 3e ef 3e ad 3d
       -0.0064676097 -0.12743549 0.24352574 0.08459269
0000f0 81 ee 4a be 61 16 cf b9 86 b3 4d 3e 3d 59 03 3f
       -0.19817545 -0.0003949879 0.20088014 0.5130804
000100 1f ba 8e be eb 69 60 3e 9f 68 39 bc 22 f2 cf bd
       -0.27876374 0.21915404 -0.0113164475 -0.10153605
000110 28 13 f5 3e e6 7b 05 be d8 df 92 3e 6f 76 c2 3c
       0.47866178 -0.13035545 0.28686404 0.023738114
000120 1b 2a 31 3e 03 a9 48 be 20 49 2e 3e 0a 24 a6 3b
       0.17301218 -0.19595723 0.17020082 0.005070214
000130 01 e3 1f 3c 19 b4 7f be fc f3 c8 b9 54 6a 5d 3e
       0.009758712 -0.24971046 -0.00038328755 0.21622592
000140 77 6c 79 be 28 d8 bb 3e d2 64 f3 3e a5 8f 57 be
       -0.24357782 0.36688352 0.47537857 -0.2105089
000150 67 5f 65 3e 8d 59 d4 be e2 f4 3b 3c 9b 78 87 3c
       0.22399674 -0.41474572 0.011471959 0.016537001
000160 7b fb f1 bd 7f b2 a5 3c b7 c2 c6 bd 07 46 47 bb
       -0.11815544 0.020226715 -0.09705108 -0.003040673
000170 b3 e5 0b be 5c 74 d9 3c 7a a5 46 3e 25 46 3d ba
       -0.13661842 0.026544742 0.19399062 -0.000722023
000180 fe 5d 0a be 9c 3d 8b bd 3c a3 38 be a8 3a b7 be
       -0.13512418 -0.067988604 -0.18031019 -0.3578694
000190 10 73 49 3e 1f 1d 8f 3d 5d 42 48 be 88 9d e9 ba
       0.19672799 0.06987976 -0.19556566 -0.0017823437
0001a0 4d 55 a5 be f3 9f 23 be 9f 18 14 3e 3c e0 d8 3b
       -0.32291642 -0.15978985 0.14462517 0.0066185277
0001b0 f8 0d 85 bc 1f 7d d0 3d 33 54 9e 3c 35 4a 32 be
       -0.016242012 0.10180115 0.019327259 -0.1741112
0001c0 ee 70 91 bb 45 51 32 be 13 f9 b7 ba b5 73 23 3d
       -0.004438511 -0.17413814 -0.0014036022 0.03990527
0001d0 ea 8f 0c be 20 82 f7 3d 73 15 2a bb 97 e0 50 39
       -0.13726774 0.12085366 -0.0025952726 0.00019920092
0001e0 00 26 d0 be 2e 8c 23 3b d1 c1 52 be 46 3e a3 bc
       -0.40653992 0.002495538 -0.20581748 -0.019927155
0001f0 c2 2b 4d 3e 17 a5 03 bd b4 b1 8a bd ab 63 87 be
       0.20036224 -0.032139864 -0.067721754 -0.26443228

bn1.weight f4 [24]
000000 c7 de 12 3f 63 d4 45 3e ae 45 f9 3d e9 18 81 3b
       0.5737118 0.193193 0.121714935 0.003939737
000010 12 3b 3a 3f 41 4e 31 3f b2 25 4a 3d 54 a0 b7 3e
       0.72746384 0.6926003 0.049352355 0.35864508
000020 17 8f 3f 3e 90 ca d0 3d ab 38 b4 3b d0 67 b8 3d
       0.18706928 0.10194886 0.0054999194 0.09004176
000030 66 64 17 3f 59 1e 8f 3e 74 37 8e 3e bf 00 53 3e
       0.5913757 0.2795284 0.27776682 0.20605753
000040 2e e6 35 3f bf 21 c4 3e ec a6 36 3e 26 7d 8b 3e
       0.7105435 0.38306996 0.17837113 0.27243918
000050 45 b1 2f 3f b2 11 e7 3e 27 0c 8e 3e 3d 67 48 3e
       0.68629867 0.45130688 0.27743647 0.19570632

bn1.bias f4 [24]
000000 08 e8 a8 bd e2 6c d6 3d 77 05 7e 3c 9a f8 c1 3a
       -0.082473814 0.104699865 0.015504233 0.001479882
000010 64 ae 2a 3e e9 e5 b4 3d 16 ca 15 3c 50 e6 67 3b
       0.16668087 0.088329144 0.009142419 0.003538508
000020 d1 ce 78 3d f7 4e 45 3d 17 5f 04 b9 14 14 08 bc
       0.06074411 0.04817101 -0.00012623925 -0.008305568
000030 6e 0f c7 3d e7 d3 8a 3c 64 b9 58 3c e2 e5 24 3c
       0.0971974 0.016946746 0.013227794 0.010064574
000040 33 2a d5 ba 6b 74 0f 3c 2a 08 15 bd 9b 34 11 bc
       -0.0016263187 0.008755784 -0.03638474 -0.00886264
000050 14 0e af 3d 37 eb 22 3d c5 2e a0 bc 64 9c 9b bb
       0.08547607 0.0397751 -0.019553551 -0.004748868

bn1.running_mean f4 [24]
000000 7a 56 b5 c0 09 05 b1 bf a7 63 d8 3f d4 46 10 3c
       -5.666806 -1.3829662 1.6905411 0.008805949
000010 32 22 a0 bc 3e 46 1b 40 a7 63 d8 3f d4 46 10 3c
       -0.019547556 2.4261622 1.6905411 0.008805949
000020 4d f6 bb c0 d1 a4 b7 bf da 6c ee 3f 78 b0 e0 3c
       -5.873816 -1.4347173 1.8626969 0.027427897
000030 69 26 a5 b9 f7 f2 18 40 da 6c ee 3f 78 b0 e0 3c
       -0.0003149987 2.3898294 1.8626969 0.027427897
000040 65 64 c2 c0 bb fb bd bf b3 8a f6 3f 45 87 08 3d
       -6.074755 -1.4842447 1.9261078 0.033332128
000050 cd 8e 1a bc 91 2c 14 40 b3 8a f6 3f 45 87 08 3d
       -0.00943346 2.31522 1.9261078 0.033332128

bn1.running_var f4 [24]
000000 90 7f 1e 41 66 39 2e 3f 2e c4 00 43 48 16 49 40
       9.906143 0.68056333 128.76633 3.141985
000010 24 21 0b 42 8f 5f 98 40 2e c4 00 43 48 16 49 40
       34.782364 4.761665 128.76633 3.141985
000020 34 45 11 41 fc 69 22 3f be 66 02 43 33 41 53 40
       9.079395 0.6344297 130.40134 3.3008544
000030 cc c9 14 42 c4 93 a2 40 be 66 02 43 33 41 53 40
       37.197067 5.080538 130.40134 3.3008544
000040 56 c8 01 41 28 77 16 3f 4c 04 0b 43 56 78 59 40
       8.11141 0.5877557 139.01678 3.3979697
000050 b6 1e 1f 42 42 ee b3 40 4c 04 0b 43 56 78 59 40
       39.77999 5.622834 139.01678 3.3979697
