checkpoint_actor_final.pth (torch_old, 81931 bytes, 10 tensors)

fc1.weight f4 [128, 24]
00000000: 34da d03e 2239 293f 4dc9 5dbf 1771 28be
00000010: 0f32 b3be 57e9 5b3f 2753 4d3e 9dcb 383f
00000020: 906a c63e 00ad d53c 4e02 96be d3e9 5a3f
00000030: cf6b a3be 35b8 603e b5f6 b93e 9d7e 24bf
00000040: 6615 af3f d185 f1be 6e88 a73d 6568 873e
00000050: c3f2 113f 169b 55bf 94b7 6c3e c0ca 783e
00000060: 2edc c0be 8c09 01be 0a32 0b3f 6434 56bd
00000070: 1593 3dbf 544e 403f 182e 953e ff0c 92bf
00000080: 36ab 5f3d ecea df3d 0126 b33e 1f16 aebf
00000090: a5d4 803e 11db 5d3f df5c 20bf c156 35bf
000000a0: 9a9b 103e f925 323e f327 b63e 90de dbb8
000000b0: 5a52 aa3f 6305 a5bf 98e1 95bd 553c 33bd
000000c0: 694f ba3f 31e3 24bf 6d42 5f3e c0ff a03f
000000d0: f8d9 ffbe 9c47 45bf eebd 9b3d 623d 9f3e
000000e0: 8d99 353e 89a4 cebe 54ce 853f b247 0f3f
000000f0: a280 af3e 2943 6dbf 78be b5be ed58 01be
00000100: 0f46 c63f a202 02bf 5866 44be 3072 f2be
00000110: bdab efbe 326e 4d3f 70ba d63e 51d5 eabe
00000120: 5c12 a13e 33da b73f 1349 543e 239b 493f
00000130: 46ed d43e ec85 46be 4e72 fc3c c080 f83e
00000140: 9a4f c4be 8241 2f3f 4f57 153f c134 cfbd
00000150: 5921 a93e e33d 063f c3e3 8a3e e603 6d3f
00000160: b3c9 21bf ba29 d13f 1cbc 99be fd86 c23f
00000170: 7787 6ebe 8326 26bf 07f7 343f de33 f63f
00000180: 779a 683f 8e59 e3bf dd0a 1a3d f218 0340
00000190: 9969 d63f 2ca8 883d a135 56be 8982 4c3f
000001a0: 3f69 253e da20 1dbe 9427 ea3d b71d a33f
000001b0: 1edb c0be 5fb7 d33e 5375 943e 640c 3e3f
000001c0: 6f31 093f 6bf5 11c0 7565 4dbf 45fe cebe
000001d0: 6a4e 3c3c 158d 2f3e 1ef6 db3e 8769 48be
000001e0: 4b74 a2be e88c fbbe 3cc2 5dbe 26f1 973e
000001f0: 3b65 bb3e 6b82 5cbf 079e 87be 3dd0 b13e
00000200: fa68 2ebd df43 f9bb 1719 973d 5232 c03e
00000210: e097 c53e 2d38 14bf 61ab c53e 905a 81be
00000220: 41be 15bf dcb5 87bf 718a 173e 47ea 89be
00000230: d39b f9be c0bd 793f 0c47 11be dcdf 81be
00000240: cd2c b53f 01a5 603f 2fa3 0cbf cf64 a2be
00000250: 6220 3f3f 0d0c 603e d66e 4e3e 420f 0540
00000260: 4646 9cbe 2b4e 4c3e 2ed9 9cbe 3cae 0940
00000270: ec6c ddbc 3ed5 43be d637 fb3e 91c3 493f
00000280: 8cd0 f9be de0f 783f cd34 21be 3f83 39bf
00000290: abbb a23f 4ad1 da3c 6323 293d ebda 14bf
000002a0: 0fc0 50bf efc9 bd3e 1ae7 88bf afc1 4e3e
000002b0: 5162 353e 8c1d 163f bbbe 833d 8a20 bf3f
000002c0: 14a8 be3e 1c78 5bbd 3d84 8b3f 1e06 b23f
000002d0: d9cc 86be 006d ae3f 7ed3 6bbe 1e26 4e3f
000002e0: 05d7 7a3f 8b32 673e 0465 883f edf1 563d
000002f0: 133c a13f 1524 4dbf 897b 933f 888b fd3d
00000300: 81d9 e43d 2bef 98bf 5169 03be 7917 d4be
00000310: aaf3 733f 6c53 23bf 6aae 853e 438f 463f
00000320: 72ff d5be 100a 0abf fb08 9fbe 835e 133f
00000330: 22c4 903e 6330 883e f60b e33e 6820 a43e
00000340: bf5c 30bf 9088 163f f75a dd3c b3a2 ac3f
00000350: ee54 aebe 4cee 4b3f 52f9 9a3e 3e01 d13f
00000360: 8778 8fbe 4e52 8a3f f135 89bd 8b3e 02bf
00000370: b128 95be 3a1e 69bf 3b97 583e 3936 4d3f
00000380: d9d0 0d3f b55f fd3e 9461 923f 970f 803f
00000390: 2781 853e 9e0c 7ebe a72f 973e f870 b4be
000003a0: 63a7 443f fad3 9c3f 87fb 753d bc01 9abd
000003b0: c397 303f 8c41 b73f d0ac c63f 0dc7 12bc
000003c0: 9478 4f3f 5dfe 7dbf 438f 76be b956 823f
000003d0: 653f 7abf 763d 3d3f e846 6a3c 3fc1 d93e
000003e0: 6eca 75be 31ae 923e c374 f83d 4e94 293e
000003f0: 2f66 2d3d 68e7 e33e e497 673e e122 9c3f
0.40791476 0.661028 -0.86635286 -0.1644939 -0.3499913 0.85902923 0.20051251 0.7218569
0.38753176 0.02608347 -0.29298633 0.8551304 -0.3191819 0.2194527 0.36321035 -0.64255697
1.3678405 -0.47172406 0.08180319 0.26446834 0.5701105 -0.8343977 0.23116904 0.24296093
-0.37667984 -0.12601298 0.5437323 -0.052296057 -0.74052554 0.7511952 0.2913673 -1.1410216
0.05460664 0.1093348 0.34989932 -1.3600501 0.25162235 0.86662394 -0.6264171 -0.708355
0.14121857 0.17397298 0.35577354 -0.00010484189 1.3306382 -1.2892269 -0.07318419 -0.04375871
1.4555484 -0.64409167 0.21802683 1.2578049 -0.49970984 -0.7706239 0.076045856 0.3110152
0.17734356 -0.40359905 1.0453591 0.55968773 0.34277827 -0.92680603 -0.3549688 -0.12631579
1.549013 -0.5078527 -0.19179666 -0.47352743 -0.46810713 0.8024627 0.41939116 -0.45865873
0.3145932 1.4363464 0.20731 0.78752345 0.41587275 -0.19387025 0.030816223 0.48535728
-0.3834198 0.6845933 0.5833635 -0.10117484 0.33033255 0.5243818 0.27126893 0.92584074
-0.63198394 1.6340859 -0.3002633 1.5197445 -0.23293863 -0.64902514 0.70689434 1.9234579
0.90860695 -1.7761705 0.037608016 2.0483975 1.6750976 0.06672701 -0.20918895 0.7988668
0.1615343 -0.15344563 0.1143333 1.2743443 -0.37667173 0.4135084 0.2899576 0.74237657
0.53591055 -2.2806041 -0.80232936 -0.40428367 0.011493305 0.17143662 0.4296121 -0.19571505
-0.3172935 -0.4913094 -0.21656126 0.2967617 0.3660067 -0.861365 -0.26487753 0.34729186
-0.042580582 -0.007606968 0.073778324 0.3753839 0.38592434 -0.5789822 0.38607314 -0.25264406
-0.5849343 -1.0602374 0.14798905 -0.26936552 -0.48751697 0.9755516 -0.14187258 -0.25366104
1.4154297 0.87751776 -0.549365 -0.31717536 0.7465879 0.21879597 0.20159468 2.0790563
-0.30522364 0.19951694 -0.30634445 2.1512594 -0.027029477 -0.19124314 0.49066037 0.78814036
-0.4879192 0.9689921 -0.15742798 -0.7246589 1.2713522 0.026711125 0.041293513 -0.5814654
-0.8154306 0.37068126 -1.0695527 0.20191072 0.17713286 0.58638835 0.06432863 1.4931805
0.37237608 -0.053581342 1.0899731 1.3908117 -0.2632816 1.3627014 -0.23029897 0.8052691
0.97984344 0.22577874 1.0655828 0.052476812 1.2596458 -0.8013318 1.1522075 0.12380129
0.11174298 -1.1947988 -0.12833144 -0.41424158 0.95293677 -0.63799167 0.2610963 0.7756235
-0.41796452 -0.53921604 -0.3106154 0.5756609 0.28274637 0.26599416 0.44345063 0.32055974
-0.6889152 0.5880213 0.027020914 1.3487152 -0.3404917 0.7966049 0.3026834 1.6328504
-0.28021643 1.0806367 -0.06699742 -0.50876683 -0.29132608 -0.9106175 0.2115144 0.8016086
0.553968 0.4948708 1.1436028 1.0004758 0.26075098 -0.248095 0.29528543 -0.35242438
0.7681791 1.225219 0.06005433 -0.07519862 0.6898157 1.4316878 1.5521488 -0.00895859
0.8104336 -0.9921625 -0.24078088 1.0182716 -0.9775298 0.73921907 0.014299132 0.42530248
-0.24003002 0.28648522 0.121316455 0.1656048 0.042333778 0.44512486 0.22616535 1.2198144

fc1.bias f4 [128]
00000000: 7fce 16bf e524 c53f d620 efbe 3588 2dbf
00000010: 2cb8 32bf 0c0e f03d 624c 1ac0 a1fe c2bf
00000020: d5f9 47bf 69a9 89be d2c3 34be 8c5a 073f
00000030: 2f3a a5be 6103 e0be ebff 633d 8808 1cbf
00000040: 3481 03bf 0348 a0be 60c7 a8be 6db0 8bbe
00000050: fb47 aebf badd 87bf f38c 17be 8cad 8cbe
00000060: 84ca e6bf baeb 6a40 87a5 1bbf 996f b8bf
00000070: 7022 89bf 01d5 193e c6b8 c7bd 377c 3dbf
00000080: 61f5 aabc 30ff 32bf 4791 42bf e526 e3bd
00000090: 2d94 ecbe db2b 4dbe 504d 12bf 8bc4 fcbd
000000a0: 618c 3dbf 4bca 173f 83a1 97bf d1a9 75be
000000b0: 91f2 35bf 00a9 08bf 6229 623d 99ac 21bf
000000c0: ac12 513f bdd1 86bf d5e3 10bd 1dc5 09bf
000000d0: b386 97bf e30b 95bf ed56 93bf 3d4d 4fbf
000000e0: c895 c4bd ff56 03bf b37a 093f 2496 503d
000000f0: c7d8 cf3d 1815 5fbd 1922 aebf 193e 5f3e
00000100: 877a 5bbf 79bb 29bf 2745 c2bf db46 cdbe
00000110: f85d 79bf 1dc2 9f3e 334e 813d 8239 d8bd
00000120: 216f bdbc 713a f8be 824e 4abe 5898 babc
00000130: 305a fdbf 1d20 80bf 9116 f5be f09e 5ebf
00000140: ff0c ea3e 8027 9cbf 843a 91be 33a6 66bf
00000150: 3fdc b63e 8647 c6be 3cca 81bf d059 45bf
00000160: 0215 703f 16db c33d 698b 7e3f 1d75 5b3f
00000170: 7bde a7bf 6f2a 2a3f e166 99bf 22b0 b2be
00000180: d027 26bf ecc7 aebf 015d abbf b014 eebe
00000190: b510 a1bf 32c7 02bf 3c13 aabe e333 40bf
000001a0: a26e 2dbf 067d fabe 86aa c13e 9dd1 84bf
000001b0: 6ca2 cbbe 4442 eebe 0264 49bf 9aaf 13bf
000001c0: d5a1 28bf 699c 14bf bc83 27bf 6e6a 64bf
000001d0: 28a7 99bf f984 2cbf fed7 2ebf 83a4 53bf
000001e0: ad69 f1be fd03 1fbe 557e bdbf f2be 76be
000001f0: 8887 22bf 3e8f 2ebe 7ac1 24bf d130 a3bf
-0.5890884 1.5401884 -0.4670474 -0.6778596 -0.69812274 0.11721429 -2.410912 -1.5233957
-0.7811559 -0.26887062 -0.17652825 0.5287254 -0.32270953 -0.43752578 0.055663984 -0.6095052
-0.51369023 -0.3130494 -0.3296461 -0.2728304 -1.3615717 -1.061454 -0.14799862 -0.27476156
-1.8030553 3.6706376 -0.6079945 -1.4409057 -1.0713634 0.15022661 -0.097520396 -0.7401766
-0.020868959 -0.69920635 -0.76002926 -0.11091403 -0.462068 -0.20036261 -0.5714922 -0.12342175
-0.74042326 0.5929305 -1.1846164 -0.23990561 -0.7107325 -0.53382874 0.055215247 -0.6315399
0.81669116 -1.0532757 -0.035373528 -0.53816396 -1.1837982 -1.1644253 -1.1510903 -0.8097723
-0.09598881 -0.5130462 0.5370285 0.050924435 0.10148769 -0.054463476 -1.3604156 0.21801032
-0.85733837 -0.66301686 -1.5177354 -0.4009312 -0.9740901 0.31202784 0.063137434 -0.10557844
-0.02312428 -0.48482087 -0.19756511 -0.022777721 -1.9793148 -1.00098 -0.4786878 -0.8696127
0.4571304 -1.2199554 -0.28364956 -0.9009735 0.3571491 -0.38726443 -1.0139842 -0.7709017
0.93782055 0.09563272 0.99431473 0.85725576 -1.3114771 0.66471 -1.1984521 -0.34900004
-0.649045 -1.3654761 -1.3387758 -0.46500158 -1.2583224 -0.510852 -0.332178 -0.7507917
-0.6774694 -0.4892351 0.37825412 -1.0376469 -0.39772356 -0.46534932 -0.78668225 -0.5768982
-0.65871936 -0.5805116 -0.65435386 -0.892249 -1.2004137 -0.673904 -0.6829833 -0.826729
-0.47150937 -0.15528865 -1.4804178 -0.24096277 -0.63488054 -0.1704683 -0.6435772 -1.2749273

fc2.weight f4 [128, 128]
00000000: a478 2ec0 4661 5bbe c294 a9bf e2c0 77be
00000010: b0ba f4bf 7420 183f 2936 54c0 aa00 333e
00000020: 7e34 943f 8b67 e93d 844a 86bf 2dce a8bf
00000030: ede9 7dbe b04b 1ec0 8c1d 593f 76f6 f1bf
00000040: 18df 09c0 a244 283f 555e 7dc0 16f9 67bf
00000050: c6d5 0f3e e6a5 ecbf 802f 853f 1898 e5bf
00000060: dd21 743f 96c4 31bf 478e 9fbf 977b 2d3f
00000070: aee8 f13e e944 39c0 fd2e 863f 9633 b83d
00000080: 5e13 92be da11 21bf 444b c63e 6b2f e8be
00000090: d30f 083e b42c 02c0 159a 9cc0 36ee 313f
000000a0: 4bc7 85c0 3650 edbe 93a8 443f ad43 0940
000000b0: 30a6 e8bf f2a8 7c3e ac0d 863f b30c 3ebd
000000c0: 3547 fbbe 6f39 9dbf f92c 223f 51bc 783f
000000d0: 1290 ea3f 22e1 6cbf 7961 0b40 0e42 023f
000000e0: f788 603d 0ecf 23bf 94ab 3bbf 0c3c aa3e
000000f0: 2bfb 48bf a5c1 4e3f 8e02 43c0 ad1c 263e
00000100: a370 67bf 05a6 15bf 628e 09be 26a1 85c0
00000110: cb79 94bf 7b85 9d3f 8b80 653e 388e 8cc0
00000120: 1d56 083f 53ed 86be 37d5 55c0 8df4 6c3e
00000130: bb3c 403f 612c 40bf 6123 26bd 6100 babf
00000140: ccd4 99bf 3df7 0cc0 24a3 c43f 3ef4 9ec0
00000150: 5e2f d7be a272 ad3f 5521 c7be aa14 10bf
00000160: 586d 143f b120 89be e0d2 0fbf 7509 dd3e
00000170: ee09 0340 1156 f23e d053 213f 20c9 013e
00000180: 1633 323d 4be5 9ac0 7c86 e1bf 0fa8 f3bf
00000190: 103b b63f cf36 4cc0 c9ae 553f 0961 853e
000001a0: c561 793e ed76 843f 01b8 16bf f8e6 b4bf
000001b0: 77cc f23f e0b0 e7be 1a97 68c0 2be3 a4bf
000001c0: da53 883e 8096 a23f a7aa af3e 11f0 3ac0
000001d0: b194 a3be b51f a7bf c822 88be 6c7b e6bf
000001e0: f67d 743e af25 693f cd90 3440 3f1a cdbe
000001f0: 2f7c c53f 76b4 b8bf c52d a63f a51b 8d3f
00000200: bad6 86be 0cff b93c 43d8 30bf 4028 763f
00000210: 61f7 cabf c042 24bf 71a2 7f3d 8243 763f
00000220: b6a2 843d ba1f 51bf 7f31 e93f 4f6e 83c0
00000230: 8b2e 1c3f 5345 69bf b33a 0b3f 3473 dfbc
00000240: 759f debf 23c1 87be 2b41 e8bf 2b51 8a3f
00000250: ded9 183f af8f 303f af57 5bbe 4dc1 bdbf
00000260: 2c00 b2bf 7363 8bbe 5abd 403e a241 2140
00000270: 838d a3bf 751c edbf d8b1 8d3e 10d6 b13d
00000280: 63a0 eebe dc0e d1bf 092f 39be 0494 bcbe
00000290: cd72 6dbf bc93 6f3d e2a7 7cc0 d2e8 d4be
000002a0: 5124 b3be 2822 29bf 66af 87bf 2851 22be
000002b0: 2cfd a13f 1685 8abd 1c58 913f f5e5 33bf
000002c0: ea71 edbf add6 0440 19ca 113e c1ca 8f3f
000002d0: bb05 2d3e 015b b83f bb29 6abe 7e66 d43e
000002e0: c586 50c0 f574 babe 4456 553f d821 acbf
000002f0: 11ef 64be 6005 e5bf b455 22bf d749 54bf
00000300: 9bb0 ccbe deaa 103e e38c 9e3f 22e3 7cbf
00000310: f361 00bf e1cf 81bf 2b2a a8bf 42ca ad3e
00000320: 41fb 08bf 8314 993f 1981 2bbf 7504 21c0
00000330: a3ca f2bf 0f77 1ec0 0c3d 09be a4fb 5cbf
00000340: cd86 d6be 584f 1b3f 16c2 e93e 6e90 40c0
00000350: 75fb a03e 8f33 f0bf cdab 56bf c400 85be
00000360: 5935 71bf c0e0 053e aa2e 5b3e 92c8 72c0
00000370: fc39 58be b1a6 fabf e427 3a3e 9d78 db3e
00000380: 7196 393f 8a49 d3bf 18e5 11c0 dc02 1b3f
00000390: b3ac 32c0 819a cc3e c6de dd3e 69c7 e3be
000003a0: 8988 093f 42f7 e9be 1399 71bf ddde 0fc0
000003b0: 703d 923f 4453 10bf 325a efbf 478d 5dbf
000003c0: 206f 923f 978b b83f 626e 063f 7668 a2bf
000003d0: c85a 33bf f217 a5be 2050 583e 8850 0cc0
000003e0: 35b4 3ebf 8e52 17bf 177e 80bd 8426 5cbf
000003f0: 4324 bc3f 29f2 543f fa71 ccbf 50e5 d0bf
-2.7261133 -0.21423826 -1.3248522 -0.24194673 -1.9119473 0.5942452 -3.3158057 0.17480722
1.1578519 0.113967024 -1.049149 -1.318792 -0.24796267 -2.4733696 0.8481071 -1.8903339
-2.1542416 0.65729725 -3.9588826 -0.9061445 0.14046392 -1.8488128 1.0405121 -1.793704
0.9536417 -0.6944059 -1.2465295 0.6776671 0.47247833 -2.894831 1.048309 0.08994214
-0.285304 -0.62917864 0.38729298 -0.45348677 0.13287286 -2.0339785 -4.893809 0.69504106
-4.1805778 -0.4635026 0.76819724 2.1447556 -1.8175716 0.24673823 1.0472922 -0.04639883
-0.49077764 -1.2283152 0.6334987 0.9716235 1.8325217 -0.92531025 2.1778243 0.5088204
0.05481812 -0.63987815 -0.7330868 0.33248937 -0.7850825 0.8076423 -3.047031 0.16221876
-0.90406245 -0.5845645 -0.13433221 -4.1759214 -1.1599668 1.230636 0.22412317 -4.3923607
0.532564 -0.2635294 -3.3411386 0.23140164 0.7509267 -0.75067717 -0.040561084 -1.4531366
-1.2018065 -2.2025902 1.5362287 -4.9673147 -0.42028326 1.3550608 -0.38892618 -0.5628153
0.57979345 -0.26782754 -0.56181145 0.43171278 2.047481 0.47331288 0.6301851 0.1267438
0.04350575 -4.84049 -1.7619166 -1.9035662 1.4236774 -3.1908453 0.83469826 0.26050594
0.24353702 1.0348793 -0.5887452 -1.4132986 1.8968648 -0.45252132 -3.6342225 -1.2881826
0.26626474 1.2702179 0.34309885 -2.9209025 -0.3194938 -1.3056551 -0.26589036 -1.8006415
0.23876175 0.91073126 2.821338 -0.40059087 1.5428523 -1.4430072 1.2982718 1.1024061
-0.26335698 0.022704624 -0.6907999 0.96155167 -1.5856744 -0.6416435 0.062410776 0.9619676
0.06476347 -0.81689036 1.821823 -4.1072154 0.6100852 -0.91121405 0.5438644 -0.027276613
-1.7392412 -0.2651454 -1.8144888 1.080602 0.5970744 0.68969244 -0.21420167 -1.4824616
-1.3906302 -0.2722431 0.18822232 2.519631 -1.2777561 -1.8524309 0.27674747 0.08683407
-0.4660674 -1.633266 -0.18084349 -0.36831677 -0.927533 0.0584905 -3.9477468 -0.41583878
-0.34988645 -0.66067743 -1.0600402 -0.15851271 1.2655387 -0.067636654 1.1355014 -0.7027276
-1.8550389 2.0756028 0.1423725 1.123375 0.16896717 1.4402772 -0.22867481 0.41484445
-3.2582257 -0.36417356 0.83334756 -1.3447828 -0.22356822 -1.7892265 -0.6341202 -0.8292517
-0.3997849 0.1412768 1.2386745 -0.9878408 -0.5014946 -1.0141565 -1.3137869 0.33943373
-0.53508383 1.1959385 -0.6699386 -2.515897 -1.896809 -2.4760168 -0.13402194 -0.86321473
-0.4189972 0.60667944 0.45655888 -3.0088153 0.31441846 -1.8765734 -0.838559 -0.25977147
-0.9422203 0.13074017 0.2140452 -3.7934918 -0.2111587 -1.958212 0.1817928 0.42865458
0.7249518 -1.6506817 -2.2796078 0.6055124 -2.7917907 0.39961627 0.43334025 -0.44488075
0.5372396 -0.45696455 -0.943742 -2.2479775 1.1424999 -0.56377053 -1.86994 -0.865437
1.1440163 1.44176 0.5251218 -1.2688129 -0.70060396 -0.3224483 0.21124315 -2.1924152
-0.74493724 -0.59110343 -0.0627405 -0.8599627 1.4698566 0.8318201 -1.5972283 -1.6319981

fc2.bias f4 [128]
00000000: 4829 85be f6db 683d 233e 3bbf 89c0 8e3e
00000010: e617 f3bc b51e 38be 080b 803f c249 d2be
00000020: 5d2a abbf 5276 1b3f 6daf 453e fcdd 8fbd
00000030: 878c c3bf 7ea2 afbe 155f 633c eb89 27bf
00000040: af91 d0be 83c0 09be d2e5 28bf 71dc babc
00000050: f22e 2e3c 5b24 27bf 6cc1 02bf 502e 233c
00000060: 6288 a9bf d44f 173d 5148 abbe c31a b6bd
00000070: 23c9 14bf 0970 67bd b601 ac3c fe00 fc3d
00000080: fbf3 adbe 6bf9 3bbc f42e a03e 2497 2ebd
00000090: 9f5e 55be d688 703b 53a8 98bf a658 de3c
000000a0: 812f a6bf 5dfb abbe 4e3c 92bf d6b2 e8be
000000b0: 8256 19be 5897 56bd 3f06 20bf 3a79 21be
000000c0: 0e5a d3be f66f 99bf fd0a b5bd 09ed df3c
000000d0: 5dbc 83bf 1397 bfbc 7b7e ecbe 7ad0 f23c
000000e0: 278f 36be 8ecc 51be 09d8 863e aefd f1bd
000000f0: 922f 62bd ea3c 40be c805 5b3e 6ae8 d4bf
00000100: 8034 cbbd f08f a8be 97db 74bd ab25 9d3d
00000110: a1b8 9fbf a409 e93d ad83 15bf 4a2d f7be
00000120: 9245 583d aa24 04bf 78d1 2cbd a994 c1bf
00000130: f473 00be 2e21 a6bb 445a fd3d daa2 9f3e
00000140: c410 96be cb22 a6bc a6c9 01bf 9af1 66be
00000150: ccae 7b3e f89f aebf b532 d7be 3739 55bc
00000160: fa18 38be dd81 38bd 5221 21bf 400b 9fbf
00000170: d90b 01bf bb8d f9be 36e4 dd3e 53b5 c43d
00000180: 24f6 08bf b21a 67be b939 6bbe 2ddc 17bf
00000190: d43c 05bf ed6d 96be cd47 11bd d88d 05bf
000001a0: 9674 42bd 78e9 0dbf d125 c7bc bf75 82be
000001b0: 35b0 53bf 38f0 29bf 33a5 bbbf 04a3 c23d
000001c0: 1841 6ebd 070c bc3e 052b e2bd 2f91 4fbf
000001d0: 0c97 e6be b745 d23d 5b15 ae3c 6af7 f2be
000001e0: 0c84 4dbe 7318 75bd a942 22bf 69be 23bf
000001f0: 67f0 6ebd 3d69 a83e f8d7 333e c456 26bf
-0.26008058 0.056850396 -0.7314169 0.27881268 -0.029674482 -0.17980464 1.0003366 -0.41071898
-1.3372303 0.6072742 0.19305201 -0.07024762 -1.527726 -0.3430366 0.01387765 -0.6544482
-0.40736148 -0.13452344 -0.6597568 -0.022810193 0.01063131 -0.6528985 -0.5107639 0.009959772
-1.3244746 0.036941364 -0.3345361 -0.08891823 -0.5811941 -0.05650333 0.02099691 0.12304877
-0.33975205 -0.01147304 0.31285822 -0.042624608 -0.20836876 0.0036702654 -1.1926368 0.02714188
-1.2983247 -0.33590212 -1.1424654 -0.4544894 -0.14974406 -0.052390426 -0.6250953 -0.157689
-0.41279644 -1.1987293 -0.088399865 0.027334707 -1.0291859 -0.023387467 -0.46190247 0.029640425
-0.17828046 -0.20488188 0.26336697 -0.11815964 -0.055221148 -0.18773237 0.21388924 -1.6633427
-0.09922123 -0.32922316 -0.05977973 0.076732 -1.2478219 0.11378792 -0.58404046 -0.4827674
0.052800722 -0.51618445 -0.042191952 -1.5123492 -0.12544233 -0.0050698733 0.123707324 0.31178933
-0.29309666 -0.020280262 -0.50698316 -0.22553101 0.24578398 -1.3642569 -0.42030874 -0.013014129
-0.17978278 -0.045045722 -0.6294147 -1.2425308 -0.50408703 -0.48740944 0.43338174 0.09604897
-0.5350058 -0.22568777 -0.22971238 -0.59320337 -0.5204594 -0.29380742 -0.035468865 -0.5216956
-0.047474466 -0.5543437 -0.024310024 -0.25480458 -0.82690746 -0.6638217 -1.465979 0.09503749
-0.058167547 0.36727926 -0.110433616 -0.8108091 -0.45037115 0.10267203 0.021250417 -0.47454387
-0.20069903 -0.05983777 -0.63382965 -0.6396242 -0.058334734 0.3289279 0.17562854 -0.64976144

fc3.weight f4 [2, 128]
00000000: 032a 0e40 2bef 9f3f 39cf bb3f fc30 2fbe
00000010: 39fd 303d 2507 893d 7ad5 ae3d 0ce1 6d3e
00000020: 20d8 3c3e 10d5 7f3d 5092 0a3d c0ac b53a
00000030: 9a43 8c40 2d17 8cbd 6500 be3d 6781 81be
00000040: ca95 fb3c 919f 94bc 058b 78be e928 da3d
00000050: a6fc 9dbc a920 5040 285c 8840 31d2 893d
00000060: 811e 92c0 93a7 1d3d b2d6 583f 4ded 133e
00000070: 3e4c a440 fcc3 fa3d 57d9 0e3e b870 22bd
00000080: 081e b3bd 1ef9 183e 98a9 853d 3937 a13d
00000090: 3772 c7bc dd14 da3d fa9b 9cbf 3980 eb3d
000000a0: cb74 7fc0 ffb0 77be 0a46 8ebf 578c 30bd
000000b0: 38a4 36bd ad63 823e 3782 3b3d 5c14 833b
000000c0: 754d 7c3f febe aabe 071d 4840 00c8 373e
000000d0: 85b3 92c0 2e2d c53d 66b0 4640 30d3 243d
000000e0: 3285 e53c 497c eebc b2fd 2abf eb6a 743d
000000f0: f6bf 033e 4975 2abe 181b cd40 1674 8dbe
00000100: c3ad 043e 016c b6bc c376 273e 4edf a840
00000110: b30a 14c0 5e75 40be c56a 0c40 8ef0 bbbe
00000120: c1f4 4d3d c065 be3f 55d5 ad3d eb2a 8140
00000130: 0b60 97bc 638f 5b3d d2ae 5d3e ace7 c6be
00000140: 7ad4 033e 6060 0d3d ae82 89be 5709 0bbf
00000150: 7126 4940 962d 0c40 1c6a 093e 3c79 113e
00000160: 7fbe 013e afca a7bc ec08 57bf eb70 e43f
00000170: 742b edbf 02d7 0540 d95a acbe 2cf7 d4bd
00000180: b69c 8dbf 44f1 07be fa91 cd3e 4c67 b7be
00000190: 4d9a 023d 7fd2 06be 6919 fd3e 1927 173e
000001a0: b8c3 a13d 8a27 7b40 eaac 1d3d a7bf 4d3f
000001b0: d0e5 48c0 0c94 ab40 5419 31c0 6599 0840
000001c0: c901 8e3c 7db8 c1bd 9aa9 9abb a28f 0bbe
000001d0: fdf0 2b40 090a 97be d31c 2a3e 6c5e 02bf
000001e0: 552a 8d3e a682 463c 3e0f c9bf 5637 17bf
000001f0: c12f ebbe eaab 14be c697 3e3f 2cba 7b3f
00000200: 6b23 c23f 767a d03c af34 1bc0 86c7 1ebe
00000210: 815b 9ebc 970c dfbf 6329 843f fc5e 35bf
00000220: 1b73 03bd b967 08be f13c 353f 3dad 193d
00000230: 76d5 903f a05d d0bf f2ed 833c 0c80 c7be
00000240: dc7f 66c0 f971 f9bd 5543 1dc0 ff8e 20bc
00000250: 3500 a13d 7c9a 06bd ee8d 2a3d a4aa 963c
00000260: 94ff 68b9 f57a 5e3d 194b c2bd 0b72 113d
00000270: 06e2 fb3f 05bc 653d de95 6c3a 1d94 62bf
00000280: d8d9 cabe e456 113c 41da 3040 9010 81bc
00000290: 9f99 0e3f 9b2d a33c 0bd9 06bf 867d 0c3c
000002a0: ef0e 363e 2e5d 53be bc85 053d d092 79bf
000002b0: 7808 5a3c 0744 4dbc 4d34 54c0 ac71 dfbe
000002c0: 9623 933e cb36 65c0 05f5 b83f f17c 493a
000002d0: 8dc5 9a3f bec2 b23c eae1 e3bf 9a29 0c3e
000002e0: 2caf 82bf 9f5c 833e b222 4abd 347a 1ebf
000002f0: 57df 923b 38d8 e73e eba8 3940 035c e4c0
00000300: 1185 5cbb 0b35 ab3f c4fa b0bc ebc6 56be
00000310: fabb 3f40 6a38 22c0 ecb6 003f 8cea 21c0
00000320: b9b8 673b 4dee 4c40 5fcb 5abc 31b9 ac3e
00000330: 3afb 1c3d f41b 26bd 13b2 9c3e 3f78 17c0
00000340: cc8b 5dc0 fb44 023d 016b 13bf 1ff7 5dc0
00000350: cab2 97c0 0f0f db3e 8c86 dd3d 8fbc 773c
00000360: 201b 993f 74c9 2e3d 427f 653f 9499 e83e
00000370: 8f4e 043f c7ce 5b3d b8bb 32bd e561 15bf
00000380: 35c7 1840 6a16 73bf 92dd 223f 197b d5bf
00000390: 6689 813f d2cc 38bf 06cc 3940 c584 82bf
000003a0: 235f 563d 5151 60bf a056 373c e4a5 933f
000003b0: a93a f03f a052 8b40 0933 4a40 0f4e 92c0
000003c0: da08 b43c a41a 90c0 47a0 ccbd ecef 82c0
000003d0: 1ed6 7d3d 9b3e 88c0 0385 873c ec52 b9bf
000003e0: a19c 45c0 d30c f93c 2ba8 54bf 5538 6e3f
000003f0: cd6e e03e c281 2440 68eb 0f3d 80d5 893f
2.2213142 1.2494863 1.4672614 -0.1710853 0.043210242 0.06690816 0.08536811 0.2323038
0.1844182 0.06245905 0.03383094 0.0013860688 4.383252 -0.06840358 0.09277419 -0.2529404
0.030711073 -0.018142493 -0.24271782 0.10652334 -0.019285511 3.2519934 4.2612495 0.06729544
-4.5662236 0.03848989 0.847026 0.14445992 5.134307 0.12244412 0.13950096 -0.03965828
-0.087459624 0.1493878 0.06526488 0.07871861 -0.024346454 0.106485106 -1.22351 0.11499066
-3.9915035 -0.24188612 -1.1115124 -0.04310259 -0.044590205 0.25466672 0.04577848 0.0040002298
0.9855569 -0.3334884 3.1267717 0.17947388 -4.584414 0.09627758 3.1045165 0.040240467
0.028017614 -0.029111998 -0.6679336 0.059672277 0.12866196 -0.16646303 6.4095573 -0.2762763
0.1295691 -0.022268297 0.16353898 5.277259 -2.313153 -0.18794772 2.1940167 -0.36706966
0.050282244 1.4874802 0.084879555 4.036489 -0.018478414 0.05360354 0.2164872 -0.38848627
0.12874022 0.03451574 -0.26857513 -0.54311126 3.1429713 2.1902823 0.13419384 0.14206403
0.12670325 -0.02048239 -0.8399799 1.784696 -1.8528886 2.091248 -0.3366306 -0.10398707
-1.1063449 -0.1327563 0.40150434 -0.35820997 0.031885434 -0.13166235 0.4943345 0.14761008
0.078986585 3.9242883 0.03849498 0.80370563 -3.1390266 5.361822 -2.767171 2.1343625
0.017334836 -0.094590165 -0.004719925 -0.1362901 2.6865838 -0.29499844 0.16612558 -0.50925326
0.2757136 0.01211611 -1.5707777 -0.5906881 -0.4593487 -0.14518705 0.7445034 0.9833095
1.5167059 0.025449019 -2.4250906 -0.155058 -0.019330742 -1.7425717 1.032513 -0.7084806
-0.032092195 -0.13320817 0.70796114 0.03751873 1.1315143 -1.6278572 0.016104672 -0.3896488
-3.601554 -0.12179942 -2.4572346 -0.009799718 0.078613676 -0.03286217 0.04163926 0.018391915
-0.00022220454 0.05431648 -0.0948698 0.03550915 1.9678352 0.056087513 0.00090250175 -0.8850725
-0.39619327 0.008870814 2.7633212 -0.015754968 0.5570316 0.019919207 -0.5267493 0.008574849
0.17779134 -0.20641014 0.032598242 -0.97489643 0.013307683 -0.012528426 -3.3156922 -0.43641412
0.28738087 -3.5814693 1.4449774 0.0007686159 1.2091538 0.021821376 -1.7803319 0.13687745
-1.0209708 0.25656602 -0.049349494 -0.6190522 0.0044821906 0.4528215 2.900935 -7.136232
-0.003364865 1.3375562 -0.02160395 -0.20974319 2.9958482 -2.5346932 0.50279117 -2.5299406
0.0035357906 3.2020447 -0.0133541515 0.3373504 0.038325526 -0.040554002 0.3060461 -2.3667142
-3.4616575 0.031804066 -0.5758515 -3.468208 -4.740575 0.42784926 0.108166784 0.0151206395
1.1961403 0.04267259 0.89647305 0.4542967 0.5168237 0.053663995 -0.043636054 -0.583525
2.3871586 -0.94956076 0.6361934 -1.6678191 1.0120056 -0.7218753 2.9030776 -1.0196768
0.052336823 -0.8762408 0.011190087 1.1535001 1.8767902 4.353836 3.159365 -4.5720286
0.021976877 -4.503252 -0.09991508 -4.0917873 0.061971776 -4.2576423 0.016542917 -1.4478431
-3.0876849 0.030401623 -0.83069104 0.93054706 0.43834534 2.5704198 0.03513661 1.076828

fc3.bias f4 [2]
00000000: 6013 d63e 2cb9 6b3e
0.41811657 0.23019856

bn1.weight f4 [24]
00000000: 2b0e c13e 92fe b53e 3dba 6f3e 70ef a03e
00000010: 2e46 cc3f bd49 973f e6a4 aebc 453d 9bbd
00000020: 442a 53bc a7e9 ba3c e207 963e 1563 67be
00000030: 1cb4 f4bc 6ad1 e23e d7bc 883b 72d1 ca3e
00000040: f947 6d3f 894d 2f3f a973 2a3d dc7d 543e
00000050: c7a9 e53f 742b c53f 1ebc da3e 85f2 e03e
0.37706122 0.35545784 0.23410888 0.31432676 1.5958917 1.1819378 -0.021318864 -0.075800456
-0.012888495 0.022816492 0.2930289 -0.2259639 -0.02987104 0.44300395 0.004172902 0.3961292
0.92687947 0.68477684 0.04161421 0.20751137 1.7942437 1.5403886 0.42721647 0.43935028

bn1.bias f4 [24]
00000000: 7a88 91be 741d 083e 3084 b83c 91d0 9fbd
00000010: 048f 4a3f 1549 cd3f bbd8 c83c 5e1d 6cbf
00000020: 6a3f 4abc c79d d63c 4cbe f7bc 5e3c 81bf
00000030: 8695 54bd be8f 3c3f a4dc 573d 77e8 08bf
00000040: 3507 65bc 7b33 9c3e 84c2 a5bb 2b29 09bd
00000050: 2413 6a3e 28af a93f bd27 723d b560 d9bd
-0.28424436 0.13292485 0.02252397 -0.07803453 0.79124475 1.6037928 0.024517408 -0.9223231
-0.012344221 0.026198281 -0.030242108 -1.0096548 -0.05190041 0.73656833 0.052700654 -0.53479713
-0.013978769 0.30508026 -0.0050585885 -0.033486526 0.22858864 1.3256578 0.05911993 -0.106141485

bn1.running_mean f4 [24]
00000000: 177a fcc0 de08 22bf db41 4040 e3a1 f8bd
00000010: 7bb3 c1bc 3938 5a40 db41 4040 e3a1 f8bd
00000020: 8105 fdc0 926d 22bf 753e 4a40 7015 02be
00000030: dfa1 2bbc b7a1 5a40 753e 4a40 7015 02be
00000040: 38fd fdc0 22e3 22bf 2770 4540 179e f3bd
00000050: 26c5 8bbb fbe8 5a40 2770 4540 179e f3bd
-7.8899035 -0.6329478 3.0040195 -0.121402524 -0.023645153 3.4096816 3.0040195 -0.121402524
-7.906922 -0.6344844 3.160062 -0.1270349 -0.010475605 3.4161203 3.160062 -0.1270349
-7.9371605 -0.6362783 3.0849702 -0.118953876 -0.0042654453 3.42047 3.0849702 -0.118953876

bn1.running_var f4 [24]
00000000: 1e1d 6141 8c0b 8a3f cba9 a543 f9e8 6541
00000010: e5f3 cb41 0bd6 3540 cba9 a543 f9e8 6541
00000020: 2151 5f41 d95b 8a3f 1165 a743 4ee0 6441
00000030: d61b cc41 2602 3540 1165 a743 4ee0 6441
00000040: db69 5e41 d552 8b3f 465f a643 db60 6441
00000050: 17da cc41 b36f 3640 465f a643 db60 6441
14.069609 1.0784774 331.3265 14.369378 25.49409 2.8411891 331.3265 14.369378
13.957307 1.080928 334.78958 14.304762 25.513592 2.8282561 334.78958 14.304762
13.900844 1.0884653 332.74432 14.273646 25.60649 2.8505676 332.74432 14.273646
