checkpoint_actor_both05.pth (torch_old, 81931 bytes, 10 tensors)

fc1.weight f4 [128, 24]
00000000: b9b2 2d3f daab c9be 919a f8bd 63cb 813b
00000010: 76ed 87bd 06e2 d63e 32a9 f2bc fbc6 1a3e
00000020: 8f92 263f 5c14 43be 8a2e 213e c05b 78bd
00000030: 25ff 5dbc 365e c1bd 09b5 ab3d 608f 68be
00000040: 2733 1e3f 7825 f2be eb97 a33e cefb 233e
00000050: 68b9 a4bd e4b0 d7be caaf 833e 7898 313d
00000060: d49a a73c 9f12 cc3d 8aa1 d13c 5e4d bb3d
00000070: 8beb b0be 87bf 863d d708 20bc adee 2bbe
00000080: 3f10 a8bd 17f9 c13c 925c 923d eff8 43be
00000090: dc86 d9bd 75c5 73be f1f3 3ebd 4633 53be
000000a0: b464 5cbe 209a 003c 4287 343b 3faa 46be
000000b0: 454e b83e 6793 d6be a2ac b9bc 1524 1cbe
000000c0: 728d bf3e d1d7 bebe 57cc 5f3d 4ee6 8b3e
000000d0: b8e3 c2be 766c 06bc 85e7 19be 1230 a13e
000000e0: 74a5 cd3e d1f4 cdbe f6dd cd3d d69c 7a3e
000000f0: 2fe0 e8be d186 f03d 643c 103e 88db 2d3e
00000100: 0f27 013f ec1f 13bf 1c0e e03c c52c d8bd
00000110: 98be 0ebf 518d 8b3d 2378 eb3d bc89 f4bc
00000120: 45df 8d3e 7bea 223f 2aa9 6c3e db82 803e
00000130: e6f1 d1bc afda 453e a65f 253d 17d2 9b3e
00000140: 4885 be3d 7f96 003f 4468 4d3e 7c9a 293d
00000150: 7e4b 09be 218f 2b3e aa67 1c3e 712f 20be
00000160: 2627 e83b 4ee2 b03e 420e 25be 7209 1bbd
00000170: 3f28 89bd 96b8 61be edff a7bb 855f 233d
00000180: 9aad 5abd abc3 dabe f529 59be 4509 0d3e
00000190: d53d 193e 2484 7c3e d9e7 8abe e4c1 c4bc
000001a0: ba23 693d 6fcd afbe c7a9 25bd 215f 3b3d
000001b0: 884a c13d b00c 87bd fc3f c63d 2383 ca3d
000001c0: 174c a03e 89b7 98be 1394 2d3e 4be4 173e
000001d0: e72a 10be c2e9 913b 2664 f63d e594 443e
000001e0: ff49 20be b0f6 09bf e0b0 f43d fb70 0f3d
000001f0: 21f3 cfbd 09c7 3cbe 12c9 1e3e ebda fa3d
00000200: dab5 3b3e 0392 bdbe 1ce4 06be 6333 f13b
00000210: 82e2 183c 13f9 853d afb4 2e3d c9ff 8d3b
00000220: 8c34 eb3e 6de4 c4be 6be3 c13c 0a42 313e
00000230: 0a85 a9bd ffa6 a33e bc76 b9bd f614 463e
00000240: d305 1b3e 1879 623e ebba e4bd f5a4 513e
00000250: 3480 083f 8649 803e 427e e7bd 1cd3 813e
00000260: 23a3 bfba 0628 0d3f 75df 503e 4c2c 813e
00000270: a911 a83e adc6 8a3e ca39 563e 1e71 bf3d
00000280: 67e7 9bbe b0f9 823e f89a 95bd 12f1 09be
00000290: d0f3 c43e 1635 503e 38fd 883d 5894 30be
000002a0: 8bf8 a33e c2e5 e8bb 366c a83e dc8f 323f
000002b0: ef0c 5a3e f507 f83d 81fd 243e 5786 2f3f
000002c0: a5a4 cd3d fd73 c73d 64ce 9a3e c91f 243f
000002d0: b07a a53d 53ff 93bd ef9b 623e e11c e03e
000002e0: 6666 753e 24b7 e23d 3085 cf3d 9672 bc3d
000002f0: 61c3 db3d 33c2 c6be 5698 583e e948 2b3e
00000300: 9da7 3f3e dc64 aa3e 0d64 9cbc 7c71 9f3e
00000310: ef6d 513e 8e21 a93e 8538 a83a eb4c dc3c
00000320: bd0a f93d 182e c13e 5835 803e 90b1 3e3e
00000330: a308 983d c9aa e53e fa13 983e 3706 203e
00000340: d2de b3be 7117 663e 33c2 08be 4c26 4f3d
00000350: 49a1 0a3e 5b17 2c3f bf95 95bd 5f1a 183e
00000360: bbe1 d13d 11ca 80bd 9756 0f3e ed6c e53e
00000370: c78c 983d b788 26be 8908 773d 4758 ed3d
00000380: 5dff 283e 6aa3 bbbd 084c a83d 00b2 573e
00000390: 33e9 953e 2918 ea3d 7786 073e 6947 d43e
000003a0: 98e1 b93e e9a8 c5bd 8a52 9dbd ba00 bfbd
000003b0: f739 2d3e 5107 053f 2598 b53c 7c89 4c3c
000003c0: 3574 e6bd 4080 e4be ed2b dfbb 5264 2f3e
000003d0: 988a 8ebe 23a3 343e e98d 293d 067a 84bc
000003e0: 2071 e23c 3ff9 a7be 86b5 153d 865f 8fbc
000003f0: d008 863c 1d88 953c 2c87 e53a f7e1 5b3e
0.67850834 -0.39388925 -0.12138856 0.003961013 -0.06637089 0.41969317 -0.029621694 0.15114968
0.6506738 -0.19050735 0.1574041 -0.060634375 -0.013549601 -0.094417974 0.08384139 -0.22710943
0.617968 -0.4729421 0.31951842 0.16014025 -0.08043176 -0.42127144 0.25720054 0.043358296
0.02045957 0.09964489 0.025589723 0.09145616 -0.34554705 0.065795 -0.009767733 -0.16790266
-0.08206224 0.023678346 0.07146563 -0.1913793 -0.106214255 -0.23805793 -0.04661936 -0.20625028
-0.2152279 0.007849246 0.002754644 -0.19400881 0.35997215 -0.41909334 -0.022665326 -0.15248139
0.37412602 -0.3727403 0.054638233 0.27324146 -0.3806436 -0.00820457 -0.15029724 0.31481987
0.40165293 -0.40225843 0.10052101 0.2447389 -0.45483539 0.11744464 0.14085537 0.16978276
0.50450224 -0.57470584 0.027350478 -0.10555414 -0.55759573 0.06814063 0.11497524 -0.029850833
0.27709404 0.6363904 0.23111406 0.25099835 -0.025628041 0.19321702 0.04037442 0.30433723
0.09302765 0.5022964 0.20059305 0.041407093 -0.13407704 0.16753818 0.1527392 -0.15643097
0.007084745 0.34547657 -0.1611872 -0.037850805 -0.066971295 -0.2204307 -0.0051269443 0.039886016
-0.053388216 -0.42727408 -0.21207412 0.13773067 0.14964993 0.24659783 -0.2713001 -0.024018236
0.056918837 -0.3433642 -0.040445115 0.04574502 0.09438044 -0.06594217 0.09680173 0.098882936
0.31308052 -0.29827526 0.16951017 0.1483318 -0.14078866 0.004452915 0.120308205 0.19197424
-0.15653227 -0.5389204 0.11947799 0.035019856 -0.10153795 -0.18435301 0.1550639 0.122487865
0.1833109 -0.3702546 -0.13172954 0.007360862 0.009331347 0.06541648 0.042652782 0.0043334705
0.45938528 -0.38455525 0.023668012 0.17310348 -0.08277328 0.31963345 -0.0905585 0.19343933
0.1513894 0.22116506 -0.11168464 0.20473082 0.5332062 0.25056094 -0.11303379 0.25356376
-0.0014620762 0.55139196 0.20397742 0.25229108 0.32825974 0.27104703 0.20920482 0.09347747
-0.30449983 0.2558112 -0.073049486 -0.13470867 0.38467264 0.2033275 0.06688923 -0.17244089
0.3202556 -0.0071074674 0.32895058 0.6975076 0.21293996 0.12110893 0.16112329 0.6856436
0.10041169 0.0973892 0.3023559 0.64111 0.080800414 -0.072264336 0.22129796 0.43772033
0.23964843 0.110700876 0.101328254 0.09201543 0.10730625 -0.38820037 0.21151862 0.16727032
0.18716283 0.33280075 -0.019090677 0.3114127 0.20452093 0.33033413 0.0012834227 0.026892146
0.12160251 0.3773048 0.25040698 0.18622422 0.07423522 0.4485686 0.2970274 0.15627371
-0.35130936 0.2246988 -0.13355331 0.050573632 0.13538088 0.6722314 -0.073039524 0.1485381
0.10248133 -0.06288541 0.13997875 0.44809666 0.07448726 -0.1626309 0.060310874 0.11589103
0.16503663 -0.09162028 0.08217627 0.21063995 0.2927948 0.114303894 0.13234888 0.41460732
0.36304927 -0.09651358 -0.07681759 -0.093263105 0.16916643 0.5196429 0.022167275 0.012483951
-0.112526335 -0.44629097 -0.0068106563 0.17128113 -0.27840114 0.17640357 0.0413951 -0.016171467
0.027641833 -0.32807347 0.036550067 -0.017501604 0.016361624 0.01825338 0.0017511598 0.21472917

fc1.bias f4 [128]
00000000: 29e9 b43c ea4a 6d3e 57be 98be eac6 d2be
00000010: 00bd b43e d9b1 003e 8e89 ebbe 904b 19bf
00000020: 69a5 9bbe fa4c 4b3d c5bf 933e 3d09 54be
00000030: fd76 d1bd 5568 aebe 5a52 14bd d689 85be
00000040: 247f 85be 7ebd 0ebd c6e5 0bbe 854e 993e
00000050: 8f03 aabe 9c83 66bd 57cf c9be 6b15 86be
00000060: 3d3c abbe e632 9f3e 425f 85be e101 debd
00000070: 037f dfbe 2602 60be ba0a 4c3e bf8a 2abe
00000080: 959a 663d d588 f6be 4fd0 c4be 7fe2 6c3d
00000090: 6753 693d 269d 493d 748a 11be 7c4f 92bd
000000a0: a300 c9be 1b34 a0be 023d 94be 4213 1fbe
000000b0: ceb4 b7be 67c4 a7be 2c72 013e a6d9 1fbe
000000c0: ed85 0d3e 6ffc 5abe 20a0 aabe 5ac3 debe
000000d0: 298a 63be b2f0 b1be 86f2 63be eaa7 a73c
000000e0: 6131 f2bc 5fea 7e3c 992d 14bd 1c2a 523d
000000f0: 12e0 393e 4040 61bd 4914 96bd 2ea2 bf3e
00000100: d196 e8bb a1d9 7bbe e6c1 efbe 7004 cbbe
00000110: abdd 6abe 463d 5d3e 1a29 70bd 2e7b d9bd
00000120: 18b0 48be 0e75 2cbc d4f1 9abe f690 86bd
00000130: 36b7 a1be db93 6abe 2dd6 33be 6de5 37be
00000140: e9eb 90be 6cae 69be 344a 11be 0bc5 6ebe
00000150: c747 00be dbed 91be 916b a1be f2d5 6bbe
00000160: c025 dd3e 9fa2 5a3e 5dd9 8bbe 314d 66bb
00000170: 411e e3be f498 933e 3fa5 02be 12f1 7abd
00000180: 2aae 1abe 71f9 93be a0d4 06be 15b2 733e
00000190: ee45 47be 10b3 96bd 825d 1f3e d703 babc
000001a0: ac9e 8ebd c21d 6d3e b435 15be 03a1 37bf
000001b0: c8c0 453e dfb9 9dbd 5320 aebe 9aca 97be
000001c0: 1756 18be b8d6 623d ec62 91be 4001 adbe
000001d0: 9080 4fbe 4657 63bd ee26 2fbe ed30 82be
000001e0: 3e42 c73d 0d5e 7b3e cc32 d2bd bde0 4ebe
000001f0: 8455 53be cdd7 18bd 4a6f 14bf 31d1 28bf
0.022083836 0.23173109 -0.29832718 -0.41167384 0.35300446 0.12567843 -0.46003383 -0.59880924
-0.30399635 0.049633957 0.28857246 -0.20706649 -0.10227773 -0.34063974 -0.03621135 -0.26081723
-0.26073563 -0.034848683 -0.1366187 0.29942718 -0.3320584 -0.056277856 -0.39416 -0.26188216
-0.33444396 0.3109352 -0.26049238 -0.10840202 -0.4365159 -0.2187582 0.19925967 -0.1665449
0.056299765 -0.4815127 -0.38440177 0.05783319 0.056964304 0.049222134 -0.14212972 -0.07144067
-0.39258298 -0.31289753 -0.28952795 -0.1553469 -0.3588013 -0.3276703 0.1264121 -0.1561037
0.1382062 -0.21385358 -0.3332529 -0.43508416 -0.22220673 -0.34753948 -0.22260484 0.02046581
-0.029564561 0.015558808 -0.036176298 0.05130969 0.18151882 -0.054992914 -0.07328088 0.3742842
-0.007098057 -0.24594738 -0.4682762 -0.39651823 -0.22936122 0.21605405 -0.058632948 -0.10619198
-0.19598424 -0.010525955 -0.30262625 -0.06570618 -0.3158509 -0.22907965 -0.1756217 -0.17958613
-0.28304985 -0.22820443 -0.14188462 -0.23317353 -0.12527381 -0.28501782 -0.3152738 -0.23030832
0.43192863 0.21351098 -0.27314273 -0.0035141225 -0.4435902 0.2882763 -0.12758349 -0.06126506
-0.15105501 -0.28901246 -0.13167048 0.23798402 -0.1946027 -0.07358372 0.15563014 -0.02270691
-0.06963858 0.23155883 -0.14571267 -0.7173006 0.19311821 -0.07701468 -0.34009036 -0.2964676
-0.1487659 0.055380553 -0.28395784 -0.33790016 -0.20263886 -0.055503152 -0.17104694 -0.25427952
0.097294316 0.24547596 -0.10263595 -0.20202918 -0.2063809 -0.03731518 -0.57982314 -0.659442

fc2.weight f4 [128, 128]
00000000: 2a26 38bc 32bc 46bd 3cb6 19be a14d 6bbe
00000010: 1bce ed3c 304e 97bd 4a69 f6bd fd3a d7bd
00000020: 8cf9 0ebe b283 4b3d 0147 b0bd cd1d 05bd
00000030: 08b4 d8bc d211 91bd 2f41 973d 0d3b f4bd
00000040: c2d4 4cbe 5d96 25be a8ad 41bc 9a9d 6dbd
00000050: 0558 c73a 3da7 abbd ca21 94bd 364a 67bc
00000060: c408 6cbe d516 69be eeae 42be d95a f9bc
00000070: a3ff 47be 62df 1fbe 7543 3cbd 9c6c 29be
00000080: fae8 9bbd 6aa6 95bd 53ad 3bbe 4646 01bd
00000090: 6675 ec3d 13d6 b0bd 13bb 2f3d f436 a4bd
000000a0: e418 b3bd 8bfd 22bd 2402 be3d b9cf 8cbe
000000b0: 74e3 fa3c 2044 c8bd 5c56 9b3d 1b5a 2fbe
000000c0: 5c24 a0bd bc2d 00be f3a6 fabd 3bcf 11be
000000d0: b51d 25bc a560 2fbe cb3d 5fbe ce6c 543d
000000e0: acaf 43bc c7ab 1bbe 4e1f 0a3e df1b 2abd
000000f0: 85c3 073d 510d a43d f3af 0abd 20ca 7e3d
00000100: 788a 21be e321 35be 0a3b 25be e153 3abd
00000110: 7e8e a0be d7bc f43c 06c0 4c3d faed 14bd
00000120: 13eb 6fbe 30ff 3cbe 1d64 cbbc 6684 313d
00000130: 731a d5bd 0d92 9abd fbf0 62bc 5909 10be
00000140: 6da2 39be c28e 5fbe c97b 8abe a81b 01be
00000150: fbee 0dbe ba90 863d 1382 6d3c afff 2c3d
00000160: 6307 0cbe e2aa 3dbd 860e 90be 3b06 79bc
00000170: f750 2abe 3665 03ba 64f0 c1bd 1f84 2bbe
00000180: 1eea 833c c44d 06be 68a3 dcbd 5075 17bd
00000190: 591a ffbc 8228 273e 0852 f03c 6c7c 003e
000001a0: 8660 2cbe 15d7 0d3d 0d19 14be 78c2 aa39
000001b0: c001 a53c 96c1 9cbd 5777 d1bd 86a8 8dbc
000001c0: 0f0d 9dbd 32c5 dcbd 29ea 71bd c093 cebd
000001d0: 9579 79be f411 63be dc43 1bbe e5d0 21be
000001e0: 0b79 3ebd cb54 2cbd 101e 3abd ea52 68bd
000001f0: 3617 01bd feee c8be 8fda 5fbd ac83 b8bd
00000200: 387d d3bc 299a 573d 738b ef3c 916e 9a3b
00000210: f83f f5bc ec07 81be 8a4c 863d abe4 673e
00000220: 301c 803e cc3f 49be ffc8 82be e071 bfbc
00000230: 0907 563e 5c61 293e 0711 a4be b22f 14bd
00000240: becb 8abd f04a aabc 7b05 7cbe 2ae7 10bf
00000250: ec1f 1bbd 626f 8ebe 5ae4 8abe 051d 323e
00000260: b21a 1a3e 5ae4 a1bd e84c d9bd c97c c03e
00000270: 5fc9 f7be cc67 3fbe 159a 19bf 4e35 15be
00000280: 01f4 14bd 077c 023f 5c78 cfbe e485 a13d
00000290: c687 d539 c3ff 6a3d df92 42bf 158c 09be
000002a0: 9c23 c0bd a487 243e 4adf 86be bb38 1ebe
000002b0: f221 4f3e 3f69 06bf 01dc b23c 9448 a83d
000002c0: dc55 87bd cf35 c2bd d5f8 df3c 556f 8bbe
000002d0: 007f c73e 7d30 24be 6122 133d fcea 003e
000002e0: f8a7 ed3d d4fd 8a3e a672 193e 87b4 30bf
000002f0: e3ea 4fbe cde3 103e 3a39 8c3e 1cff 2cbd
00000300: 8779 8b3e 0e2b 92bd e58e af3e c831 86be
00000310: 03fc 42be 18da b2bc c5e5 6e3e 162e 9ebc
00000320: 15c4 2ebe 3962 dcbc a6b6 b6be f5d4 bcbe
00000330: 6254 a6be 719e 0dbf 6c37 79be 2a4d eabe
00000340: 5414 f93d 7658 a33e b42c eabd a140 b2bf
00000350: 2d01 d03d 5522 da3d eecd be3e 8c48 613e
00000360: ef06 c9be cb3a 77bd ebb1 c23e 805f a8be
00000370: 8ee9 013e e243 76be cc83 2abd 19d7 c8bc
00000380: 35f1 fbbd ce43 5f3e 32e2 833e ae0b cbbe
00000390: 5a51 04be cb0f 833e b8d0 833e d22c bfbc
000003a0: 0fb8 f1be e035 a0be 7169 8cbe cc56 e33e
000003b0: b0dd a8be ca74 84bd 2936 953c 52db 59bb
000003c0: 20ca 67be c8f3 cc3e 5641 fd3e 0ddc 14be
000003d0: 14c0 02be 735f c53d 91dd 4a3e 880d fe3d
000003e0: 1ae6 553d 147d e2be 9be8 c03d 9975 c8bd
000003f0: d26c 363e 7efd cd3e b64f 413c ecfa 01bf
-0.011239568 -0.04851932 -0.15010923 -0.22978832 0.029028943 -0.0738796 -0.12031801 -0.10509298
-0.13962382 0.04968614 -0.08607293 -0.032499123 -0.026453033 -0.07083477 0.0738548 -0.119253255
-0.20003036 -0.1617064 -0.011821188 -0.05801163 0.0015208727 -0.083815075 -0.07233007 -0.014116814
-0.23050219 -0.22762616 -0.19012043 -0.030438827 -0.19531111 -0.15612558 -0.04596277 -0.16545337
-0.07612796 -0.073071316 -0.18327837 -0.03156116 0.115458295 -0.086345814 0.042903017 -0.08018294
-0.08744982 -0.03979258 0.09277752 -0.2750223 0.030626036 -0.09778619 0.07584831 -0.17124216
-0.07819435 -0.12517446 -0.12238874 -0.14239208 -0.0100778835 -0.1712671 -0.21800916 0.051861577
-0.011943739 -0.15202247 0.13488504 -0.041530486 0.033145446 0.080103524 -0.033859205 0.06220448
-0.15775478 -0.17688708 -0.16135803 -0.04549015 -0.31358713 0.029875202 0.049987815 -0.036359765
-0.23429517 -0.18456721 -0.024828011 0.043339156 -0.104054354 -0.07547388 -0.0138513995 -0.14066066
-0.18128367 -0.21831802 -0.27047566 -0.12608206 -0.13860695 0.06570573 0.014496344 0.042236026
-0.13674693 -0.046305545 -0.2813608 -0.015199239 -0.16632448 -0.0005012335 -0.09469679 -0.16749619
0.016102847 -0.13115603 -0.10773355 -0.036977112 -0.031140493 0.16324046 0.02933599 0.12547463
-0.16833696 0.034628946 -0.14462681 0.00032569817 0.020142436 -0.07654111 -0.102278404 -0.017292272
-0.07668506 -0.107797995 -0.059061203 -0.10086775 -0.24362786 -0.22174817 -0.15162605 -0.15802343
-0.046502154 -0.042073052 -0.045438826 -0.056719698 -0.031516276 -0.39244837 -0.054651793 -0.090094894
-0.025816545 0.052637253 0.0292413 0.0047128876 -0.02993773 -0.25201356 0.065575674 0.22645824
0.25021505 -0.19653243 -0.25543973 -0.02336973 0.20901121 0.16541046 -0.3204424 -0.0361783
-0.06777142 -0.020787686 -0.24611466 -0.5660273 -0.03787224 -0.27819353 -0.27127343 0.17393883
0.15049246 -0.07904883 -0.10610372 0.37595204 -0.4839582 -0.18691939 -0.60000736 -0.14571115
-0.036365513 0.509705 -0.40521514 0.07886866 0.00040727685 0.05737282 -0.7600536 -0.13432343
-0.09381792 0.16067368 -0.2634223 -0.15451328 0.20227793 -0.5250434 0.021833422 0.08216968
-0.06608173 -0.094829194 0.027340332 -0.27233377 0.3896408 -0.16034122 0.03592146 0.1258964
0.11604303 0.2714678 0.14985141 -0.6902546 -0.20304446 0.14149399 0.2738741 -0.04223548
0.27241156 -0.07137118 0.34288707 -0.26209855 -0.19041447 -0.02183251 0.23329838 -0.019309085
-0.17066987 -0.026902305 -0.35686225 -0.36881223 -0.32486254 -0.5531989 -0.24337548 -0.45761997
0.121620804 0.31903428 -0.11434308 -1.3925973 0.10156474 0.106510796 0.37266487 0.2200033
-0.39263102 -0.060358804 0.38026366 -0.3288536 0.1268675 -0.24049333 -0.041629598 -0.024516629
-0.12301866 0.21803209 0.2575851 -0.39657348 -0.12921658 0.25597987 0.25745177 -0.023336802
-0.47210738 -0.31291103 -0.27424195 0.44402158 -0.32981634 -0.06467588 0.018214302 -0.0033242297
-0.22635698 0.4002974 0.4946391 -0.14537068 -0.12768584 0.09637346 0.19811083 0.12404925
0.052221395 -0.44236052 0.09419366 -0.09788055 0.17814949 0.40232462 0.01179879 -0.507735

fc2.bias f4 [128]
00000000: 50d2 943d 232a 1e3c 62bf 463e 32b9 d4bd
00000010: 4a63 58bc 4781 8abe e58e 403b 61a6 c7bb
00000020: a195 9a3d 3b60 45bd deb6 6b3d 93fb 39bd
00000030: f0f9 1ebe 35ac 81bd 2a0f fa3c 48c9 003c
00000040: 24fb 1ebe bcd5 c2bd 439d 8abc de86 69bc
00000050: 3a48 493d b45d a4be bc07 aabe 502e 233c
00000060: b4a2 81be 8348 893d 0c95 81be 3b3f 29bd
00000070: 278d 563d a009 973c eb93 c13c c0f8 da3d
00000080: 6ae7 bcbd 69ec e0bb 58df 473b 284b a63a
00000090: 58b8 e5bd d200 073d 9b9d e4bd a658 de3c
000000a0: f3ce 91be 71ac 85be a22c 9dbe f4e9 bbbd
000000b0: fdda 0bbe 5897 56bd fc0a 17be 0b2f 86be
000000c0: ed92 19be 8773 42bd b705 e9bd efec df3c
000000d0: dc2b d0bd ff0e 803c 28a3 95bd 7cc8 833d
000000e0: 7436 babd b7cd 5c3e a29a d9bd 8559 80be
000000f0: 4002 f2bc ee3e 95bc ae16 7c3d 99a7 5abe
00000100: 9f71 b1bd 1196 c2bd e006 06bd b721 94bd
00000110: e162 5bbe 6fbb 273d f97a adbe c66f 95bd
00000120: 91b1 9c3d dd79 4bbe 4822 44bc 7de0 f43c
00000130: 5564 9abd 0c9e a03d 0736 26be 46a0 1dbe
00000140: 7265 69be d7a4 df3b 6bf2 82be 80bb 74bc
00000150: 8c59 0a3d d89b 5ebe ebc4 18be 3739 55bc
00000160: 9472 d03b 2a66 1fbb 1103 27be b34b 8cbe
00000170: 605b 0d3c 3f75 0e3d 52b7 343d 6d6d a63c
00000180: fe68 8dbc 1b03 22be 4ab2 b73d b89d d4bd
00000190: 179a 7b3d cec9 b9bc 0203 123d 5c9a 0cbd
000001a0: 460d 263d d966 84bc 530f 723a 39d9 f9bd
000001b0: 6566 02be 0973 54be a928 09be 6f18 2cbd
000001c0: b65c 1cbd dc2f 64bd f473 b4bd c9be adbe
000001d0: 82b0 cabd bfe5 1e3e 86ac 3e3d d5df 7fbe
000001e0: 6615 a93d b694 cebc ef60 19bb f4d1 573d
000001f0: 16a9 4abd 21c8 a33d 9326 3d3e 908c 8bbe
0.072666764 0.009653601 0.19408944 -0.10386886 -0.013207266 -0.27051756 0.0029382047 -0.006092832
0.07548071 -0.048187476 0.057547443 -0.045405935 -0.15525031 -0.06331674 0.030524809 0.007860489
-0.1552549 -0.09513423 -0.016920691 -0.014253346 0.049141146 -0.3210274 -0.33209026 0.009959772
-0.25319445 0.06703284 -0.25309026 -0.041320067 0.052380707 0.018437207 0.023630103 0.106919765
-0.09223826 -0.00686412 0.0030498113 0.0012687193 -0.112168014 0.032959767 -0.11162873 0.02714188
-0.28478202 -0.26108125 -0.30698115 -0.091754824 -0.13657756 -0.052390426 -0.14750284 -0.26207766
-0.14997454 -0.047473457 -0.11378043 0.027334658 -0.101646155 0.01563215 -0.0730651 0.06434724
-0.09092417 0.21562849 -0.10625197 -0.25068298 -0.029542089 -0.018218484 0.061545067 -0.21352996
-0.0866425 -0.09501279 -0.0327214 -0.07232993 -0.21424438 0.040950235 -0.33882883 -0.0729671
0.076510556 -0.19870706 -0.011971064 0.0298922 -0.07538668 0.07842645 -0.16231547 -0.1539317
-0.22792605 0.0068250704 -0.25575575 -0.014937282 0.033776805 -0.21739137 -0.14918868 -0.013014129
0.006361315 -0.002432237 -0.16309763 -0.27401504 0.0086277425 0.034779783 0.04412014 0.02031585
-0.017261978 -0.15821497 0.08969553 -0.10381645 0.06142625 -0.022679236 0.0356474 -0.034326896
0.040540002 -0.016162323 0.0009233851 -0.12199635 -0.12734373 -0.20747007 -0.13394417 -0.04201549
-0.038174354 -0.055709705 -0.08811179 -0.3393462 -0.098969474 0.15517329 0.04655125 -0.24987729
0.082560346 -0.025217395 -0.0023403724 0.05269046 -0.04947766 0.07997156 0.18471746 -0.27255678

fc3.weight f4 [2, 128]
00000000: af77 ef3d 7de9 663e a5e5 8fbf 1f87 09be
00000010: 981a 4a3d 6365 b93f 048b 7b3e 94d9 bd3d
00000020: ca64 b43a 0388 303e 141d 263d f47c a0bc
00000030: 2ae2 9a3e 313b a8be ce73 c93d 1e6c 29bb
00000040: 2e22 a53d d232 cc3c df2a 3cbe 6a8a dc3d
00000050: eb08 883d 1e68 0340 2e94 3f3f 31d2 893d
00000060: a153 a0bf 8883 4c3d 6c4c 613f f3fd 333e
00000070: 7dd4 263e 976d c03e b9f5 0e3e 33d4 f0be
00000080: ec48 d2be c016 1c3e eba6 3c3e 27cf e53d
00000090: 9818 96bc 6e35 013e bcbb 30bf 3980 eb3d
000000a0: 84dd c0bf 8557 19be 26f5 0bbf 4368 933b
000000b0: 7f1a 57bd ad63 823e e79e 2abe ee2c c03c
000000c0: fb63 3f3f c09f a7bd 1ff3 493e 00c8 373e
000000d0: dbb1 19bf 6cd5 643c d0c7 453f 6a32 983d
000000e0: 2fd4 73bd d779 33bd 7c73 8fbe 82fc 123f
000000f0: 397f 0b3e 3124 233b b05c 5f3f cbe3 a23f
00000100: 8ed5 153e 308e c3bc f316 2a3e 1a45 f33d
00000110: 229b b0be 83d2 7c3e d8fd 053f 09ce 1ebd
00000120: f8a7 6d3d ddf7 803e c30b 503d ff0f a23f
00000130: 3c17 a8bc 8975 793d e89f 103c b45d ee3d
00000140: f603 933c a5b3 403d 5fc9 53bf 2162 b43d
00000150: 39bb 713e 2c1e cd3f 6b4f ab3e 3c79 113e
00000160: ac41 c43e 78e5 1fbd 36dc 8d3c 83a6 2a3f
00000170: b737 d6bb 8bb8 273f a7a2 9cbe 9c7c c13c
00000180: b1cd 8dbc 9553 79be a52f d7bc 5471 7abe
00000190: 7a2b 1d3e 05f2 20be 4851 f83e 8bef 763e
000001a0: fe3b 753d deb0 943e 96b1 523d ff54 8a3e
000001b0: 5094 1ebf 8353 6e3f 8357 0dbf c6b8 2f3e
000001c0: b289 a23c 79ec 0a3e b18e 343c 840f 29bf
000001d0: b099 0240 aa00 b3bd 3539 2f3e c053 d5bd
000001e0: 48c0 563c 8092 2d3d 5c92 1fbe 52d8 cb3d
000001f0: ebcf df3d f18a 813d 1140 373e d010 903e
00000200: 1e8e af3c 8eee bf3e a5be 66bf b48f a43d
00000210: 6f76 97bc 45de b03c e22e 7fbd 3c27 0a3e
00000220: 6ff8 333e 53f5 503b bf37 313c 36ad 193d
00000230: de12 a63e 8760 02c0 d2d1 843c d25a 63be
00000240: 32ab c3bf a131 11be 5974 3ac0 e789 9c3b
00000250: 0d2f 493c 0d3e 21bd 7375 b1bc a4aa 963c
00000260: 91e5 c1be c88d 223c 8945 c2bd 9f10 a93c
00000270: 6026 a8bc a190 113e de95 6c3a 787c 9d3a
00000280: fbc0 87be 5751 133c b87c f63d d925 82bc
00000290: 299f b53e 95c6 a33c d13b 1cbe 867d 0c3c
000002a0: 2340 44bd f995 57bd e714 a6be 1523 803b
000002b0: 20d6 273c 0744 4dbc 3f7c 08c0 037e 69bf
000002c0: 5be7 9a3e 4af9 07c0 67a5 85bd 9842 4c3a
000002d0: adbb afbf 7fb9 713c 2081 afbd abd7 0b3e
000002e0: 12a1 4fbf bba8 9d3e e29b 6ebb 4029 eb3d
000002f0: 57df 923b 3a49 4d3e 2a74 77bb 8a76 443e
00000300: 45c1 a4bb 7f2e ee3c eee1 96bc 88e3 273c
00000310: 43b3 41bf 7b7f 8bbe d923 8ebc 0396 83bf
00000320: 5711 433b 45e4 683e a54f 963c 78d2 b93c
00000330: 2d7c 483d 8b61 683c 6c27 61bf 89b2 dbbe
00000340: 30c1 c0bf 224e dd3c f738 09be b6eb 61bf
00000350: 1cc6 bbbe 7d85 7b3e 2fdd 25be 8fbc 773c
00000360: 7f15 4cbe 48a0 823d d1d4 ca3e 5b4b b63e
00000370: 6b2c 1e3c aff7 e9be 13a0 1d3c c9ed 8f3d
00000380: 7cdd 763d 05db 74be 3a8b 46be d75b fe3d
00000390: f62e 2e3f 0094 073e 863c ca3d 8fed 953c
000003a0: 757f 4c3e 90d4 d1bd a027 2d3c afc4 463e
000003b0: 40f9 6e3e 9473 313d 2c2b 2cbd ece4 bebc
000003c0: 9268 b43c 480d babf 8fde e3bd 681d ecbd
000003d0: 7ec5 55be e856 1dc0 0385 873c bafd 6fbf
000003e0: ffad 3bbe 61a8 ec3c e639 a13e 505e 163e
000003f0: 5358 113e 2312 523c e1cf e3bd bbdc c2bd
0.1169275 0.22550006 -1.1241957 -0.13430451 0.049341768 1.4484066 0.24564749 0.09270015
0.0013762948 0.17239384 0.040555075 -0.019590832 0.30250674 -0.3285766 0.09836541 -0.0025851796
0.0806316 0.024926577 -0.18375729 0.10768588 0.06642326 2.0532298 0.7483548 0.06729544
-1.2525522 0.049930125 0.88007236 0.17577343 0.16291995 0.3758361 0.13960923 -0.47036895
-0.4107126 0.15243053 0.18423049 0.11221152 -0.018322274 0.12618038 -0.6903646 0.11499066
-1.5067601 -0.14974792 -0.5467094 0.004498513 -0.052515503 0.25466672 -0.16662179 0.023458924
0.74761933 -0.08184767 0.1972165 0.17947388 -0.6003701 0.013966899 0.77258015 0.07431491
-0.059528526 -0.043817367 -0.28017795 0.57416546 0.1362275 0.0024893398 0.87250805 1.2725767
0.14632246 -0.023871511 0.16610317 0.118784145 -0.34493357 0.24689679 0.5234046 -0.03877071
0.058021516 0.25189105 0.050792467 1.2661132 -0.020518892 0.060903106 0.008827187 0.11638966
0.017946225 0.047046322 -0.8272914 0.08807779 0.23606576 1.6024833 0.3345903 0.14206403
0.38331354 -0.039037198 0.017316919 0.66660327 -0.0065374034 0.65515965 -0.30592844 0.023618989
-0.017309995 -0.2434829 -0.026267836 -0.24457294 0.15348616 -0.15717323 0.48499513 0.24114816
0.059871666 0.2904119 0.05143889 0.27017972 -0.61945057 0.9309618 -0.5521166 0.17160329
0.019841049 0.1356677 0.011020348 -0.660393 2.0406303 -0.08740361 0.17111667 -0.10416365
0.013107367 0.04237604 -0.15583175 0.09953369 0.10928329 0.06325329 0.17895533 0.28137827
0.021430071 0.3748669 -0.9013465 0.08035222 -0.01848909 0.021590361 -0.06230057 0.13491529
0.17575239 0.0031884506 0.010816514 0.037518702 0.3243627 -2.0371416 0.016213331 -0.22202614
-1.528662 -0.14179088 -2.9133513 0.0047771814 0.012279284 -0.039365817 -0.02166245 0.018391915
-0.37870458 0.009921499 -0.09485919 0.020637808 -0.020526111 0.14215328 0.00090250175 0.0012015244
-0.2651442 0.008991561 0.12035507 -0.015887188 0.35472992 0.019992152 -0.15257193 0.008574849
-0.047912728 -0.05263326 -0.32437822 0.003910432 0.0102439225 -0.012528426 -2.1325834 -0.91207904
0.30254635 -2.1245904 -0.065256886 0.00077919057 -1.3729149 0.014753698 -0.085695505 0.1365649
-0.8110515 0.30792794 -0.0036408831 0.11482477 0.0044821906 0.20047465 -0.0037758448 0.19185844
-0.0050279223 0.029074905 -0.018418279 0.010247119 -0.75664157 -0.27245697 -0.017351078 -1.0280155
0.0029764974 0.22743328 0.018348524 0.022683367 0.04894655 0.014183412 -0.8795078 -0.4290965
-1.5058956 0.027014796 -0.13400637 -0.8825029 -0.36674583 0.2456264 -0.16197656 0.0151206395
-0.19930075 0.063782275 0.3961549 0.35604367 0.009654145 -0.4569678 0.009620684 0.07027776
0.060269818 -0.23911674 -0.19389048 0.12419861 0.68040407 0.13240051 0.09874825 0.018301753
0.19970496 -0.10245621 0.010568529 0.19410966 0.23337269 0.043323115 -0.04203336 -0.023302518
0.02202252 -1.4535303 -0.11126434 -0.11529046 -0.20876119 -2.4584293 0.016542917 -0.9374653
-0.18328093 0.028888883 0.31489486 0.14684415 0.1419385 0.012821707 -0.11123634 -0.09514757

fc3.bias f4 [2]
00000000: f71c 1f3d 2c37 56bc
0.038845982 -0.013074677

bn1.weight f4 [24]
00000000: b0d6 543f d100 0a3f d016 833e 1a62 5c3f
00000010: ad26 8f3f 94e2 8f3f 83ee 983e 6c77 a0be
00000020: 10cc 4b3f 6c24 433f 59fa 563f 16fd 7cbe
00000030: 622b 4b3f 756b 133f 39d3 ed3d 9b52 023f
00000040: 84c6 363f a4ef 3c3f 0c3f fb3e 77e1 5c3f
00000050: cdb0 9e3f b3a0 6e3f 84eb 5e3f 4532 6f3f
0.8314009 0.53907496 0.25603342 0.8608719 1.1183678 1.1241021 0.2986947 -0.31341112
0.7960825 0.7622745 0.8397575 -0.2470592 0.7936307 0.5758584 0.11612553 0.50907296
0.7139666 0.7380316 0.49071538 0.8628153 1.2397705 0.9321396 0.8707812 0.9343608

bn1.bias f4 [24]
00000000: a696 59be ba85 353d c15f 393d b8e5 61be
00000010: 4d53 da3d 600a 94bd 5fb3 4d3d 4894 a7be
00000020: 02f3 ffbd 0e1e cabc 6a2d 80bd e86b d7be
00000030: 246e 173e 7965 34be 1bf1 26bd 722f 9fbe
00000040: 28f2 91bd 6155 433e dad7 b13d 5344 3f3d
00000050: 56f8 bf3d 9ec3 693d 767d 26bd c562 193c
-0.21248874 0.044316985 0.045257334 -0.22060287 0.106604196 -0.072285414 0.05021989 -0.32730317
-0.12497522 -0.024672534 -0.06258662 -0.42074513 0.14788109 -0.17616834 -0.04075728 -0.31090885
-0.07126266 0.19075538 0.086837485 0.04669602 0.09373538 0.05707132 -0.040646993 0.009361927

bn1.running_mean f4 [24]
00000000: d795 b5c0 96b4 b0bf 605f d23f 06f4 313b
00000010: 16ef 093c 00a7 1a40 605f d23f 06f4 313b
00000020: c74d bcc0 4386 b7bf ee90 e73f 1d39 793c
00000030: 668e b83c a0a2 1840 ee90 e73f 1d39 793c
00000040: 0fec c2c0 261e bebf 6d79 f03f e807 a93c
00000050: 47a9 863c ca55 1440 6d79 f03f e807 a93c
-5.674541 -1.380511 1.6435356 0.0027153506 0.008418819 2.4164429 1.6435356 0.0027153506
-5.8844943 -1.4337848 1.8091104 0.015211371 0.022528838 2.3849258 1.8091104 0.015211371
-6.0913157 -1.485295 1.8787056 0.020633653 0.01643814 2.3177361 1.8787056 0.020633653

bn1.running_var f4 [24]
00000000: 3f21 1f41 79e6 2e3f 98d0 fd42 17db 4740
00000010: a5d5 0a42 3648 9840 98d0 fd42 17db 4740
00000020: 8438 1141 e6c6 223f 42a9 0143 4309 5140
00000030: bd69 1442 1be0 a140 42a9 0143 4309 5140
00000040: 42d3 0141 3df1 153f 97ab 0843 3f43 5940
00000050: 3ccd 1e42 a0c9 b240 97ab 0843 3f43 5940
9.945617 0.68320423 126.90741 3.1227472 34.708637 4.758815 126.90741 3.1227472
9.076298 0.63584745 129.66116 3.2661903 37.10326 5.0586066 129.66116 3.2661903
8.114077 0.58571225 136.67027 3.3947294 39.700424 5.5871124 136.67027 3.3947294
