checkpoint_actor_best_avg_max.pth (torch_old, 81931 bytes, 10 tensors)

fc1.weight f4 [128, 24]
0	0x3f056b55	0.521169
1	0x3f1ffd72	0.624961
2	0xbefd928b	-0.49525866
3	0xbcea29a7	-0.028584315
4	0xbece7c34	-0.40329134
5	0x3f340fca	0.7033659
6	0x3e35290b	0.17691438
7	0x3f54b550	0.8308916
8	0x3ef8c44b	0.4858726
9	0x3bf6a7a8	0.0075273104
10	0xbe92b9f3	-0.28657493
11	0x3f75dd7e	0.96041095
12	0xbea447ea	-0.32086116
13	0x3e004c61	0.12529136
14	0x3d8328cd	0.064042665
15	0xbf04bafe	-0.5184783
16	0x3fa63884	1.2985997
17	0xbef87e10	-0.48533678
18	0x3ea1df4a	0.3161567
19	0x3e6865f2	0.22695139
20	0x3f0fd4df	0.5618419
21	0xbf3b0827	-0.73059314
22	0x3e50a115	0.20373948
23	0x3e624569	0.2209679
24	0xbe5c6e6d	-0.21526499
25	0xbe02bcd5	-0.12767346
26	0x3ee2ea11	0.44319203
27	0xbdc50d54	-0.09621683
28	0xbf3f4dfc	-0.7472837
29	0x3f58416c	0.84474826
30	0x3e6b5bd3	0.22984247
31	0xbf84a1d5	-1.0361887
32	0x3e53df5b	0.20690672
33	0x3d970fc9	0.07376058
34	0x3ea49b5f	0.3214979
35	0xbf9e06ad	-1.2345787
36	0x3ea6dcc7	0.32590315
37	0x3f6b2b1e	0.91862667
38	0xbea560ee	-0.32300514
39	0xbf37bf7a	-0.71776545
40	0x3e9dfed6	0.30858487
41	0x3e180bee	0.14848301
42	0x3dfb58db	0.12272807
43	0x3d7a5584	0.06111671
44	0x3f9c7ba7	1.2225236
45	0xbf948fc9	-1.160638
46	0x3dbdfe5f	0.09277033
47	0x3c947006	0.018119823
48	0x3fbcc87f	1.4748687
49	0xbf1f9dd0	-0.6235018
50	0xbe735d92	-0.23766163
51	0x3f96046e	1.1720102
52	0xbee9f4bf	-0.4569454
53	0xbf1d7584	-0.6150744
54	0x3e466c21	0.19377185
55	0x3ea2a274	0.31764567
56	0xbd06fb84	-0.032954708
57	0xbec86aaf	-0.39143893
58	0x3f9e9e6f	1.23921
59	0x3f07cb03	0.53044146
60	0x3ee26594	0.44218123
61	0xbf631f8b	-0.88720006
62	0xbeff7e6c	-0.4990114
63	0xbac8b638	-0.0015313094
64	0x3fc0f5f3	1.5075058
65	0xbecf15f6	-0.40446442
66	0xbde7abc7	-0.11312061
67	0xbec3b34b	-0.38222727
68	0xbef523ac	-0.47878778
69	0x3f4a9bbf	0.791439
70	0x3ef0f4d3	0.47061786
71	0xbeb5093e	-0.35358614
72	0x3ee35ee9	0.44408348
73	0x3faf7aa0	1.3709297
74	0x3e7a39e7	0.2443615
75	0x3f2ff82f	0.68738073
76	0x3eea0c86	0.4571268
77	0xbd3ffbdc	-0.04687105
78	0x3e753b7b	0.23948471
79	0x3ecf0dee	0.40440315
80	0xbdf6dbbd	-0.120536305
81	0x3f28ae03	0.6589052
82	0x3f04c3e9	0.51861435
83	0xbe3b19b6	-0.18271527
84	0x3e9fc709	0.3120654
85	0x3f1c6415	0.61090213
86	0xbd75b9bb	-0.05999158
87	0x3f58a850	0.84631824
88	0xbed54d66	-0.41660613
89	0x3fcc17b6	1.5944736
90	0xbb2c922d	-0.0026332245
91	0x3fbd0515	1.4767176
92	0xbe0c9833	-0.13729934
93	0xbf20a112	-0.62745774
94	0x3ead066c	0.33793962
95	0x3fe9d9a7	1.8269547
96	0x3f26d7dc	0.65173125
97	0xbfe28f07	-1.7699898
98	0x3e891516	0.267739
99	0x3ff7e37b	1.9366297
100	0x3fd90ecc	1.6957641
101	0x3e2f4bc2	0.17118743
102	0xbe8cce43	-0.27501115
103	0x3f50c961	0.8155728
104	0x3e2ac1ae	0.16675445
105	0xbea49def	-0.32151744
106	0xbe00db6e	-0.12583706
107	0x3fa08747	1.2541283
108	0xbe5d24cd	-0.2159607
109	0x3f08732f	0.53300756
110	0x3ef4f513	0.47843227
111	0x3f5a7716	0.8533796
112	0x3ec30c90	0.38095522
113	0xc00596dc	-2.0873327
114	0xbf22b89b	-0.63562936
115	0xbe67dec9	-0.2264358
116	0xba15b3e7	-0.00057107065
117	0x3e9ee437	0.3103349
118	0x3e9c6f51	0.30553678
119	0xbc62fb38	-0.0138538405
120	0xbee32067	-0.4436066
121	0xbf1ff998	-0.62490225
122	0xbd3ff578	-0.046864957
123	0x3f04f94b	0.5194289
124	0x3f08f495	0.534982
125	0xbf5150c8	-0.8176389
126	0xbec6f1ff	-0.38856503
127	0x3e7c9d42	0.24669364
128	0xbebc7a65	-0.3681213
129	0xbe47fc44	-0.19529825
130	0x3def7a47	0.116932444
131	0x3e83200e	0.25610393
132	0x3e6aaa46	0.22916517
133	0xbef7d1f5	-0.48402372
134	0x3e77732d	0.2416503
135	0xbe105efc	-0.14098734
136	0xbf0c71b4	-0.54861
137	0xbf834dc0	-1.0258102
138	0x3e6303c5	0.22169407
139	0x3d869ecd	0.065732576
140	0xbe9d383d	-0.3070697
141	0x3f637484	0.88849664
142	0xbd553517	-0.052052584
143	0x3d870f6c	0.06594738
144	0x3fb0336e	1.3765695
145	0x3f5c8929	0.8614679
146	0xbf063ae3	-0.52433604
147	0xbe09f433	-0.13472061
148	0x3f29759b	0.66195077
149	0x3d5f7642	0.05455614
150	0x3d1a12cb	0.03761558
151	0x4006fff5	2.1093724
152	0xbe3b5c18	-0.1829685
153	0x3ebd26d2	0.3694368
154	0xbe5e33c4	-0.21699435
155	0x4009423b	2.1446674
156	0x3e25b3e3	0.16181903
157	0xbeb1ad1b	-0.34702381
158	0x3ee36db1	0.44419625
159	0x3f6dfbd5	0.9296239
160	0xbf262450	-0.6489916
161	0x3f80c8ad	1.0061241
162	0xbea4af3b	-0.3216494
163	0xbf1d30ba	-0.61402476
164	0x3f92be1f	1.146427
165	0xbd1966ed	-0.037451673
166	0x3e518966	0.2046257
167	0xbeeda8b9	-0.46417788
168	0xbf359ef8	-0.7094569
169	0x3e6d06b5	0.2314709
170	0xbf791958	-0.97304296
171	0x3e89bb89	0.2690089
172	0x3e6072f5	0.21918853
173	0x3f0ec4de	0.55769145
174	0x3e837835	0.25677648
175	0x3fb68b74	1.4261308
176	0x3ea1070f	0.31450698
177	0xbc6a1577	-0.014287344
178	0x3f8a95b5	1.0826937
179	0x3faba37d	1.3409268
180	0xbe540c63	-0.2070785
181	0x3f9f3c76	1.2440326
182	0xbe8247ce	-0.25445408
183	0x3f3d1358	0.7385764
184	0x3f81ad24	1.0130963
185	0x3e055c90	0.13023591
186	0x3f80f815	1.0075709
187	0xbd693ac1	-0.056940798
188	0x3f9cc5c0	1.2247849
189	0xbf5d3606	-0.8641056
190	0x3fa644cc	1.2989745
191	0x3cbf1045	0.023323188
192	0x3d5db110	0.054123938
193	0xbf859097	-1.043475
194	0x3e219912	0.15781048
195	0xbea02d2d	-0.31284466
196	0x3f6d79b6	0.9276384
197	0xbf213e13	-0.6298534
198	0x3ec8be32	0.39207608
199	0x3f0646ea	0.52451956
200	0xbee87413	-0.45401058
201	0xbf4ed96a	-0.808005
202	0xbf074610	-0.5284128
203	0x3eab315b	0.33436093
204	0x3e7bf67c	0.24605745
205	0x3ea461e9	0.3210595
206	0x3ef27304	0.47353375
207	0x3e3d8b18	0.18510091
208	0xbf50503a	-0.81372416
209	0x3f5606af	0.8360395
210	0x3e703724	0.23458534
211	0x3fc26011	1.5185567
212	0xbeb84cca	-0.35996085
213	0x3f127b4a	0.57219374
214	0x3ebbec70	0.36703825
215	0x3fe4d54c	1.7877593
216	0xbd31677c	-0.04331158
217	0x3f618c30	0.88104534
218	0xbed50d8a	-0.41611892
219	0xbf058dac	-0.521693
220	0xbf0b7c46	-0.544865
221	0xbf965995	-1.1746088
222	0x3e0a0091	0.13476779
223	0x3f350824	0.70715547
224	0x3f123938	0.5711856
225	0x3ee1ca7f	0.44099805
226	0x3f839651	1.0280248
227	0x3f5caea9	0.8620401
228	0xbdbfa445	-0.09357504
229	0xbee29fb9	-0.44262484
230	0x3e20b622	0.15694478
231	0xbe9865b6	-0.297651
232	0x3f606467	0.876532
233	0x3f8acbe3	1.0843471
234	0x3ec61014	0.38684142
235	0x3d3d979f	0.046287175
236	0x3ef5e09e	0.48022932
237	0x3f929193	1.1450676
238	0x3fb3cd0f	1.4046954
239	0x3e060e8a	0.13091484
240	0x3fa72f1f	1.3061255
241	0xbf80e714	-1.007052
242	0xbd34d0cb	-0.044144433
243	0x3f4912c2	0.7854425
244	0xbf625a3f	-0.88418955
245	0x3f3be65d	0.7339838
246	0x3d6f0e2f	0.058363136
247	0x3ec85e3c	0.39134395
248	0xbb5660bb	-0.0032711464
249	0xbcceb366	-0.025232028
250	0xbe6476f6	-0.22311005
251	0x3df89ac8	0.12138897
252	0x3e106091	0.14099337
253	0x3ed0869f	0.40727708
254	0x3d221d8b	0.039578956
255	0x3f986e9d	1.1908756

fc1.bias f4 [128]
0	0xbf337911	-0.7010661
1	0x3fb53102	1.4155581
2	0xbef3fd47	-0.47654173
3	0xbf14a5a0	-0.58065224
4	0xbf360e8f	-0.71115965
5	0x3e56b852	0.2096875
6	0xc01bcee3	-2.4345024
7	0xbfba71f2	-1.4566023
8	0xbf08a8c8	-0.5338254
9	0xbe439d7c	-0.19103044
10	0xbe096551	-0.13417555
11	0x3ef9d27f	0.48793408
12	0xbe9bd12d	-0.30433026
13	0xbf0ee971	-0.55824953
14	0x3cc27596	0.02373771
15	0xbf13747d	-0.5759962
16	0xbf4ada6e	-0.7923955
17	0xbea292b0	-0.3175254
18	0xbeccd369	-0.40005043
19	0xbea8f22c	-0.32997262
20	0xbfb3d754	-1.4050088
21	0xbf72187d	-0.94568616
22	0xbe3e01b4	-0.18555337
23	0xbe480b43	-0.19535546
24	0xbfe78b41	-1.8089372
25	0x4051d581	3.2786562
26	0xbf30bfd4	-0.69042706
27	0xbfb6a991	-1.4270498
28	0xbf739f32	-0.9516479
29	0x3da77b33	0.08177795
30	0xbe476c29	-0.19474854
31	0xbf329dca	-0.69772017
32	0x3d3b37b1	0.04570741
33	0xbf3ab40a	-0.7293097
34	0xbf418c12	-0.75604355
35	0xbe260698	-0.16213453
36	0xbef228d5	-0.47296777
37	0xbe317efe	-0.173336
38	0xbf24b4b1	-0.64338213
39	0xbda64b39	-0.08119816
40	0xbf4c112d	-0.7971371
41	0x3ef6e20d	0.48219338
42	0xbf964620	-1.174015
43	0xbe8f4d33	-0.27988586
44	0xbf0ef419	-0.55841213
45	0xbf25a219	-0.64700466
46	0xbd04ecff	-0.03245258
47	0xbf2738a3	-0.65320796
48	0x3f4dc61f	0.80380434
49	0xbf811257	-1.0083722
50	0xbba76b92	-0.005109259
51	0xbf023afb	-0.5087125
52	0xbf975499	-1.1822692
53	0xbf934365	-1.1504942
54	0xbf964412	-1.1739523
55	0xbf3ef958	-0.7459922
56	0xbdca0a34	-0.09865227
57	0xbf150726	-0.5821403
58	0x3ed9f401	0.42568973
59	0x3c4eabe4	0.012614224
60	0x3e117368	0.1420418
61	0xbb5d330a	-0.0033752345
62	0xbfa7cf5f	-1.311016
63	0x3e8d4284	0.2758981
64	0xbf5b4c2e	-0.85663116
65	0xbf26091a	-0.6485764
66	0xbfc510d5	-1.5395762
67	0xbefc2d64	-0.4925338
68	0xbf897ff4	-1.0742173
69	0x3e8719e4	0.2638694
70	0x3dcdf833	0.10057106
71	0xbe935a0a	-0.28779632
72	0x3d5fd768	0.054648787
73	0xbef11bf2	-0.47091633
74	0xbe937116	-0.28797215
75	0xbd685287	-0.05671933
76	0xbff2e857	-1.8977154
77	0xbf83f25f	-1.0308341
78	0xbef4daf8	-0.4782331
79	0xbf3a85ed	-0.72860605
80	0x3eb097ec	0.34490907
81	0xbf9125b2	-1.1339629
82	0xbe81fa7f	-0.25386426
83	0xbf729f4b	-0.9477431
84	0x3e81c31c	0.2534417
85	0xbed3a7e8	-0.4133904
86	0xbf7d054c	-0.9883621
87	0xbf4c25fb	-0.79745454
88	0x3f699453	0.9124195
89	0x3de7f9f5	0.113269724
90	0x3f537265	0.8259643
91	0x3f4428bc	0.76624656
92	0xbfa7814f	-1.3086337
93	0x3f22e857	0.6363577
94	0xbf8afdc7	-1.0858697
95	0xbe97f445	-0.2967855
96	0xbf13bd68	-0.57710886
97	0xbfabf5e6	-1.3434417
98	0xbfb43003	-1.4077152
99	0xbefc3563	-0.4925948
100	0xbf9074e8	-1.1285677
101	0xbf1c4419	-0.6104141
102	0xbe73f0d2	-0.23822334
103	0xbf1299f1	-0.57266146
104	0xbf1db532	-0.6160461
105	0xbed1ce58	-0.4097774
106	0x3ea98a28	0.33113217
107	0xbf85037c	-1.0391688
108	0xbefb8539	-0.49125078
109	0xbef15544	-0.47135365
110	0xbf5dc885	-0.86634094
111	0xbf077552	-0.5291339
112	0xbf26b763	-0.65123576
113	0xbf1f5f97	-0.62255234
114	0xbf41e7eb	-0.75744504
115	0xbf4bb63b	-0.79574937
116	0xbf95de1d	-1.1708409
117	0xbf223ed1	-0.633771
118	0xbf3784de	-0.71687114
119	0xbf60a47b	-0.8775098
120	0xbf0b9e9b	-0.5453889
121	0xbddb2a45	-0.10701422
122	0xbfb05764	-1.377667
123	0xbec335d4	-0.38127005
124	0xbf1e17ad	-0.61754876
125	0xbe1e865a	-0.15480939
126	0xbf46201b	-0.7739274
127	0xbf8b68e0	-1.089138

fc2.weight f4 [128, 128]
0	0xc0269bfd	-2.6032708
1	0xbe90bd27	-0.28269312
2	0xbfb826df	-1.4386863
3	0xbeebcac9	-0.4605315
4	0xbfe05bf5	-1.7528063
5	0x3ec44112	0.38330895
6	0xc05435fb	-3.3157947
7	0x3e812fdf	0.25231835
8	0x3f7dafe0	0.9909649
9	0x3e837846	0.256777
10	0xbf88536a	-1.0650456
11	0xbf905813	-1.1276878
12	0xbe729131	-0.23688199
13	0xc02fae4b	-2.745013
14	0x3f570d8f	0.84005064
15	0xc002138d	-2.0324433
16	0xc00d9d71	-2.2127345
17	0x3f319a59	0.6937614
18	0xc06b273d	-3.67427
19	0xbf437eb5	-0.76365215
20	0x3db12d0a	0.08651169
21	0xbfca9d75	-1.5829302
22	0x3f57df20	0.84324837
23	0xbff6c7bd	-1.9279705
24	0x3f7bc15f	0.98341936
25	0xbf4580a6	-0.77149427
26	0xbfa641ca	-1.2988827
27	0x3f142856	0.5787405
28	0x3efe95f1	0.4972377
29	0xc03930eb	-2.8936107
30	0x3f8c437e	1.0958097
31	0x3dbddda3	0.092707895
32	0xbe8c74d0	-0.2743287
33	0xbf289a43	-0.65860385
34	0x3ed5bd73	0.417461
35	0xbebb3b42	-0.36568648
36	0x3e8766f7	0.26445743
37	0xbfed1145	-1.8520895
38	0xc0981599	-4.7526364
39	0x3f2e2115	0.6801923
40	0xc0777192	-3.8663068
41	0xbf039ba1	-0.51409346
42	0x3f10493a	0.56361735
43	0x40058783	2.086396
44	0xbfcb001f	-1.5859412
45	0x3ed94c3e	0.4244098
46	0x3f921f62	1.1415827
47	0xbd865388	-0.06558901
48	0xbea5f98a	-0.32416946
49	0xbf8d418e	-1.1035631
50	0x3f1537fe	0.5828856
51	0x3f6ae8c6	0.91761434
52	0x3fd85a20	1.6902504
53	0xbf9cf96e	-1.226362
54	0x400464e8	2.0686588
55	0x3efbaab4	0.49153674
56	0xbce4a116	-0.027908843
57	0xbf05a5d4	-0.5220616
58	0xbf43ac77	-0.76435035
59	0x3e8a9112	0.27063805
60	0xbf579ed8	-0.8422675
61	0x3f1faccd	0.6237305
62	0xc041ab19	-3.026068
63	0xbd6c5d8e	-0.05770641
64	0xbf27774c	-0.6541641
65	0xbf00f9e4	-0.503813
66	0xbddd7009	-0.10812385
67	0xc084df37	-4.152248
68	0xbfa0efea	-1.2573216
69	0x3f933241	1.1499711
70	0x3e96da76	0.29463547
71	0xc0934a05	-4.6027856
72	0x3ee9f6c5	0.45696083
73	0xbf065566	-0.5247406
74	0xc04c5204	-3.1925058
75	0x3e8aa952	0.27082306
76	0x3f254002	0.64550793
77	0xbf411227	-0.75418323
78	0xbd4064db	-0.046971183
79	0xbfcc6d1b	-1.5970796
80	0xbf91a2a9	-1.1377765
81	0xbfe05e48	-1.7528772
82	0x3fb2fa26	1.3982589
83	0xc09ef43e	-4.9673147
84	0xbed57d46	-0.4169714
85	0x3f8ef58e	1.1168687
86	0xbee0a14d	-0.43873063
87	0xbf0dcdcb	-0.5539214
88	0x3eb57dda	0.3544758
89	0xbf2327f4	-0.6373284
90	0xbf1c046e	-0.6094426
91	0x3e8abdd9	0.27097967
92	0x400651c4	2.0987406
93	0x3ec08e96	0.37608784
94	0x3f37a33b	0.71733445
95	0x3d2601e1	0.040529136
96	0x3de10021	0.10986353
97	0xc0999e60	-4.800583
98	0xbfd76851	-1.682871
99	0xbff3ca10	-1.904604
100	0x3fc29fd4	1.5205026
101	0xc050b0f6	-3.2608008
102	0x3f5322bf	0.82474893
103	0x3de49900	0.11161995
104	0x3e574e9d	0.21026082
105	0x3f88fea1	1.0702707
106	0xbf396ca2	-0.72431386
107	0xbfb22de5	-1.3920256
108	0x3fd82200	1.6885376
109	0xbeaac419	-0.33352736
110	0xc0326624	-2.7874842
111	0xbf9d9a44	-1.2312703
112	0x3ec3eb03	0.38265237
113	0x3fa9d0b4	1.3266816
114	0x3f0c09bf	0.5470237
115	0xc03c794d	-2.9449036
116	0xbeaaede7	-0.3338463
117	0xbfc922fc	-1.5713801
118	0xbe84d901	-0.2594681
119	0xbfd14840	-1.6350174
120	0x3de04a45	0.10951666
121	0x3f4343be	0.7627524
122	0x4039b11a	2.9014344
123	0xbecd23bd	-0.4006633
124	0x3fd85714	1.6901574
125	0xbfaf2ebe	-1.368614
126	0x3fabedbe	1.3431928
127	0x3f7ce22e	0.9878262
128	0xbee9139e	-0.4552278
129	0x3c67f8d5	0.014158447
130	0xbf3c3244	-0.735142
131	0x3f42e407	0.7612919
132	0xbfb3836b	-1.402448
133	0xbf502c62	-0.8131772
134	0x3d7fa271	0.062410776
135	0x3f585d1a	0.8451706
136	0x3e5ca321	0.21546604
137	0xbf511fba	-0.81689036
138	0x3fd23008	1.6420908
139	0xc060b999	-3.511328
140	0x3f141adc	0.57853484
141	0xbf5609ab	-0.836085
142	0x3f4f6a1f	0.810213
143	0xbe0093ad	-0.12556334
144	0xbfde9f75	-1.7392412
145	0xbe221d94	-0.15831596
146	0xbfc738f6	-1.5564258
147	0x3f7cab5a	0.9869896
148	0x3f37fa55	0.7186635
149	0x3f308faf	0.68969244
150	0xbea14710	-0.3149953
151	0xbfa821d9	-1.313533
152	0xbfaec5aa	-1.3654072
153	0xbe9646e3	-0.29350957
154	0x3e20ad93	0.15691213
155	0x401a0c88	2.4070148
156	0xbf6e103b	-0.92993516
157	0xbfec6add	-1.8470112
158	0x3e9add9e	0.30247205
159	0x3de22a2f	0.11043202
160	0xbe9864d5	-0.2976443
161	0xbfd07356	-1.6285198
162	0xbe702e5c	-0.23455185
163	0xbf0ae0c1	-0.542492
164	0xbf19271c	-0.598253
165	0x3e14b07b	0.14520447
166	0xc06fbc12	-3.745854
167	0xbe803129	-0.25037506
168	0xbeb32451	-0.34988645
169	0xbecf92e8	-0.40541768
170	0xbf79f5d3	-0.97640723
171	0xbdb059e8	-0.08610898
172	0x3fa102ce	1.2578981
173	0xbe092d72	-0.13396242
174	0x3f91581c	1.1355014
175	0xbf17c324	-0.59282136
176	0xc00360fb	-2.0527942
177	0x4004d6ad	2.0756028
178	0x3d5fa094	0.0545965
179	0x3f8a33aa	1.0797017
180	0x3e8617eb	0.26190123
181	0x3fa81dbc	1.3134074
182	0xbeab41ae	-0.33448547
183	0x3ebb8923	0.36628065
184	0xc0451f8c	-3.0800505
185	0xbeb8b7b6	-0.3607766
186	0x3f5d2973	0.8639137
187	0xbfac21d8	-1.3447828
188	0xbe5f045c	-0.21779007
189	0xbfe14979	-1.7600547
190	0xbf187f38	-0.5956912
191	0xbf571d18	-0.8402877
192	0xbedd888a	-0.43268234
193	0x3ca032e2	0.019555513
194	0x3f9308a6	1.1487014
195	0xbf85c496	-1.0450618
196	0xbf51d1d0	-0.81960773
197	0xbf8e9cf0	-1.1141644
198	0xbfc1f03f	-1.5151442
199	0x3e2ea198	0.1705383
200	0xbf4c23eb	-0.79742306
201	0x3f96e2a8	1.178792
202	0xbf2b803d	-0.6699255
203	0xc01bf53d	-2.4368432
204	0xbff6cbfb	-1.9281
205	0xc0247bac	-2.5700483
206	0xbe8ac008	-0.27099633
207	0xbf709a3c	-0.9398534
208	0xbec0d3be	-0.37661546
209	0x3f1b4f58	0.60667944
210	0x3ea53fa9	0.3227513
211	0xc03e06dd	-2.969169
212	0x3e3d8ca6	0.18510684
213	0xbfe2bc03	-1.7713627
214	0xbf4c694b	-0.79848164
215	0xbe9b00fb	-0.30274186
216	0xbf7f4a6c	-0.99722934
217	0x3e11710f	0.14203285
218	0x3e1d41d6	0.15357146
219	0xc05d8296	-3.4610953
220	0xbef6de3d	-0.4821643
221	0xc007bd66	-2.120935
222	0x3e3e006c	0.18554848
223	0x3ed8b386	0.42324466
224	0x3f37e58d	0.7183464
225	0xbfd3498a	-1.6506817
226	0xc00f5842	-2.2397618
227	0x3edd023a	0.4316576
228	0xc030ef26	-2.7645965
229	0x3ec754b0	0.389318
230	0x3e061c0e	0.1309664
231	0xbeea63c2	-0.45779234
232	0x3f34ece8	0.7067399
233	0xbf15d18b	-0.5852286
234	0xbf976cbb	-1.1830057
235	0xc0091b6e	-2.1422992
236	0x3f86bed4	1.0526986
237	0xbeecc2b6	-0.46242303
238	0xc004741f	-2.0695875
239	0xbf38a229	-0.72122437
240	0x3f98b444	1.1930013
241	0x3fb12b58	1.3841352
242	0x3eb3b1d1	0.350966
243	0xbfa42121	-1.282261
244	0xbf260f15	-0.64866763
245	0xbe976f98	-0.29577327
246	0xbdd6898e	-0.10475455
247	0xc00d8ad1	-2.2115977
248	0xbf256a31	-0.6461516
249	0xbf3bb9fa	-0.7333065
250	0xbe56eb03	-0.20988087
251	0xbf5c2684	-0.8599627
252	0x3fc32148	1.5244532
253	0x3f5a1e8a	0.8520285
254	0xbfba4058	-1.4550886
255	0xbfbe4f1d	-1.4867893

fc2.bias f4 [128]
0	0xbead69d7	-0.33869812
1	0x3d136113	0.03598125
2	0xbf0e956d	-0.55696756
3	0x3e6be0d5	0.23034985
4	0xbcf317e6	-0.029674482
5	0xbe45b43c	-0.19307035
6	0x3f783423	0.96954554
7	0xbf04e13c	-0.5190618
8	0xbfadf79b	-1.3591188
9	0x3f113761	0.56725127
10	0x3e088b4c	0.13334388
11	0xbd8fddfc	-0.07024762
12	0xbfb70822	-1.4299357
13	0xbe59ac7a	-0.21257201
14	0x3c635f15	0.01387765
15	0xbf198bdc	-0.59979033
16	0xbed091af	-0.40736148
17	0xbe09c083	-0.13452344
18	0xbf242014	-0.6411145
19	0xbcbadc71	-0.022810193
20	0x3c2e2ef2	0.01063131
21	0xbf27245b	-0.6528985
22	0xbf02c16c	-0.5107639
23	0x3c232e50	0.009959772
24	0xbfacd570	-1.3502636
25	0x3d174fd4	0.036941364
26	0xbeab4851	-0.3345361
27	0xbdb61ac3	-0.08891823
28	0xbf166d1f	-0.58760256
29	0xbdff7a8f	-0.12474548
30	0x3cac01b6	0.02099691
31	0x3c2e9deb	0.010657768
32	0xbeb107dc	-0.3457631
33	0xbc3bf96b	-0.01147304
34	0x3c59c65d	0.013291922
35	0xbd2e9724	-0.042624608
36	0xbe6c1645	-0.2305537
37	0x3b7088d6	0.0036702654
38	0xbf95aca7	-1.1693314
39	0x3cde58a6	0.02714188
40	0xbfa85f2f	-1.3154048
41	0xbea3d887	-0.32001135
42	0xbf91f4e8	-1.1402864
43	0xbedaccb0	-0.4273429
44	0xbe195682	-0.14974406
45	0xbd569758	-0.052390426
46	0xbf20063f	-0.6250953
47	0xbe3d5f93	-0.1849349
48	0xbeeec721	-0.46636298
49	0xbf996ff6	-1.1987293
50	0xbdb50afd	-0.088399865
51	0x3cdfed09	0.027334707
52	0xbf659e02	-0.89694226
53	0xbcbf9713	-0.023387467
54	0xbf42b0fe	-0.7605132
55	0x3cf2d07a	0.029640425
56	0xbe098ee7	-0.13433419
57	0xbe3bdded	-0.18346377
58	0x3e996719	0.2996147
59	0xbced5aba	-0.028973926
60	0xbd622f92	-0.055221148
61	0xbe558dab	-0.20854823
62	0x3e5b05c8	0.21388924
63	0xbfda1cce	-1.704004
64	0xbdcb3480	-0.09922123
65	0xbe77281c	-0.24136394
66	0xbd74db97	-0.05977973
67	0xbc60ef35	-0.013728906
68	0xbfb22cc2	-1.3919909
69	0x3d44eb03	0.048075687
70	0xbf0ddd9a	-0.5541626
71	0xbeb234e6	-0.34805983
72	0x3d584592	0.052800722
73	0xbf0002dc	-0.50004363
74	0xbd2cd178	-0.042191952
75	0xbfae4c1c	-1.3616977
76	0xbe0073f4	-0.12544233
77	0xbba6212e	-0.0050698733
78	0x3da9356f	0.08262145
79	0x3e9054e7	0.28189775
80	0xbeed59e9	-0.46357659
81	0xbca622cb	-0.020280262
82	0xbf14f520	-0.5818653
83	0xbe523ab1	-0.20530201
84	0x3e439b07	0.19102107
85	0xbfb14574	-1.384932
86	0xbef8a1e0	-0.48561
87	0xbc553937	-0.013014129
88	0xbe470fd0	-0.19439626
89	0xbd328ab0	-0.043589294
90	0xbf2bd055	-0.67114764
91	0xbf98f86d	-1.1950814
92	0xbef902b9	-0.4863489
93	0xbef98dbb	-0.48740944
94	0x3ebaaaa3	0.3645831
95	0x3cad73d6	0.021173399
96	0xbecbf318	-0.39833903
97	0xbe30d361	-0.17268135
98	0xbce93fab	-0.028472742
99	0xbf0b54cb	-0.5442626
100	0xbf0e174c	-0.555043
101	0xbe9bd202	-0.3043366
102	0x3d83b3f2	0.06430806
103	0xbed84f5d	-0.4224805
104	0xbd427496	-0.047474466
105	0xbf0e3cd6	-0.5556158
106	0xbcc725d1	-0.024310024
107	0xbe22ee17	-0.15911137
108	0xbf602dc3	-0.87569827
109	0xbf29f038	-0.6638217
110	0xbfce67e8	-1.612546
111	0xbca02431	-0.019548507
112	0xbd6e4118	-0.058167547
113	0x3e89845e	0.268588
114	0xbde22b05	-0.110433616
115	0xbf5e54e0	-0.8684826
116	0xbec7c3ab	-0.3901647
117	0x3e23e519	0.16005363
118	0x3cae155b	0.021250417
119	0xbed13bb8	-0.40865874
120	0xbe9e96eb	-0.30974516
121	0xbd751873	-0.05983777
122	0xbf272a95	-0.6529935
123	0xbf215864	-0.630255
124	0xbe352545	-0.17689998
125	0x3f0412fb	0.5159146
126	0x3e3ac590	0.18239427
127	0xbf2531ba	-0.64529

fc3.weight f4 [2, 128]
0	0x4010fae2	2.2653127
1	0x3fb0ebe1	1.3821985
2	0x3dc79c6b	0.09746631
3	0xbe1356f3	-0.14388637
4	0x3d30fd39	0.043210242
5	0x3e3950f3	0.18097286
6	0x3e1896a8	0.14901221
7	0x3e0a8ea1	0.13530971
8	0x3e316c59	0.17326488
9	0x3da7e58c	0.081980795
10	0x3da9f98b	0.0829955
11	0x3ab5acc0	0.0013860688
12	0x408d1a98	4.4094963
13	0xbdfa7a33	-0.12230339
14	0x3dbe0065	0.09277419
15	0xbe98aaa3	-0.29817685
16	0x3cfb95ca	0.030711073
17	0xbc949f91	-0.018142493
18	0xbed22659	-0.41044882
19	0x3dda28e9	0.10652334
20	0xbc9dfca6	-0.019285511
21	0x405020a9	3.2519934
22	0x40885c28	4.2612495
23	0x3d89d231	0.06729544
24	0xc08a165e	-4.3152304
25	0x3d1da793	0.03848989
26	0x3f58d6b2	0.847026
27	0x3e13ed4d	0.14445992
28	0x40a31657	5.096477
29	0x3df2046d	0.118172504
30	0x3e0ed957	0.13950096
31	0xbdaf45d9	-0.08558244
32	0xbdf640a1	-0.12024046
33	0x3e18f91e	0.1493878
34	0x3d9eac33	0.07747688
35	0x3da13739	0.07871861
36	0xbd3a6563	-0.045506846
37	0x3dda14dd	0.106485106
38	0xbf848cdd	-1.0355488
39	0x3deb8039	0.11499066
40	0xc07e5acc	-3.9742918
41	0xbe4540f1	-0.19263054
42	0xbf95ffa3	-1.1718639
43	0xbd149ce9	-0.036282454
44	0xbd36a438	-0.044590205
45	0x3e8263ad	0.25466672
46	0x3d3b8237	0.04577848
47	0x3b28a04c	0.002573031
48	0x3f98642e	1.1905572
49	0xbeaabefe	-0.3334884
50	0x40481d07	3.1267717
51	0x3e37c800	0.17947388
52	0xc0a4cc5e	-5.149947
53	0x3dc52d2e	0.09627758
54	0x4042b214	3.042119
55	0x3d24d330	0.040240467
56	0xbd09f5d0	-0.03368169
57	0xbce34a3a	-0.027745355
58	0xbf24ece8	-0.6442399
59	0x3d67bfd8	0.05657944
60	0x3e03bff6	0.12866196
61	0xbe506432	-0.20350721
62	0x40cd1b18	6.4095573
63	0xbe2b4c7b	-0.16728394
64	0x3e04adc3	0.1295691
65	0x3d73d965	0.059533495
66	0x3e2776c3	0.16353898
67	0x40b5d701	5.6824956
68	0xc011a453	-2.2756546
69	0xbe3f0477	-0.18654047
70	0x4003287a	2.0493455
71	0xbec58868	-0.38580632
72	0x3d4df4c1	0.050282244
73	0x3fcd66cc	1.6046996
74	0x3dadd555	0.084879555
75	0x40845d93	4.1364226
76	0xbc97600b	-0.018478414
77	0x3d5b8f63	0.05360354
78	0x3e9397a0	0.28826618
79	0xbe270ad9	-0.16312732
80	0x3c158551	0.009126023
81	0x3d0d6060	0.03451574
82	0xbe5facbe	-0.2184324
83	0xbeaf32f5	-0.34218565
84	0x405a654c	3.4124327
85	0x40108945	2.2583783
86	0x3e026188	0.12732518
87	0x3e11793c	0.14206403
88	0x3e8cc489	0.27493694
89	0xbca9c84f	-0.020725397
90	0xbf8c0ed4	-1.0942025
91	0x3fe4f582	1.7887423
92	0xbffddfad	-1.9833885
93	0x4005d702	2.091248
94	0xbe5057d7	-0.20346008
95	0xbe2353f4	-0.15949994
96	0xbf949012	-1.1606467
97	0xbe5ece1f	-0.21758316
98	0x3f1b478c	0.60656047
99	0xbeddbf16	-0.4330985
100	0x3b6ee475	0.003645209
101	0xbe1f82e9	-0.15577282
102	0x3f10da60	0.56583214
103	0x3e0a6712	0.1351588
104	0x3da1c3b8	0.078986585
105	0x407b26a1	3.9242327
106	0x3d1dacea	0.03849498
107	0x3f57d042	0.8430215
108	0xc04de326	-3.216989
109	0x40ab940c	5.361822
110	0xc03825e5	-2.877313
111	0x3ffdcfa1	1.9828988
112	0x3c8e01c9	0.017334836
113	0xbd71370f	-0.0588904
114	0xbb9aa99a	-0.004719925
115	0xbd1784e0	-0.036991954
116	0x40455ac6	3.0836654
117	0xbec0ac3a	-0.37631398
118	0x3e2a1cd3	0.16612558
119	0xbf1f54ca	-0.6223875
120	0x3ebe54fa	0.37174207
121	0x3c4682a6	0.01211611
122	0xbfc308a5	-1.5237013
123	0x3d420484	0.047367588
124	0xbeea2090	-0.45727968
125	0x3cc8010c	0.024414562
126	0x3f2b64f6	0.6695093
127	0x3f3b8217	0.73245376
128	0x3fd85a84	1.6902623
129	0x38b89fa3	8.8035384e-05
130	0xc0491be7	-3.142328
131	0xbe30443e	-0.17213532
132	0xbc9e5b81	-0.019330742
133	0xc0011b5a	-2.0172944
134	0x3f41aebe	0.7565726
135	0xbf6cb0a0	-0.9245701
136	0xbd05f0fc	-0.032700524
137	0xbe043fe1	-0.12914993
138	0x3f606bce	0.87664497
139	0x3d19ad3d	0.03751873
140	0x3f8f1d1a	1.1180756
141	0xbfd691c5	-1.6763235
142	0x3c83edf2	0.016104672
143	0xbd77005a	-0.06030307
144	0xc0667fdc	-3.601554
145	0xbdf971f9	-0.12179942
146	0xc027fab6	-2.6246772
147	0xbc208eff	-0.009799718
148	0x3da10035	0.078613676
149	0xbd069a7c	-0.03286217
150	0x3d2a8dee	0.04163926
151	0x3c96aaa4	0.018391915
152	0x3e84d204	0.2594148
153	0x3d5e7af5	0.05431648
154	0xbdc24b19	-0.0948698
155	0x3d11720b	0.03550915
156	0x3fc89adf	1.5672263
157	0x3dbadbc4	0.09123948
158	0x3a6c95de	0.00090250175
159	0xbf5bab4e	-0.85808265
160	0xbea0779e	-0.3134126
161	0x3c1156e4	0.008870814
162	0x4042f1cd	3.0460083
163	0xbc811090	-0.015754968
164	0x3f0289e6	0.50991666
165	0x3ca32d9b	0.019919207
166	0xbc954cc4	-0.018225081
167	0x3c0c7d86	0.008574849
168	0x3f367701	0.71275336
169	0xbe2e87cd	-0.17043991
170	0x3d805fa9	0.06268246
171	0xbf5cb721	-0.8621693
172	0x3c5a0878	0.013307683
173	0xbc4d4407	-0.012528426
174	0xc054344d	-3.3156922
175	0xbf13c9d9	-0.5772987
176	0x3e518067	0.20459138
177	0xc06536cb	-3.5814693
178	0x3fb8f505	1.4449774
179	0x3a497cf1	0.0007686159
180	0xbdae5c3f	-0.08513688
181	0x3cb2c2be	0.021821376
182	0xbfd06962	-1.628216
183	0x3e0c299a	0.13687745
184	0xbfa1d84f	-1.2644137
185	0x3eb47ff6	0.35253876
186	0xbca37f3c	-0.019958131
187	0xbf0993cf	-0.53741163
188	0x3b92df57	0.0044821906
189	0x3e75044b	0.23927419
190	0x4039a8eb	2.900935
191	0xc0e050a9	-7.009846
192	0xbb5c8511	-0.003364865
193	0x3fa57460	1.292614
194	0xbcb0fac4	-0.02160395
195	0xbe28f850	-0.16500974
196	0x403292dc	2.7902136
197	0xc0267436	-2.600843
198	0x3ef60ef3	0.4805828
199	0xc04550de	-3.0830607
200	0x3b67b8b9	0.0035357906
201	0x4023f828	2.5620213
202	0xbc5acb5f	-0.0133541515
203	0x3d8b0dfd	0.067897774
204	0x3d1cfb3a	0.038325526
205	0xbd261bf4	-0.040554002
206	0xbdfdc8bd	-0.123918034
207	0xc0208dcb	-2.5086544
208	0xc0694364	-3.6447382
209	0x3d0244fb	0.031804066
210	0xbf1f591d	-0.6224535
211	0xc0617b8e	-3.5231662
212	0xc08ccd9b	-4.4000983
213	0x3ef71023	0.482545
214	0x3d8c8d9d	0.06862948
215	0x3c77bc8f	0.0151206395
216	0x3f9616f9	1.1725761
217	0x3d2f1a2b	0.042749565
218	0x3f2756d4	0.65366864
219	0x3f1829ed	0.59438974
220	0x3f7e11b9	0.9924579
221	0x3d5bcec7	0.053663995
222	0xbd940cd6	-0.07229011
223	0xbf23362e	-0.63754547
224	0x40061681	2.0951235
225	0xbf72699d	-0.94692403
226	0x3f09cf3f	0.5383186
227	0xbfc7eda3	-1.5619396
228	0x3f8adbbe	1.084831
229	0xbf21cca3	-0.63202876
230	0x40262f8c	2.596652
231	0xbf65f99f	-0.89834017
232	0x3d565f23	0.052336823
233	0xbf605151	-0.8762408
234	0x3c3756a0	0.011190087
235	0x3fa5024d	1.2891327
236	0x3fd9b024	1.7006879
237	0x408b52a0	4.353836
238	0x403ab7d9	2.9174712
239	0xc095664b	-4.668737
240	0x3cb408da	0.021976877
241	0xc095f425	-4.686053
242	0xbdcca047	-0.09991508
243	0xc0806968	-4.012867
244	0x3e202785	0.15640076
245	0xc08bbdd3	-4.366922
246	0x3c878503	0.016542917
247	0xbfebab68	-1.8411684
248	0xc0556c50	-3.3347359
249	0x3cf90cd3	0.030401623
250	0xbf248700	-0.64268494
251	0x3f5d8209	0.8652654
252	0x3f3d5cbb	0.7396962
253	0x401685e4	2.351922
254	0x3c9a1cb4	0.018812515
255	0x3f8e69c7	1.1126031

fc3.bias f4 [2]
0	0x3edb01b4	0.42774737
1	0x3e13fd09	0.14451994

bn1.weight f4 [24]
0	0x3ebf0727	0.37310144
1	0x3eb92990	0.36164522
2	0x3e808130	0.25098562
3	0x3e980d45	0.29697624
4	0x3fca7cb3	1.5819305
5	0x3f9b2d47	1.2123193
6	0xbd6d9380	-0.058001995
7	0xbdad3f30	-0.08459318
8	0x3d158487	0.03650334
9	0x3c882f9f	0.01662427
10	0x3eab9ba8	0.33517194
11	0xbe663c80	-0.22484016
12	0xbceb9db7	-0.028761728
13	0x3ee4d862	0.44696337
14	0xbda476cf	-0.080304734
15	0x3ec4db98	0.38448787
16	0x3f6bb520	0.9207325
17	0x3f2d6bf6	0.6774286
18	0xbceb8266	-0.028748702
19	0x3e67772d	0.22604056
20	0x3feaae89	1.8334514
21	0x3fc0f807	1.5075692
22	0x3ecd6fad	0.40124264
23	0x3ee3e01c	0.4450692

bn1.bias f4 [24]
0	0xbe906b0c	-0.2820667
1	0x3e00bc7b	0.125719
2	0x3cef52d2	0.029214296
3	0xbd432238	-0.047640055
4	0x3f504a5d	0.8136347
5	0x3fc5d96c	1.5456977
6	0xbcaabb36	-0.020841222
7	0xbf613623	-0.8797323
8	0x3c2413bc	0.010014471
9	0xbcaf2bc7	-0.02138318
10	0xbd74b582	-0.05974341
11	0xbf7bbfab	-0.9833934
12	0xbb50731d	-0.0031806894
13	0x3f328b36	0.6974367
14	0x39e0269f	0.00042753384
15	0xbf02fe4f	-0.51169294
16	0xbcc2e335	-0.023789981
17	0x3ea2e39a	0.3181427
18	0x3c61a53c	0.013772305
19	0xbd283cbc	-0.041073546
20	0x3e7598b3	0.23984031
21	0x3fac054f	1.343912
22	0x3cd2b1f2	0.025719617
23	0xbddf29d0	-0.10896647

bn1.running_mean f4 [24]
0	0xc0fa759c	-7.8268566
1	0xbf2de302	-0.6792451
2	0x40548635	3.3206913
3	0xbdf8959a	-0.12137909
4	0x3aa2948d	0.0012403891
5	0x40568f5c	3.3525
6	0x40548635	3.3206913
7	0xbdf8959a	-0.12137909
8	0xc0fb4c7d	-7.853087
9	0xbf2d59af	-0.6771497
10	0x404489a5	3.0709012
11	0xbda5b510	-0.080911756
12	0xbbca8271	-0.0061801006
13	0x4056a1bf	3.3536222
14	0x404489a5	3.0709012
15	0xbda5b510	-0.080911756
16	0xc0fb3ab4	-7.850916
17	0xbf2d3d41	-0.6767159
18	0x405ae1cd	3.4200318
19	0xbdd79bcb	-0.10527762
20	0xbc5d1e20	-0.013495952
21	0x4056dbae	3.3571582
22	0x405ae1cd	3.4200318
23	0xbdd79bcb	-0.10527762

bn1.running_var f4 [24]
0	0x4161c108	14.109627
1	0x3f8bedef	1.0931987
2	0x43a8c616	337.54755
3	0x415ee32b	13.930461
4	0x41cb3ad1	25.403719
5	0x403a256c	2.908534
6	0x43a8c616	337.54755
7	0x415ee32b	13.930461
8	0x41604c60	14.018646
9	0x3f8bf3d6	1.0933788
10	0x43a8515d	336.63565
11	0x415c3f88	13.765511
12	0x41cc6659	25.549974
13	0x403aa81d	2.9165108
14	0x43a8515d	336.63565
15	0x415c3f88	13.765511
16	0x415f4ae6	13.955786
17	0x3f8ca3db	1.0987505
18	0x43a93b48	338.46313
19	0x415cb0a9	13.79313
20	0x41cdd2e8	25.727982
21	0x403b4564	2.9261103
22	0x43a93b48	338.46313
23	0x415cb0a9	13.79313
