checkpoint_actor_both1.pth (torch_old, 81931 bytes, 10 tensors)

fc1.weight f4 [128, 24]
000000 09 f1 29 3f c4 8f c5 be 0f a3 20 be 4d 39 f7 bc
       0.66383415 -0.38586247 -0.15687202 -0.03017869
000010 6d e6 71 bd 7b 1d dc 3e a6 63 8b bd dd 0e 12 3e
       -0.05905764 0.42991242 -0.06806116 0.14263482
000020 3a c0 29 3f c7 e0 3b be 6d 1c 48 3e ca 10 a9 bd
       0.6630894 -0.18347465 0.19542094 -0.082551554
000030 00 81 d8 bb ce 89 c9 bd 1d 0f da 3d 43 a9 69 be
       -0.006607175 -0.09840737 0.10647414 -0.22818474
000040 bc 7d 22 3f dc e5 dc be a4 38 a1 3e f4 44 2a 3e
       0.63473105 -0.4314412 0.31488526 0.16627866
000050 32 14 a8 bd 09 16 d8 be a8 3f 7a 3e 93 5f 41 3d
       -0.08206977 -0.4220431 0.24438345 0.047210287
000060 3b 6f f9 3c fd 42 a6 3d 5b 31 08 3d 28 f4 97 3d
       0.030448547 0.08118246 0.033250194 0.07419616
000070 5c 46 ba be eb 90 eb 3d 9f 99 eb ba 17 35 2c be
       -0.36381805 0.1150225 -0.001797486 -0.16817127
000080 91 40 94 bd 63 ff 21 3c 11 a8 83 3d cb bc 49 be
       -0.072388776 0.009887549 0.064285405 -0.19700925
000090 dc 34 e4 bd b6 9d 61 be df 9a 5f bd 1d c9 55 be
       -0.111428946 -0.22032818 -0.054591056 -0.208775
0000a0 e7 23 4d be a5 5f 03 bc a3 38 9e 3c c9 7d 2e be
       -0.20033227 -0.008018409 0.019314116 -0.1704017
0000b0 e0 45 bd 3e ed 74 cc be 8d df 15 bc ca 6d 03 be
       0.36967373 -0.39932957 -0.009147537 -0.1283485
0000c0 d0 7f aa 3e db 67 c3 be f5 83 2b 3d 57 a3 8b 3e
       0.33300638 -0.38165173 0.04187389 0.27273056
0000d0 c6 f2 cf be 69 95 51 bc 4a 24 27 be 70 bf 9d 3e
       -0.4061491 -0.01279197 -0.16322437 0.30810118
0000e0 c4 0c b8 3e ef 3d cd be 15 48 c3 3d 30 99 6e 3e
       0.3594724 -0.40086314 0.09535233 0.23300624
0000f0 6e be f0 be f5 a0 ec 3d 8a 3f 0b 3e ce 2d 37 3e
       -0.47020286 0.115541376 0.13598457 0.17888567
000100 16 48 f5 3e ad 01 12 bf 69 d5 65 3d 37 b8 23 be
       0.4790656 -0.5703381 0.056111727 -0.15988241
000110 50 d3 0f bf 62 39 d2 3d 35 54 13 3e 36 72 b1 bd
       -0.5618181 0.10264851 0.14387591 -0.08664362
000120 92 9d 99 3e 39 9d 26 3f d9 79 4c 3e c3 be 54 3e
       0.3000303 0.6508365 0.19968356 0.20775895
000130 d7 e8 c9 3b 0b b3 3c 3e e6 f7 cb 3b f6 d0 af 3e
       0.00616179 0.18427674 0.00622462 0.34339112
000140 ee 98 e8 3d 06 5e 01 3f 47 74 5b 3e 88 0c 82 3d
       0.11357294 0.50534093 0.21431075 0.063500464
000150 bd b1 e6 bd 63 a5 2d 3e 7d 59 2e 3e f6 2f 30 be
       -0.1126437 0.16957621 0.17026325 -0.17205796
000160 c9 dd b4 3c 10 3d b3 3e cf 4f 32 be 64 65 10 bc
       0.022078412 0.35007524 -0.17413257 -0.008813236
000170 d2 b4 41 bd 76 09 76 be 2f cf 86 bc 0d 89 8e 3d
       -0.047291584 -0.24027047 -0.016456215 0.06959734
000180 70 88 8f bd e0 28 d3 be 79 ce 32 be 9e 0c 19 3e
       -0.07008445 -0.41242123 -0.17461576 0.1494622
000190 85 54 2c 3e 39 1b 96 3e a3 f6 6b be 2d 16 8c bc
       0.16829117 0.29317644 -0.23043303 -0.017100418
0001a0 75 ea 3c 3d 84 46 ad be 12 b4 aa bc 67 5b 8e 3d
       0.046122033 -0.33842862 -0.020837817 0.06951027
0001b0 6e 42 b1 3d cf 6f 70 bd ef 8a eb 3d 38 91 99 3d
       0.086552486 -0.05870038 0.11501109 0.074984014
0001c0 22 59 9a 3e fa c8 a1 be ea 8d 21 3e 82 f5 0a 3e
       0.30146128 -0.31598645 0.15776792 0.13570216
0001d0 55 f8 32 be 8a a6 d1 bc f0 4c e8 3d e4 68 38 3e
       -0.17477544 -0.025592107 0.113428 0.18008763
0001e0 ba b0 37 be 07 5f 0f bf ee 18 1f 3e 6a 37 47 3d
       -0.1793851 -0.56004375 0.15536854 0.04863683
0001f0 cd 37 db bd f2 0c 45 be 1b ac 46 3e d9 65 05 3e
       -0.107040025 -0.1924322 0.1940159 0.13027133
000200 47 5e 24 3e 08 13 c1 be 13 78 d4 bd 7f e4 80 3c
       0.16051589 -0.37709832 -0.10374465 0.015733955
000210 0d 41 e4 bb a7 89 67 3d 1e 71 8f 3d d6 b3 a0 3c
       -0.0069657625 0.05652776 0.07003997 0.019617002
000220 b7 78 db 3e e3 9d cb be e9 cd dc 3c 34 dc 2d 3e
       0.42865536 -0.39768896 0.026953654 0.16978532
000230 bc 34 ec bd 4f 7c a6 3e 0d bc a6 bd 24 03 44 3e
       -0.11533496 0.32516715 -0.081413366 0.19141823
000240 94 eb 3a 3e 9c 3c 66 3e fd 5e d9 bc a5 0d 60 3e
       0.18253928 0.22484058 -0.026534552 0.21880205
000250 c5 00 0a 3f 2a 55 78 3e c8 89 a8 bc b6 0c 8a 3e
       0.53907424 0.24251238 -0.020573512 0.26962823
000260 12 46 83 bc ee 6b 09 3f a6 96 2c 3e 89 9c 8a 3e
       -0.016024623 0.5368031 0.16854343 0.27072552
000270 91 36 ac 3e 82 04 7b 3e 2c 51 3d 3e d6 8a f2 3d
       0.3363538 0.24513438 0.18487996 0.11842887
000280 49 b0 9e be 39 e8 77 3e 56 08 d8 bc 07 fb f0 bd
       -0.3099387 0.2420968 -0.026371162 -0.1176663
000290 2c d8 c8 3e 5e f4 a7 3d e4 cf fe 3d c0 8a 1d be
       0.39227426 0.08200906 0.12441996 -0.1538496
0002a0 73 06 aa 3e 0e 34 99 bc bb 52 b1 3e 1f 7e 30 3f
       0.33208045 -0.01870158 0.3463343 0.68942446
0002b0 fe f5 2c 3e d6 87 05 3e 78 ce 38 3e 0b d3 2d 3f
       0.16890714 0.13040099 0.18047512 0.6790015
0002c0 60 f8 f7 3d 78 11 be 3d f7 95 86 3e bd 81 1e 3f
       0.12107921 0.09280676 0.2628629 0.61916715
0002d0 0b 40 83 3d d0 27 b7 bd f9 8e 34 3e 48 d6 e3 3e
       0.064086996 -0.089431405 0.17632665 0.4449942
0002e0 41 53 86 3e 15 13 e4 3d d0 ab f8 3d a1 8d d3 3d
       0.26235393 0.11136452 0.12142146 0.10329748
0002f0 e9 59 de 3d 9a 37 d8 be 56 e8 6b 3e 58 1d 36 3e
       0.10856993 -0.4222992 0.23037848 0.17784631
000300 7b 35 3e 3e 8e 8c b2 3e 21 42 af bb 71 25 aa 3e
       0.18575089 0.3487286 -0.0053484594 0.3323169
000310 eb 3b 32 3e b3 5b 94 3e 15 eb 87 3c a3 af 44 3d
       0.1740567 0.2897621 0.016591588 0.048019063
000320 b2 86 cf 3d 64 e6 c6 3e 3c 2a 71 3e e7 f3 61 3e
       0.10133113 0.3884765 0.23551267 0.22065698
000330 08 60 46 3d 9e 82 de 3e 34 39 97 3e 36 67 41 3e
       0.048431426 0.43459028 0.2953583 0.18887028
000340 57 d6 b6 be 34 0d 5f 3e 8e ba 1d be 1a 8f a5 3d
       -0.35710403 0.2178238 -0.15403196 0.08083935
000350 2f 67 e3 3d cf 1c 26 3f 4d 1d a7 bd 5b ab 39 3e
       0.11103665 0.6488771 -0.081598856 0.18131773
000360 3e 00 e5 3d f4 b1 7f bb 38 ad 10 3e 97 63 f8 3e
       0.11181687 -0.003901598 0.14128578 0.4851348
000370 77 60 af 3d 35 bd 32 be 35 98 7c 3d 8b 10 c6 3d
       0.08563321 -0.17454989 0.061668593 0.09671124
000380 a9 30 25 3e 99 60 0b bd aa 1f f7 3d 81 f8 61 3e
       0.16131844 -0.03402767 0.12066586 0.22067453
000390 db d5 8e 3e bf 49 14 3e d3 66 29 3e 22 eb c6 3e
       0.27897534 0.14481257 0.1654313 0.38851267
0003a0 78 0c b4 3e ea 75 1a bd 6c 47 98 bd 1e c8 ff bd
       0.35165763 -0.037710108 -0.07435498 -0.12489341
0003b0 fd a1 09 3e 1c 7c 16 3f f5 fb c5 3c ca 26 a4 bc
       0.134407 0.58783126 0.024167994 -0.020038027
0003c0 c5 41 d8 bd df 0f e5 be ef e4 2c bd 35 c6 2f 3e
       -0.105594195 -0.4473867 -0.042210516 0.17165454
0003d0 3b 4d 94 be 70 78 31 3e 9a e5 05 3b f3 58 d0 bc
       -0.28965172 0.173311 0.0020431043 -0.02543304
0003e0 15 73 d1 3c ae da a8 be d0 98 63 bc ce 65 fa bc
       0.02556757 -0.3297934 -0.013891414 -0.030566122
0003f0 8b 56 82 3c 93 b9 28 3c f4 4a 13 bd 34 e2 61 3e
       0.015910408 0.010298151 -0.035960153 0.22058946

fc1.bias f4 [128]
000000 51 65 1e 3d b4 1f 72 3e 01 ba 95 be 4b 4e db be
       0.03867084 0.23644906 -0.29243472 -0.4283317
000010 ee 27 b0 3e 09 eb ea 3d aa e5 f8 be d3 97 14 bf
       0.34405464 0.11470611 -0.4861272 -0.58044165
000020 8c 14 b3 be b0 31 4d 3d 4d 3e 98 3e 16 56 49 be
       -0.34976614 0.050096214 0.29735032 -0.19661745
000030 ba 16 04 be 46 ad aa be 72 01 64 bd 7a ec 81 be
       -0.12899294 -0.33335322 -0.05566544 -0.2537573
000040 fa f4 8e be 66 b7 1d bd 0f d1 2a be a5 87 9c 3e
       -0.27921277 -0.03850498 -0.16681312 0.3057224
000050 68 99 b8 be 24 4b 93 bd ae 4e c8 be 71 7e 88 be
       -0.3605454 -0.07192066 -0.39122528 -0.26658967
000060 14 0b af be 03 9e 99 3e 79 6d 84 be ae 10 0d be
       -0.3418814 0.30003366 -0.2586477 -0.13775894
000070 32 23 cf be 69 f7 58 be 10 27 4d 3e 13 e5 3f be
       -0.4045654 -0.2118813 0.20034432 -0.18739729
000080 56 da 18 3d 83 28 01 bf e2 3a c8 be ae 0f 33 3d
       0.037317596 -0.5045244 -0.39107424 0.043716125
000090 d6 ed 40 3d 13 5c 0c 3d 51 d5 fd bd ed dd a2 bd
       0.047101818 0.034267496 -0.123942025 -0.07952485
0000a0 a2 93 d7 be d5 d5 8b be 78 75 8a be 77 09 1f be
       -0.42104822 -0.27311578 -0.27042747 -0.15530954
0000b0 4b 7c ac be b1 46 a1 be 3c 35 06 3e 1f 36 37 be
       -0.33688578 -0.31499246 0.13106245 -0.1789174
0000c0 1c fb c5 3d 37 99 73 be 55 ee b2 be 30 84 de be
       0.09667036 -0.23788916 -0.34947458 -0.43460226
0000d0 54 f7 54 be d0 f6 bd be 84 ef 74 be 03 74 50 3c
       -0.20797473 -0.37102365 -0.23919493 0.012722972
0000e0 7d b6 5d bd 16 f6 15 3d b3 a3 61 bd ee 5c 31 3d
       -0.054129113 0.03661164 -0.055087756 0.043301515
0000f0 5a 88 53 3e 4b 85 6d bd c4 e5 a7 bd 3a cd c5 3e
       0.20657483 -0.057988446 -0.08198121 0.38633138
000100 a8 2d 22 bd ec c7 65 be e4 91 fd be 82 f5 db be
       -0.039594322 -0.22439545 -0.49525368 -0.42960745
000110 2b c2 75 be ef 0b 60 3e 98 64 2b bd 0e 96 d2 bd
       -0.2399985 0.21879552 -0.04184398 -0.10282527
000120 db 59 3b be 8f a8 5f bc 9e 78 9d be bf 1f 95 bd
       -0.18295996 -0.013651027 -0.30756086 -0.07281446
000130 a9 60 af be 99 04 5d be 14 ba 4a be 14 f0 45 be
       -0.34253433 -0.21583785 -0.19797546 -0.19329864
000140 c7 8b 98 be f5 e3 5f be 29 2d 0c be db 61 84 be
       -0.29794142 -0.21864302 -0.13689102 -0.25855908
000150 82 73 f5 bd d4 10 92 be ea bf 93 be 01 c1 75 be
       -0.11984922 -0.28528464 -0.28857356 -0.23999406
000160 72 ca d8 3e e6 08 5c 3e eb ad 94 be f0 cd dc 3c
       0.42341954 0.2148777 -0.2903894 0.026953667
000170 93 de e8 be 52 bd 96 3e 94 25 03 be fd 8a 6c bd
       -0.4548231 0.29441315 -0.12807304 -0.057749737
000180 43 de 1f be 14 44 8c be f5 cd ea bd f3 dd 74 3e
       -0.1561213 -0.2739569 -0.114650644 0.23912792
000190 97 6a 44 be c7 8b 8b bd 55 b0 fc 3d ec 0d 14 bd
       -0.19181286 -0.0681377 0.1233832 -0.03614609
0001a0 ce 88 c8 bd 44 8a 75 3e d6 a3 1a be 33 78 3c bf
       -0.097917184 0.23978525 -0.15101561 -0.7362091
0001b0 89 8b 4b 3e c3 d2 94 bd 81 39 ab be 67 61 9c be
       0.19877447 -0.07266762 -0.3344231 -0.30543062
0001c0 78 9a 0c be 9f 40 67 3d 34 ce 91 be 5d 0a bd be
       -0.137308 0.05645811 -0.28477633 -0.3692197
0001d0 2a f7 66 be ab 4f 4e bd a8 08 1e be 61 e5 83 be
       -0.22555223 -0.050368946 -0.1543299 -0.2576094
0001e0 96 5c e5 3d f3 0e 73 3e 99 c3 ec bd 99 e9 62 be
       0.111993 0.23736171 -0.11560745 -0.22159423
0001f0 3b 1b 6b be 78 95 fd bc 3c b4 0d bf bc 6f 2d bf
       -0.22959606 -0.030955061 -0.5535314 -0.6774862

fc2.weight f4 [128, 128]
000000 2a 26 38 bc 32 bc 46 bd 3c b6 19 be a1 4d 6b be
       -0.011239568 -0.04851932 -0.15010923 -0.22978832
000010 1b ce ed 3c 30 4e 97 bd 4a 69 f6 bd fd 3a d7 bd
       0.029028943 -0.0738796 -0.12031801 -0.10509298
000020 8c f9 0e be b2 83 4b 3d 01 47 b0 bd cd 1d 05 bd
       -0.13962382 0.04968614 -0.08607293 -0.032499123
000030 08 b4 d8 bc d2 11 91 bd 2f 41 97 3d 0d 3b f4 bd
       -0.026453033 -0.07083477 0.0738548 -0.119253255
000040 c2 d4 4c be 5d 96 25 be a8 ad 41 bc 9a 9d 6d bd
       -0.20003036 -0.1617064 -0.011821188 -0.05801163
000050 05 58 c7 3a 3d a7 ab bd ca 21 94 bd 36 4a 67 bc
       0.0015208727 -0.083815075 -0.07233007 -0.014116814
000060 c4 08 6c be d5 16 69 be ee ae 42 be d9 5a f9 bc
       -0.23050219 -0.22762616 -0.19012043 -0.030438827
000070 a3 ff 47 be 62 df 1f be 75 43 3c bd 9c 6c 29 be
       -0.19531111 -0.15612558 -0.04596277 -0.16545337
000080 fa e8 9b bd 6a a6 95 bd 53 ad 3b be 46 46 01 bd
       -0.07612796 -0.073071316 -0.18327837 -0.03156116
000090 66 75 ec 3d 13 d6 b0 bd 13 bb 2f 3d f4 36 a4 bd
       0.115458295 -0.086345814 0.042903017 -0.08018294
0000a0 e4 18 b3 bd 8b fd 22 bd 24 02 be 3d b9 cf 8c be
       -0.08744982 -0.03979258 0.09277752 -0.2750223
0000b0 74 e3 fa 3c 20 44 c8 bd 5c 56 9b 3d 1b 5a 2f be
       0.030626036 -0.09778619 0.07584831 -0.17124216
0000c0 5c 24 a0 bd bc 2d 00 be f3 a6 fa bd 3b cf 11 be
       -0.07819435 -0.12517446 -0.12238874 -0.14239208
0000d0 b5 1d 25 bc a5 60 2f be cb 3d 5f be ce 6c 54 3d
       -0.0100778835 -0.1712671 -0.21800916 0.051861577
0000e0 ac af 43 bc c7 ab 1b be 4e 1f 0a 3e df 1b 2a bd
       -0.011943739 -0.15202247 0.13488504 -0.041530486
0000f0 85 c3 07 3d 51 0d a4 3d f3 af 0a bd 20 ca 7e 3d
       0.033145446 0.080103524 -0.033859205 0.06220448
000100 78 8a 21 be e3 21 35 be 0a 3b 25 be e1 53 3a bd
       -0.15775478 -0.17688708 -0.16135803 -0.04549015
000110 7e 8e a0 be d7 bc f4 3c 06 c0 4c 3d fa ed 14 bd
       -0.31358713 0.029875202 0.049987815 -0.036359765
000120 13 eb 6f be 30 ff 3c be 1d 64 cb bc 66 84 31 3d
       -0.23429517 -0.18456721 -0.024828011 0.043339156
000130 73 1a d5 bd 0d 92 9a bd fb f0 62 bc 59 09 10 be
       -0.104054354 -0.07547388 -0.0138513995 -0.14066066
000140 6d a2 39 be c2 8e 5f be c9 7b 8a be a8 1b 01 be
       -0.18128367 -0.21831802 -0.27047566 -0.12608206
000150 fb ee 0d be ba 90 86 3d 13 82 6d 3c af ff 2c 3d
       -0.13860695 0.06570573 0.014496344 0.042236026
000160 63 07 0c be e2 aa 3d bd 86 0e 90 be 3b 06 79 bc
       -0.13674693 -0.046305545 -0.2813608 -0.015199239
000170 f7 50 2a be 36 65 03 ba 64 f0 c1 bd 1f 84 2b be
       -0.16632448 -0.0005012335 -0.09469679 -0.16749619
000180 1e ea 83 3c c4 4d 06 be 68 a3 dc bd 50 75 17 bd
       0.016102847 -0.13115603 -0.10773355 -0.036977112
000190 59 1a ff bc 82 28 27 3e 08 52 f0 3c 6c 7c 00 3e
       -0.031140493 0.16324046 0.02933599 0.12547463
0001a0 86 60 2c be 15 d7 0d 3d 0d 19 14 be 78 c2 aa 39
       -0.16833696 0.034628946 -0.14462681 0.00032569817
0001b0 c0 01 a5 3c 96 c1 9c bd 57 77 d1 bd 86 a8 8d bc
       0.020142436 -0.07654111 -0.102278404 -0.017292272
0001c0 0f 0d 9d bd 32 c5 dc bd 29 ea 71 bd c0 93 ce bd
       -0.07668506 -0.107797995 -0.059061203 -0.10086775
0001d0 95 79 79 be f4 11 63 be dc 43 1b be e5 d0 21 be
       -0.24362786 -0.22174817 -0.15162605 -0.15802343
0001e0 0b 79 3e bd cb 54 2c bd 10 1e 3a bd ea 52 68 bd
       -0.046502154 -0.042073052 -0.045438826 -0.056719698
0001f0 36 17 01 bd fe ee c8 be 8f da 5f bd ac 83 b8 bd
       -0.031516276 -0.39244837 -0.054651793 -0.090094894
000200 22 a7 f6 bb 32 96 5c 3d a0 05 53 3d 07 33 1e bc
       -0.007527248 0.053854175 0.051519036 -0.009655721
000210 f2 1d fb bc 49 8c 85 be d7 8a 8a 3d ba 56 53 3e
       -0.030653927 -0.26083592 0.06764763 0.20638552
000220 43 fa 80 3e a4 95 48 be a2 52 7d be 49 81 1a bd
       0.25190935 -0.19588333 -0.24738553 -0.037720952
000230 5d 0b 55 3e a2 76 a8 3d 62 8a 90 be e7 d5 57 bd
       0.20805116 0.082257524 -0.28230578 -0.052694228
000240 ac a2 c4 bd 52 53 48 bc 2a e3 89 be 4f 04 16 bf
       -0.0960134 -0.012226896 -0.26931125 -0.58600324
000250 65 f8 cc bc 4e 6d ee bd 6d 18 86 be f6 2a 2a 3e
       -0.025020787 -0.11641942 -0.2619051 0.16617951
000260 b3 05 3c 3e b0 7c a3 bd e8 f9 db bd 49 a5 c8 3e
       0.18361549 -0.07982767 -0.10741025 0.39188603
000270 a2 32 17 bf df 1f 46 be 84 5f 19 bf d9 db 15 be
       -0.59061635 -0.19348095 -0.5991137 -0.14634646
000280 3f 9d 7b bd b7 83 ff 3e 79 dc d2 be 71 bc 38 3d
       -0.06142926 0.49905178 -0.41183832 0.045101587
000290 1c 22 12 3d 70 86 b5 3d d3 a5 3f bf 92 4c 03 be
       0.03567706 0.088635325 -0.748624 -0.12822178
0002a0 67 d8 0b be 19 2f 1d 3e ec 9b 92 be 5d 06 30 be
       -0.1365677 0.15349998 -0.28634584 -0.17189927
0002b0 d4 2f 56 3e df 99 0f bf 5a c1 38 bc c6 96 b1 3d
       0.20916682 -0.56094164 -0.011276567 0.08671336
0002c0 f8 4b 8d bd 5b 4d d1 bd 05 b5 1c 3d 08 76 a2 be
       -0.068992555 -0.102198325 0.03825857 -0.31730676
0002d0 62 50 c6 3e 58 3e 25 be a9 ec 11 bc f8 06 f8 3d
       0.38733202 -0.16137064 -0.008906522 0.12110704
0002e0 6c b1 98 3d b9 6c 86 3e 2a 99 0d 3e e1 a5 26 bf
       0.074557155 0.26254824 0.13827959 -0.6509686
0002f0 d9 77 58 be cc 1a eb 3d 72 df 8b 3e aa 35 d3 bd
       -0.21139468 0.114797205 0.27318913 -0.1031297
000300 6d ce 89 3e bb 7a 82 bd 31 64 b6 3e 69 96 81 be
       0.26915303 -0.06371065 0.35623315 -0.25310066
000310 f7 8c 38 be ad ac 1d bd 5f 6f 61 3e 72 95 43 bd
       -0.18022524 -0.038494755 0.22015141 -0.047749944
000320 50 08 ee bd 8d 63 19 bd 6c 4b b2 be 6a 4c d9 be
       -0.11622679 -0.037448455 -0.34823167 -0.42441112
000330 f3 f3 b3 be e7 63 28 bf c0 88 9e be 7d d0 ec be
       -0.35147056 -0.6577744 -0.30963707 -0.46252814
000340 3c e4 eb 3d 14 70 a6 3e 44 3f 0c be 8a de b4 bf
       0.115181416 0.32507384 -0.13696009 -1.4130414
000350 18 42 dd 3d 74 3c 14 3d ce 84 be 3e 69 5a 60 3e
       0.10803622 0.036190465 0.37210697 0.21909489
000360 57 a8 cf be 6c 7d 84 bd c1 72 cc 3e d6 40 94 be
       -0.4055812 -0.06469235 0.399313 -0.28955716
000370 41 2b 0c 3e 6b 44 95 be db 4a da bc 20 c7 fb bc
       0.13688375 -0.2915376 -0.026647022 -0.030734599
000380 1c 0b cf bd 55 6d 5d 3e c3 27 83 3e 15 7e c7 be
       -0.10109541 0.21623738 0.25616273 -0.3896338
000390 2e fa 25 be 73 07 81 3e 8a 47 80 3e 5a b7 f1 bc
       -0.16208717 0.25200996 0.2505458 -0.029506374
0003a0 b7 b7 e4 be e4 f6 9f be ca d0 9d be bc 0b c8 3e
       -0.44671413 -0.3124305 -0.30823356 0.39071453
0003b0 31 d4 a7 be 4a be 5d bd fb c5 ea 3b c2 e3 be bc
       -0.32779077 -0.054136552 0.0071647144 -0.023301963
0003c0 55 16 6f be 0a 3e d4 3e a2 b3 ee 3e ad ca 28 be
       -0.23348363 0.41453582 0.46621424 -0.16483565
0003d0 20 b8 f4 bd ec 51 b5 3d f0 1d 4c 3e 04 72 1e 3e
       -0.119491816 0.08853516 0.19933295 0.15473181
0003e0 02 77 1c 3d 65 77 dd be 1c db b6 3d da 9b af bd
       0.038199432 -0.43255153 0.089285105 -0.08574648
0003f0 4f 35 3e 3e 5b d3 c8 3e 4a c0 67 bc 6b 7c f3 be
       0.18575023 0.3922375 -0.014144966 -0.4755586

fc2.bias f4 [128]
000000 50 d2 94 3d ec ee 8a 39 d4 e3 48 3e 57 59 ca bd
       0.072666764 0.00026499422 0.1961816 -0.098803215
000010 4a 63 58 bc 14 e2 84 be ea b4 4e 3b 61 a6 c7 bb
       -0.013207266 -0.25953734 0.0031540939 -0.006092832
000020 a1 cd 91 3d b8 ab 5c bd de b6 6b 3d 93 fb 39 bd
       0.07119299 -0.0538747 0.057547443 -0.045405935
000030 15 ff 1b be da 1a 8d bd 2a 0f fa 3c 12 00 f5 3a
       -0.15234025 -0.06889887 0.030524809 0.0018692038
000040 0d 15 fd bd bc d5 c2 bd cf 4c 3e bc de 86 69 bc
       -0.12357531 -0.09513423 -0.011614992 -0.014253346
000050 3a 48 49 3d 92 da ad be 75 c0 ac be 50 2e 23 3c
       0.049141146 -0.33955818 -0.33740583 0.009959772
000060 24 30 84 be 83 48 89 3d 3b 6c 82 be 3b 3f 29 bd
       -0.25817978 0.06703284 -0.25473198 -0.041320067
000070 27 8d 56 3d 11 48 9c 3c eb 93 c1 3c 89 75 d2 3d
       0.052380707 0.019077333 0.023630103 0.10276324
000080 30 3b b3 bd 69 ec e0 bb 47 29 c5 3b 09 65 4b bc
       -0.087515235 -0.00686412 0.0060168835 -0.012414225
000090 8e 04 0b be d2 00 07 3d de e7 ec bd a6 58 de 3c
       -0.13575956 0.032959767 -0.11567663 0.02714188
0000a0 d8 44 94 be 50 4a 7b be c6 1e a0 be f4 e9 bb bd
       -0.28958774 -0.24540067 -0.31273478 -0.091754824
0000b0 fd da 0b be 58 97 56 bd 96 d8 0d be d9 8d 82 be
       -0.13657756 -0.052390426 -0.13852152 -0.25498846
0000c0 61 18 0a be d8 a2 84 bd cc 0b f5 bd ef ec df 3c
       -0.13485862 -0.064763725 -0.11965141 0.027334658
0000d0 25 15 c6 bd ff 0e 80 3c 85 c3 a8 bd 7c c8 83 3d
       -0.09672002 0.01563215 -0.082404174 0.06434724
0000e0 62 cc b0 bd 3b 27 60 3e 6a 7c e6 bd c5 84 8f be
       -0.08632733 0.21889965 -0.11254199 -0.28030983
0000f0 40 02 f2 bc ee 3e 95 bc f0 aa 5f 3d cb 7b 5d be
       -0.029542089 -0.018218484 0.054606378 -0.21629255
000100 9f 71 b1 bd 11 96 c2 bd e0 06 06 bd b7 21 94 bd
       -0.0866425 -0.09501279 -0.0327214 -0.07232993
000110 50 74 38 be 7a a3 5f 3d 55 d1 b2 be 86 9b 7b bd
       -0.1801312 0.054599263 -0.34925333 -0.061427616
000120 91 b1 9c 3d 26 ac 66 be 48 22 44 bc db f8 cb 3c
       0.076510556 -0.22526607 -0.011971064 0.024898937
000130 55 64 9a bd 0c 9e a0 3d 07 36 26 be 56 2f 21 be
       -0.07538668 0.07842645 -0.16231547 -0.15740713
000140 4b 0e 67 be d7 a4 df 3b f8 33 86 be 16 06 b3 bc
       -0.22564046 0.0068250704 -0.26211524 -0.021853488
000150 3b 81 38 3d ef 64 75 be a6 92 1c be 37 39 55 bc
       0.04504512 -0.23964284 -0.15290317 -0.013014129
000160 b5 24 91 bb 2a 66 1f bb 97 b6 26 be 8c 2a 92 be
       -0.0044294246 -0.002432237 -0.1628059 -0.28548086
000170 60 5b 0d 3c be 41 30 3d 14 94 30 3d 6d 6d a6 3c
       0.0086277425 0.043031447 0.04310997 0.02031585
000180 fe 68 8d bc 2b cd 27 be 4a b2 b7 3d 7a 71 f1 bd
       -0.017261978 -0.16386859 0.08969553 -0.11789222
000190 5f 32 85 3d 35 76 15 bd 60 46 28 3d 5c 9a 0c bd
       0.06503748 -0.036489684 0.04108274 -0.034326896
0001a0 46 0d 26 3d bb 79 41 bd 53 0f 72 3a 74 bb f6 bd
       0.040540002 -0.04723523 0.0009233851 -0.120474726
0001b0 b2 c1 e3 bd ad 71 54 be 91 1b 0c be 6f 18 2c bd
       -0.11120929 -0.20746489 -0.13682391 -0.04201549
0001c0 b6 5c 1c bd 9c ad 65 bd f4 73 b4 bd d6 3a ad be
       -0.038174354 -0.05607377 -0.08811179 -0.3383395
0001d0 56 4e c6 bd ec 95 2d 3e 86 ac 3e 3d 09 56 8b be
       -0.0968291 0.16951722 0.04655125 -0.27214077
0001e0 01 ee b0 3d b6 94 ce bc db a8 0b bc f4 d1 57 3d
       0.08639146 -0.025217395 -0.008524145 0.05269046
0001f0 5c 6e 49 bd 21 c8 a3 3d 33 c1 37 3e 05 1e 90 be
       -0.049177513 0.07997156 0.17944793 -0.28147903

fc3.weight f4 [2, 128]
000000 af 77 ef 3d 4b b7 7b 3e 4f 76 a4 bf 5e a5 0c be
       0.1169275 0.2458164 -1.2848605 -0.13734958
000010 98 1a 4a 3d 8d 2d bf 3f 54 c3 7e 3e 94 d9 bd 3d
       0.049341768 1.4935776 0.248792 0.09270015
000020 9a e1 a7 bc d2 96 2a 3e 14 1d 26 3d f4 7c a0 bc
       -0.020493317 0.16659096 0.040555075 -0.019590832
000030 6f 04 a1 3e 4b 8b c9 be ce 73 c9 3d c3 58 53 3c
       0.31448695 -0.39364085 0.09836541 0.01289958
000040 ff 4f e7 3d d2 32 cc 3c 97 74 69 be 6a 8a dc 3d
       0.11294555 0.024926577 -0.22798382 0.10768588
000050 eb 08 88 3d 22 a9 08 40 3e 84 47 3f 31 d2 89 3d
       0.06642326 2.135323 0.7793616 0.06729544
000060 c5 33 ac bf 88 83 4c 3d db 07 61 3f f3 fd 33 3e
       -1.3453299 0.049930125 0.8790261 0.17577343
000070 7d d4 26 3e a7 ea c3 3e b9 f5 0e 3e e4 be fd be
       0.16291995 0.38264963 0.13960923 -0.495597
000080 4d a2 dc be c0 16 1c 3e 72 dd 4b 3e 47 82 de 3d
       -0.43092576 0.15243053 0.19908693 0.10864692
000090 8c 14 bb bd 6e 35 01 3e bd cb 32 bf 39 80 eb 3d
       -0.091347784 0.12618038 -0.6984213 0.11499066
0000a0 89 18 cc bf 62 b0 1a be 80 be 12 bf 43 68 93 3b
       -1.5944988 -0.15106347 -0.5732193 0.004498513
0000b0 7f 1a 57 bd ad 63 82 3e cc b6 4f be ed c5 cc 3c
       -0.052515503 0.25466672 -0.20284575 0.024996722
0000c0 ba be 63 3f b0 dc ba bd 8b 5f 4f 3e 00 c8 37 3e
       0.889629 -0.09124124 0.2025129 0.17947388
0000d0 06 90 26 bf 6c d5 64 3c 39 9a 65 3f 6a 32 98 3d
       -0.6506351 0.013966899 0.8968845 0.07431491
0000e0 e3 a9 94 bd 58 9d 77 bd ab de 91 be 71 33 20 3f
       -0.07258966 -0.06045279 -0.28490195 0.62578493
0000f0 39 7f 0b 3e 31 24 23 3b d9 97 67 3f bf 14 a7 3f
       0.1362275 0.0024893398 0.90466076 1.3053206
000100 8e d5 15 3e 30 8e c3 bc f3 16 2a 3e 1a 45 f3 3d
       0.14632246 -0.023871511 0.16610317 0.118784145
000110 4e e7 c4 be aa bd 54 3e 82 a5 07 3f 96 73 30 bd
       -0.3845772 0.20775476 0.5298692 -0.04307898
000120 f8 a7 6d 3d 51 9b 9e 3e c3 0b 50 3d 9e 08 a3 3f
       0.058021516 0.30977872 0.050792467 1.2737005
000130 3c 17 a8 bc 89 75 79 3d e8 9f 10 3c 66 38 04 3e
       -0.020518892 0.060903106 0.008827187 0.1291214
000140 9c 37 7a 3c a5 b3 40 3d 2d 20 61 bf c8 16 9e 3d
       0.015272047 0.047046322 -0.8793972 0.07719189
000150 19 ac ab 3e 6e 4c da 3f b6 4e 88 3e 3c 79 11 3e
       0.33529738 1.7054574 0.26622552 0.14206403
000160 d1 f5 c7 3e 78 e5 1f bd 2f 46 0c 3c 72 63 31 3f
       0.3905473 -0.039037198 0.008561655 0.69292367
000170 b7 37 d6 bb 4e e8 3a 3f 98 5b ad be 9c 7c c1 3c
       -0.0065374034 0.7301072 -0.33858943 0.023618989
000180 b1 cd 8d bc 98 9d 91 be a5 2f d7 bc 54 7e 96 be
       -0.017309995 -0.28440547 -0.026267836 -0.29393256
000190 f5 d6 11 3e 6b f9 43 be f7 d3 01 3f 8b ef 76 3e
       0.14242156 -0.19138114 0.5071406 0.24114816
0001a0 fe 3b 75 3d ad ba 10 3f 96 b1 52 3d 2c c2 89 3e
       0.059871666 0.56534845 0.05143889 0.26905954
0001b0 2a f9 30 bf d2 41 7b 3f cc eb 32 bf c6 b8 2f 3e
       -0.69130194 0.9814731 -0.6989105 0.17160329
0001c0 b2 89 a2 3c b4 b7 85 3d b1 8e 34 3c 31 dc 20 bf
       0.019841049 0.06529179 0.011020348 -0.62835985
0001d0 d1 14 07 40 b0 9e 0a be 35 39 2f 3e 3c 19 c9 bd
       2.1106455 -0.13537097 0.17111667 -0.09819266
0001e0 c0 3c 0a 3d 80 92 2d 3d 00 fc 2a be 52 d8 cb 3d
       0.033749342 0.04237604 -0.16697693 0.09953369
0001f0 5f a4 7a 3d f1 8a 81 3d ec b4 44 3e 57 b5 9f 3e
       0.061191913 0.06325329 0.19209641 0.3119304
000200 1e 8e af 3c c4 32 bb 3e 19 d4 6e bf d9 b5 fe 3d
       0.021430071 0.3656217 -0.93292385 0.124370284
000210 6f 76 97 bc d2 3d 39 3d 5d 07 8b bd 3c 27 0a 3e
       -0.01848909 0.045224972 -0.06788514 0.13491529
000220 3c 7c 41 3e a7 46 5f bd bf 37 31 3c 36 ad 19 3d
       0.18895048 -0.05451074 0.010816514 0.037518702
000230 22 b3 8e 3e 37 8d 05 c0 d2 d1 84 3c 31 b4 8a be
       0.27871042 -2.086744 0.016213331 -0.270906
000240 96 90 cd bf a1 31 11 be a8 ca 3e c0 e7 89 9c 3b
       -1.6059749 -0.14179088 -2.9811192 0.0047771814
000250 0d 2f 49 3c 90 d7 6f bd 78 89 eb 3d a4 aa 96 3c
       0.012279284 -0.058555186 0.115008295 0.018391915
000260 84 d6 af be c8 8d 22 3c bf 70 c8 bd 9f 10 a9 3c
       -0.3434335 0.009921499 -0.097871296 0.020637808
000270 60 26 a8 bc b1 61 ae 3d de 95 6c 3a a5 9e 02 3d
       -0.020526111 0.08514727 0.00090250175 0.031889576
000280 d1 bc 74 be 57 51 13 3c ef 4a da 3d bc 10 81 bc
       -0.23900153 0.008991561 0.10658824 -0.01575505
000290 ae 5a c2 3e 95 c6 a3 3c 4f 65 1b be 86 7d 0c 3c
       0.37959808 0.019992152 -0.15175365 0.008574849
0002a0 57 e8 2a bc 2d 6d 9e bd 00 88 71 be 15 23 80 3b
       -0.010431371 -0.077356674 -0.23587036 0.003910432
0002b0 20 d6 27 3c 07 44 4d bc c8 db 0c c0 fd 28 66 bf
       0.0102439225 -0.012528426 -2.2009144 -0.89906293
0002c0 c3 03 80 3e 07 08 07 c0 75 57 9d bd 98 42 4c 3a
       0.2500287 -2.109865 -0.07682697 0.00077919057
0002d0 b1 6b b9 bf 7f b9 71 3c 4a 3a c3 bd ab d7 0b 3e
       -1.448599 0.014753698 -0.09532602 0.1365649
0002e0 55 d0 5b bf b0 ff a0 3e 68 ec 13 3d 7a 69 98 3d
       -0.85864764 0.31445074 0.036114126 0.07441993
0002f0 57 df 92 3b 3a 49 4d 3e 8e 6e 28 bc ca 05 3c 3e
       0.0044821906 0.20047465 -0.010280265 0.18361583
000300 45 c1 a4 bb 7f 2e ee 3c ee e1 96 bc 88 e3 27 3c
       -0.0050279223 0.029074905 -0.018418279 0.010247119
000310 81 23 42 bf 1c 2b 82 be 65 ae 97 bd 6a 9d 85 bf
       -0.75835425 -0.25423515 -0.0740631 -1.0438664
000320 57 11 43 3b 84 16 9a 3e a5 4f 96 3c d4 37 c8 3c
       0.0029764974 0.30095303 0.018348524 0.024440683
000330 2d 7c 48 3d 8b 61 68 3c 6c 27 61 bf 77 0f df be
       0.04894655 0.014183412 -0.8795078 -0.43566486
000340 d7 7d c3 bf 22 4e dd 3c f9 2f 14 be b7 c8 5d bf
       -1.5272778 0.027014796 -0.14471425 -0.8663439
000350 f3 3d a9 be 37 3d 6d 3e 40 3f 10 be 8f bc 77 3c
       -0.33055076 0.23167883 -0.14086628 0.0151206395
000360 d4 b5 38 be 48 a0 82 3d 68 d3 c2 3e 1c 43 d2 3e
       -0.18038112 0.063782275 0.38051915 0.41066825
000370 6b 2c 1e 3c 01 31 e8 be 82 01 fc bc c9 ed 8f 3d
       0.009654145 -0.45349887 -0.030762438 0.07027776
000380 7c dd 76 3d b1 8c 5f be 3a 8b 46 be 50 99 c9 3d
       0.060269818 -0.21831013 -0.19389048 0.09843695
000390 53 7a 32 3f 37 7c e0 3d 72 da 01 3e 8f ed 95 3c
       0.697179 0.10961192 0.12680987 0.018301753
0003a0 75 7f 4c 3e 8a bc 9d 3d a0 27 2d 3c 42 69 29 3e
       0.19970496 0.077019766 0.010568529 0.16544059
0003b0 1b 30 88 3e e8 f6 be bd 04 b9 96 bd ec e4 be bc
       0.26599202 -0.093244374 -0.07359508 -0.023302518
0003c0 92 68 b4 3c d4 64 d4 bf 8f de e3 bd dc 93 d3 bd
       0.02202252 -1.659327 -0.11126434 -0.10330936
0003d0 0f a6 0f be 46 90 27 c0 03 85 87 3c cb 37 86 bf
       -0.1402819 -2.6181808 0.016542917 -1.0485777
0003e0 11 70 54 be 61 a8 ec 3c 56 fe af 3e 50 5e 16 3e
       -0.20745875 0.028888883 0.3437373 0.14684415
0003f0 b6 7d 0f 3e 23 12 52 3c 13 f2 fa bd 70 09 2c bd
       0.14012799 0.012821707 -0.12253203 -0.042001188

fc3.bias f4 [2]
000000 99 64 d4 3c 16 38 4d bc
       0.025926875 -0.012525579

bn1.weight f4 [24]
000000 a6 53 4e 3f 0d 97 0e 3f e0 4b 69 3e 08 b0 5a 3f
       0.8059639 0.55699235 0.2278285 0.8542485
000010 ca 44 92 3f b3 b6 93 3f 4e 9f 8c 3e 09 52 a7 be
       1.1427243 1.154013 0.2746529 -0.32679775
000020 75 ba 45 3f 0e b1 3f 3f a8 88 54 3f e5 42 8e be
       0.77237636 0.7487954 0.8302102 -0.2778541
000030 d3 44 4a 3f 75 63 14 3f 13 74 10 3e 4a 76 01 3f
       0.7901127 0.5796426 0.14106779 0.5057112
000040 9f cd 32 3f f6 86 39 3f 3e f7 ed 3e 2e 45 60 3f
       0.69845 0.7247156 0.46477693 0.8760556
000050 70 1b a1 3f d0 a1 77 3f c2 6a 5a 3f 1d 49 75 3f
       1.2586498 0.9673128 0.8531915 0.95814687

bn1.bias f4 [24]
000000 92 6c 6d be dc b0 29 3d 38 0b 11 3d 65 7f 60 be
       -0.23185948 0.041428432 0.03541109 -0.21923597
000010 27 49 df 3d 0e cd 83 bd 13 f6 31 3d c3 b8 a8 be
       0.109026246 -0.064355955 0.043447565 -0.32953462
000020 8a 87 09 be 05 c2 d9 bc 5b 4f 92 bd b0 fb d7 be
       -0.1343061 -0.026581774 -0.07144042 -0.4218421
000030 4a 86 23 3e 1b 27 39 be 90 70 46 bd aa 9c 9d be
       0.15969196 -0.18081324 -0.04844719 -0.30783588
000040 ff 5c a2 bd 67 f2 44 3e 71 b4 b4 3d 1c 3a 36 3d
       -0.07927894 0.19233094 0.08823479 0.04448901
000050 f1 8e cc 3d 87 84 76 3d 31 35 49 bd 84 d4 d0 3a
       0.099882014 0.06018498 -0.049122993 0.0015932475

bn1.running_mean f4 [24]
000000 bc 8b b6 c0 59 c7 b1 bf 70 3a d4 3f 4c bc 5c 3c
       -5.7045574 -1.3888961 1.6580334 0.013472628
000010 b5 fc 13 3d 4e d1 18 40 70 3a d4 3f 4c bc 5c 3c
       0.036129672 2.387775 1.6580334 0.013472628
000020 0b 2a bd c0 79 59 b8 bf 50 fb d5 3f 96 f1 2f 3c
       -5.911382 -1.4402305 1.671732 0.010738751
000030 1c f8 51 3d c1 d6 16 40 50 fb d5 3f 96 f1 2f 3c
       0.051262006 2.3568575 1.671732 0.010738751
000040 ef 02 c4 c0 05 0b bf bf e5 05 e4 3f 0c 94 dc 3b
       -6.125358 -1.4925238 1.7814299 0.0067315158
000050 6b a3 56 3d bc 8d 13 40 e5 05 e4 3f 0c 94 dc 3b
       0.05240194 2.3055258 1.7814299 0.0067315158

bn1.running_var f4 [24]
000000 d2 ce 21 41 a4 49 2c 3f 11 76 fb 42 1a db 46 40
       10.112993 0.67299867 125.7306 3.107123
000010 00 48 09 42 4a 72 95 40 11 76 fb 42 1a db 46 40
       34.320312 4.6702013 125.7306 3.107123
000020 2f 3f 15 41 e4 1b 21 3f d4 3a 01 43 d4 c2 4a 40
       9.327926 0.6293318 129.2298 3.1681414
000030 f9 62 12 42 0a fd 9d 40 d4 3a 01 43 d4 c2 4a 40
       36.596653 4.9371386 129.2298 3.1681414
000040 54 77 05 41 50 cd 13 3f ec 8f 04 43 13 e5 54 40
       8.341633 0.57735157 132.5622 3.3264816
000050 48 b2 1c 42 38 68 ad 40 ec 8f 04 43 13 e5 54 40
       39.174103 5.418972 132.5622 3.3264816
