checkpoint_critic_best_agent_max.pth (torch_old, 82441 bytes, 9 tensors)

fcs1.weight f4 [128, 24]
00000000: 901d 9f3d 5d9e 99be b5ef b63e 162c cabc
00000010: 1f80 abbd d8f0 39bd ea8a 923e 6f4e 303e
00000020: 1429 2cbe 47b5 5ebc e351 4f3d 6369 e9bc
00000030: 3284 05be 3994 babe e4db 86be 1279 09be
00000040: 146a e0bc a1c2 243e ca41 053e 8b83 f8bc
00000050: e357 123e 5e4d a23e 090c 063e 02a7 e7bc
00000060: d4ba 9f3e 13d3 993c 1c83 01bf f185 613c
00000070: 83dc 11be 7858 a1bd e84b c7be 175e bbbc
00000080: aa17 2d3d 69ab ecbc 0c1f 54bc 0d3d 30bd
00000090: b457 27bd 86ca e2bd a66d 343d 3a43 a6be
000000a0: 1c99 75be 17a2 a03d 673b dd3e b59e c83d
000000b0: a580 2b3e b222 103e 4350 e23e 0e56 07bd
000000c0: f691 193f 8c99 bdbd 6f1a 11be 3ee8 2d3d
000000d0: 1e0f c1bd 4e13 28be 7e9a b1bd 9b5e 92bd
000000e0: 2e95 073e 2e77 07be fa51 a3bd 8cce 413d
000000f0: ccf5 6a3d 648c 26bd 7b14 17be 7553 cb3d
00000100: a083 893e 81e4 d9bd 86f5 a73e f290 46be
00000110: 89c8 cebd da21 0ebe 0d05 a63e d47a 39be
00000120: 1b2d 89bd 5939 b9be 95fe b3bd bea1 2bbd
00000130: 30b1 c2bc 86dd 313d f0ab cabb f540 acbd
00000140: 9042 dbbc 20e0 2abd 77a5 ce3c 6aa9 843d
00000150: 11fd a5bd 4d31 823e bcd3 de3d 4344 9d3d
00000160: fe69 673e fe51 15be 75a7 d43d 1666 ac3e
00000170: 2d18 763d 773a 8bbe 31f0 a83d ca3e 773e
00000180: cf2a 3dbe ee17 bebe 895f a13d 5283 a3bd
00000190: 093a e3bc fca2 e73d e466 803d f784 bb3d
000001a0: 380a 28be 840c 25be 1f78 2c3d a24c 073d
000001b0: f8fc 11be 1414 a63d b974 2cbd f265 b33e
000001c0: 1e50 e4bc ad5c 99bd f90f 1cbd 9e0f 663e
000001d0: 5faf 49bd c735 163e 9f11 813c 58d3 8a3e
000001e0: b208 d53e bcb1 25be fc73 4abe 2837 803d
000001f0: 9522 8abe d491 15be a777 1ebe 89fa 21be
00000200: 0caf cb3e 5a34 033d faff 2b3d 51c0 d0bd
00000210: 2076 1bbe 88d0 c03d 0ef7 133e 7acb dabe
00000220: ccb1 c93e 9eac 3d3e a106 4dbe dfc0 ad3e
00000230: 9072 763d b87f 90bd c64a 24be a58e b63e
00000240: 8280 3fbd 490f 88be 842f ddbd e8f0 22bd
00000250: ff6f 7b3d c849 d6bd cc33 28be 7747 843e
00000260: 3af5 0c3c 1d34 e5bc 3468 223c 1032 fa3d
00000270: 8be6 893d fb36 0b3e b569 72bd ecf9 143e
00000280: f373 c13d 2e8b 693d f819 b4b9 00ee 61be
00000290: 464c 8a3c adeb a93e 4f8f 283d 194c 89be
000002a0: 5d26 b33d c2b0 db3c 0d0f 1abd 16bb 853b
000002b0: 8ebe 37be 4670 46be 4bb4 99bc 6154 343e
000002c0: 03e6 873c 2e7e 67bd 6f9e 09bb 15d9 c23c
000002d0: 06d0 663e 7c9e 363d f76e 86bd 3d63 5a3e
000002e0: dec5 6bbe c2e8 6a3e d5c7 8a3d 4639 883d
000002f0: 3412 983e 2250 f6be 0653 39bc f12a e13d
00000300: f5fe c03e 54e3 b23e 928c 94bc a358 10bd
00000310: 3312 39be 79f6 e8be 9d92 0ebe 1675 5c3d
00000320: 25b5 ff3d 3e2e 7fbc a777 62bd 1974 c43d
00000330: 5153 97be bf16 fcbd 5cd3 a73e 06dc 843e
00000340: eb44 91be f983 c1be a2d6 933e cec5 a53d
00000350: 25d6 8cbd 99f2 1c3f a465 7b3e ef7c 8d3b
00000360: f88f e93e cfbe 0c3e 3539 533e 78fb 233c
00000370: ab78 07be e3e2 853e d805 d53d 6904 5abc
00000380: 7c84 cd3e 81b6 8b3d 64f3 95bd 1510 003e
00000390: 7d6f c83c c0e3 bf3d 01b9 15be 9451 393d
000003a0: b19b 24be 15d0 dcbd 6436 85bd 7bc5 523e
000003b0: 32fe 3abc c74e a7be 2db2 c8bd a66f 8a3e
000003c0: 5b53 feba 1713 ed38 79a7 58be bbd1 a53d
000003d0: 02cd ba3d 3eb0 eebd 2aa0 6dbe e387 bdbe
000003e0: d160 28bd 37eb 4abd 6d6c a8bd 231d 57bd
000003f0: a540 d8bd 37f8 b2bd c3ff 4fbe 7ae3 18be
0.077693105 -0.30003634 0.35729757 -0.024679225 -0.083740465 -0.045395702 0.28621608 0.1721742
-0.16812545 -0.013593025 0.050615203 -0.028492635 -0.1303871 -0.3644121 -0.26339638 -0.13425091
-0.027394332 0.1608987 0.13013378 -0.030336162 0.14291339 0.3169965 0.13090529 -0.028277878
0.31197226 0.018777406 -0.5059068 0.013764844 -0.14244275 -0.07878202 -0.389251 -0.022872014
0.042258896 -0.028890328 -0.012946855 -0.043026973 -0.040855125 -0.110737845 0.04404988 -0.32473165
-0.23984188 0.07843416 0.43209383 0.09795896 0.16748293 0.14075735 0.4420186 -0.033041053
0.59988344 -0.09257802 -0.1417024 0.04245781 -0.094267115 -0.16413614 -0.08672045 -0.07146951
0.13240501 -0.13229057 -0.0797462 0.04731612 0.057363316 -0.04066123 -0.14753906 0.099280275
0.26858234 -0.10639287 0.32804507 -0.1939123 -0.10096843 -0.13880101 0.32425728 -0.18113261
-0.06698056 -0.36176565 -0.08788792 -0.041902296 -0.02376613 0.04342415 -0.0061850473 -0.08410827
-0.026765138 -0.04171765 0.025225384 0.06477626 -0.08104909 0.2542824 0.10880229 0.076790355
0.22599027 -0.14582059 0.103835024 0.33671635 0.06008165 -0.27193043 0.08248938 0.24145046
-0.18473361 -0.37127632 0.0787955 -0.07984032 -0.027737634 0.11310384 0.06269625 0.091562204
-0.16410148 -0.16118056 0.042106744 0.033032067 -0.14256656 0.08109298 -0.042103503 0.35038716
-0.027870234 -0.074883796 -0.03810117 0.22466895 -0.049239513 0.14668952 0.015755473 0.27114367
0.41608196 -0.16181082 -0.19770807 0.0626052 -0.2697951 -0.1460641 -0.15475331 -0.15818228
0.39781988 0.03203235 0.041992165 -0.101929314 -0.1518178 0.09414774 0.14449713 -0.42733365
0.3939346 0.1852288 -0.2002206 0.3393621 0.06016785 -0.070556104 -0.16044149 0.35655704
-0.046753414 -0.26574162 -0.108000785 -0.039780527 0.061386105 -0.104632914 -0.16426009 0.25835773
0.008603388 -0.027978951 0.009912539 0.1221658 0.06733426 0.13595192 -0.05918284 0.14548463
0.09445944 0.057017498 -0.00034351624 -0.22063446 0.016882073 0.3318762 0.041152295 -0.2681587
0.087475516 0.026817683 -0.03761201 0.0040811403 -0.17943785 -0.19378766 -0.018762728 0.17610313
0.01658917 -0.05651682 -0.0020998975 0.023785153 0.22540292 0.044584736 -0.065641336 0.21326919
-0.23024699 0.22940353 0.06776396 0.06651549 0.29701388 -0.4810801 -0.011311298 0.109945185
0.37694517 0.34939063 -0.018133435 -0.03524078 -0.18073349 -0.45500544 -0.13923116 0.0538226
0.124857225 -0.01557499 -0.05528989 0.09592456 -0.29555753 -0.12309026 0.32778442 0.25949115
-0.28372893 -0.37796 0.2887469 0.08094369 -0.06876782 0.61307675 0.24550492 0.0043178718
0.45617652 0.13744663 0.20627292 0.010008685 -0.13229625 0.26149663 0.10401505 -0.0133067155
0.4014014 0.06821919 -0.07321814 0.12506135 0.024467224 0.09369612 -0.14621355 0.045243815
-0.16075017 -0.10781876 -0.06504515 0.20583145 -0.011413144 -0.3267729 -0.09799609 0.27038306
-0.0019403504 0.000113045964 -0.21157636 0.080966435 0.091211334 -0.11654709 -0.23205629 -0.37017736
-0.041107956 -0.049540725 -0.082238056 -0.05251802 -0.10559205 -0.087387495 -0.20312409 -0.14930525

fcs1.bias f4 [128]
00000000: ad07 953d b93d ab3d f370 a9be 1e4f 80bd
00000010: f442 0dbe ac00 70be 2c40 853d 2b4b 9dbe
00000020: 5402 88be 7140 c5bd f803 9bbd 4854 3c3a
00000030: beb9 dc3c 4bb2 29bd 8902 e33b 10b8 50be
00000040: 6f9a f9bd f3ba 49bd a993 00be cbe8 90bc
00000050: 3145 7d3c c284 d13c 529e 26be 0d55 15be
00000060: 54f0 90be a65c 98bd 97a0 4dbe 1611 e7bd
00000070: 56c9 03bf 8c55 b9bd 3718 93bd 0b4a 12be
00000080: 5d2e 6ebd 54ef 85bd b03c 86be b84a b43c
00000090: 1c59 4dbd 514d a03d 6c58 aebe 57d2 c5be
000000a0: d0c3 90be 5b87 96bd 1b8f 2c3d d48c 78be
000000b0: d0bf bebd 65b2 ab3c 2473 50bd de41 7dbe
000000c0: 3d88 533e c61c 89be d369 15be 5f3d aebe
000000d0: 6e7e 53be 7905 b9be 748d 8abc d22e 14be
000000e0: cded 01bb 51ca 2dbd adb4 50be 49ed f5bc
000000f0: 2ee3 03bd 88d6 0fbe 4aac 7a3d 98f4 993d
00000100: 8619 c13d 1922 febc 2b08 21be c1d0 88bd
00000110: ab12 8bbd 0ea5 1a3c 5ed5 9f3b c467 9a3c
00000120: 14ec 28be c852 03bf 25f7 d6be 5803 84bd
00000130: 6d8b d2be e694 88be 366e 02be 335b 7abb
00000140: 6c97 02bf b5ac e3be 22b4 50bd 058c 22be
00000150: 208d cd3d 7483 7c3d ef26 00be 8845 9bbd
00000160: 72bf 463c 43b5 aebd 5a1c 51be 3b70 81be
00000170: dde2 c3bd bf72 41bd 0c13 7b3c 8059 c4bd
00000180: 3fb2 debe ff3e 3fbd 41c2 a0be 5643 c03c
00000190: 6100 e6bc f064 c0be cf59 a7bd ee32 70bd
000001a0: 36c1 cdbe 1412 123e 18a4 51bd fbfa ddbe
000001b0: aad7 d7bd b52e 32be 9d4b 91be ad01 3abe
000001c0: c48f 8bbd 1e1b 4c3e 5000 99be 263e f8bd
000001d0: db16 d2bd 3113 e8bd 9655 b5bc 5028 92be
000001e0: bcea 07bd 5b13 7bbd 5df7 b8ba dfa9 873d
000001f0: 7a28 88be a62c e3bd eade 053d 8065 5ebe
0.07276855 0.08361382 -0.33093986 -0.062650904 -0.13795072 -0.23437756 0.065063804 -0.3072141
-0.26564276 -0.09631432 -0.07569116 0.000718419 0.026944038 -0.0414298 0.0069277924 -0.20382714
-0.12187659 -0.049250554 -0.12556328 -0.01768913 0.015458391 0.025576 -0.16271332 -0.14583226
-0.28308356 -0.07439546 -0.20080791 -0.11282556 -0.5147909 -0.0904952 -0.07182353 -0.14286058
-0.058149684 -0.06539789 -0.26218176 0.022008285 -0.05013381 0.07827247 -0.34051836 -0.3863704
-0.28274393 -0.07350036 0.042128664 -0.24272472 -0.09313929 0.020959089 -0.050891057 -0.24732158
0.2065744 -0.26779765 -0.1459115 -0.34031197 -0.20653698 -0.36136988 -0.016913153 -0.14470986
-0.0019825578 -0.042429272 -0.20381422 -0.030020373 -0.032199077 -0.14046681 0.061199464 0.07517356
0.09428696 -0.031022118 -0.15725772 -0.06680442 -0.0679067 0.009438766 0.0048777303 0.018848307
-0.16496307 -0.5129819 -0.4198543 -0.0644595 -0.41121998 -0.266761 -0.12737355 -0.0038201332
-0.510123 -0.44467703 -0.050953038 -0.15873726 0.10036683 0.0616488 -0.12514852 -0.075816214
0.012130605 -0.08530667 -0.20420972 -0.25280938 -0.09564755 -0.04722857 0.015324365 -0.09587383
-0.43495366 -0.046690937 -0.31398204 0.023469608 -0.028076353 -0.3757701 -0.081714265 -0.05864232
-0.4018647 0.14264709 -0.051181883 -0.43355545 -0.105391815 -0.1740063 -0.28378 -0.18164702
-0.068145305 0.1993222 -0.2988305 -0.12121229 -0.102582656 -0.113317855 -0.022135537 -0.2854638
-0.033182845 -0.061297756 -0.0014111806 0.06624197 -0.2659338 -0.110925004 0.03268329 -0.21718407

fc2.weight f4 [128, 130]
00000000: 62e8 fa3c d950 f9ba ba8b 243c bb88 613c
00000010: 01fe d8bd e14a 343e 2447 9dbe 9521 91bf
00000020: 6d33 2cbe 9445 5fbe 517c b5bd 9734 0abe
00000030: d0d4 87be 2f83 81bc 1dfa 223e c4b4 5e3d
00000040: 781d 70be 2cf4 b7bd 2ccb 703e 1e8a 04be
00000050: 3b98 53bc 0f46 333d 38eb 213f 7ef8 b73e
00000060: 3114 013e e761 eabe 11cc 9b3d c791 b7bd
00000070: 29cf 6dbe d008 87bd 1c95 ebbd da2f 6ebf
00000080: a1c0 03be 727e 253e 298a b0bf 01c3 f13d
00000090: ba36 a9bf e127 de3c fe67 28bd 2171 79bd
000000a0: 3f3e 9bbd 2262 af3e 9718 d63e 9783 333d
000000b0: f55d 1bbe 6eb5 f5be 3d77 f33c d858 2c3c
000000c0: 7fac 363d 22d6 93bf 0056 16be 5850 01bd
000000d0: a17a 9b3d c235 1ebe 0ed4 e93d 4b24 263e
000000e0: bfe1 dfbd b48b e13d c0fd a1bf 7b75 c3be
000000f0: 4a79 67be 7da6 a93e ec65 6bbe e5c7 52bd
00000100: aa33 67bd 63ab 793c e6f4 11c0 188b 6bbc
00000110: 0a88 393e efd7 89bd f232 97bd 8630 3f3e
00000120: 892a 9bbe d71f 87bd 413a 103e b176 60bf
00000130: c219 c1be 2d6d f33c 23f6 a0bd 90d9 bdbd
00000140: 6614 22bf e030 483e e5b6 703e 1ad5 f4bc
00000150: afdb a2be 1818 be3d 5263 48be 4792 a0be
00000160: 8e38 7dbd 88e7 9fbd 4371 c83e 20e9 a5bf
00000170: ac62 1ebe ca4e 913d 8cf1 133e ff5a 9bbd
00000180: e77e d1be 042a d9bd 18b2 d2bf 10a6 453e
00000190: ed51 edbc f7a1 38bf 4147 223e 8710 023f
000001a0: 54f5 a9be 25e2 ce3c 8f30 c03c 16af 65bc
000001b0: 7ad5 2e3e a6c6 b33d 054d 8abe 81d6 60be
000001c0: b7d4 ad3d 9380 f4bb eb09 e8bd c8b9 25be
000001d0: e2cf 8a3e 304f b93c edd7 16bf 2a00 efbd
000001e0: a7ad b73c c862 2f3d b3f8 0b3c b572 d3bc
000001f0: 9d64 4ebe 3677 cabc d344 18bd f139 90bd
00000200: 06d2 d8bc e92f 08bd 59dd debc b437 31be
00000210: daf1 713e cece e63d b12d e1be 8440 283f
00000220: 457c 63be bcec a1be 119f 853d aa86 89bd
00000230: ad86 c4be 3533 dabe 5cf6 3a3f ad85 ffbe
00000240: b8bd fa3c 807b d93d ae36 99be 7e4c 44bd
00000250: eaa0 be3d ba2e 693e 11c1 6dbd fed0 503d
00000260: ad58 01be 966e 2bbf 232c 42bf 2925 9bbe
00000270: 975b c9be 6a90 4bbf 4e39 2bbf 2636 fe3e
00000280: 1701 22bd 5baf 793b fc96 49be 7b4c 393d
00000290: 7a33 a13e a2a7 d03c b143 f43d 0627 cdbf
000002a0: 59b7 4abf 5843 abbe bae4 883e 634c 843e
000002b0: 591c dabd c108 e73e 7216 06bf 1f6c ac3d
000002c0: d58a 513d 0dde 5ebe d3e3 703e fd96 9c3e
000002d0: e2e9 a8bd d87d 09bf fb22 ecbd c45f a0be
000002e0: d933 3bbf f5b0 61bf 220c 98be 63ae de3c
000002f0: b82d 1e3d 2d7c df3b e88c 843e 8bd1 b5be
00000300: 77f9 31be 45ef 0d3e 1f0e 433e 02cc adbf
00000310: 6abf afbe 874d 453e 4e51 6abd 86b1 1abd
00000320: 55a7 e9be 6d55 0e3e 64b0 5c3e 4765 b7bf
00000330: 69e3 a5bf b725 08be fae4 bfbe 30e9 1fbe
00000340: e3b1 033f 8c59 07be 90ac 21bf dc6f 7ebd
00000350: d957 a23d 8f88 973e e343 e5bf 0584 3bbf
00000360: 5a3b 3ebe 55c0 b63d 11ea a6bd d66e 78bf
00000370: 0668 4dbe 244c 77be e5bf 3fbe 473b 903e
00000380: 6d49 0fbf 1361 48be fe83 bcbe c92c 90bc
00000390: ea28 9abe a0de ccbc b0e0 87be e760 86be
000003a0: 857e 14bf 9fba 9abe 7471 813e 31cd 7abe
000003b0: b061 77bf 3ef7 cbbe cf1f 07bf 0ee3 e1be
000003c0: 786c e13d 5989 42be c710 aa3d e95d 58bd
000003d0: f5f6 933e 04bb 1d3c 27e7 833e 900f 883e
000003e0: 7221 41bf 8a6b 2fbe dd14 18be a826 dd3c
000003f0: e2da 6e3d b5b2 bc3e d15b f23d ed86 90be
0.030628387 -0.0019021287 0.010043079 0.013765509 -0.105953224 0.17606689 -0.30718338 -1.1338373
-0.16816492 -0.21803886 -0.08861602 -0.13496624 -0.2652955 -0.015809624 0.15915723 0.05437161
-0.23448741 -0.08982119 0.23515004 -0.12943313 -0.012914713 0.043767985 0.6324954 0.35931772
0.12605359 -0.4577782 0.07607282 -0.08963352 -0.23223557 -0.06593478 -0.1150305 -0.93041766
-0.12866451 0.16161516 -1.3792163 0.11804772 -1.3219826 0.027118625 -0.0411148 -0.060898904
-0.07580232 0.34254557 0.41815636 0.043826666 -0.1517256 -0.47989982 0.029719943 0.010519229
0.0445981 -1.1549723 -0.14681244 -0.031570762 0.07591749 -0.15450194 0.11417399 0.16224782
-0.109317295 0.110129744 -1.2655563 -0.38175568 -0.22604862 0.33134833 -0.22988099 -0.051460166
-0.056445755 0.015238616 -2.2805724 -0.014376424 0.18118301 -0.06730639 -0.07382764 0.18670854
-0.3030589 -0.0659787 0.14084722 -0.8768111 -0.37714964 0.029715145 -0.07859447 -0.092700124
-0.63312376 0.19549894 0.23507269 -0.029886771 -0.3180823 0.09281939 -0.19569138 -0.313616
-0.061821513 -0.07807833 0.39148912 -1.2961769 -0.15467328 0.07095106 0.14447612 -0.075857155
-0.4091713 -0.10603717 -1.64606 0.19301629 -0.02896973 -0.7212214 0.15847494 0.5080647
-0.33194983 0.025254318 0.023460655 -0.0140187945 0.17073622 0.087781236 -0.27011886 -0.21956827
0.08487838 -0.0074616163 -0.11330017 -0.16184151 0.27111727 0.022620767 -0.58923227 -0.11669953
0.022421671 0.042818815 0.008543181 -0.025811533 -0.20155568 -0.024715047 -0.03717501 -0.070423014
-0.026467334 -0.033248816 -0.027205156 -0.17306405 0.23627415 0.112699136 -0.43980172 0.65723443
-0.22215374 -0.31625926 0.0652448 -0.06715138 -0.38384 -0.42617193 0.73032165 -0.49906674
0.030608043 0.10619259 -0.2992453 -0.04792451 0.09308036 0.22771731 -0.05804545 0.05098056
-0.12631483 -0.66965616 -0.758486 -0.30301788 -0.3932769 -0.79517233 -0.66884315 0.49650687
-0.03955182 0.0038098905 -0.19686502 0.045238953 0.31484586 0.025470559 0.119269736 -1.6027534
-0.79186016 -0.33449817 0.26737005 0.25839528 -0.10649938 0.45123866 -0.52378 0.0841906
0.05115779 -0.21764393 0.23524408 0.30583945 -0.082477346 -0.5370765 -0.115301095 -0.31323063
-0.7312599 -0.8816064 -0.29696757 0.027182763 0.03861782 0.006820223 0.25888753 -0.3551143
-0.1738032 0.13860805 0.19048356 -1.3577883 -0.34325725 0.19267856 -0.057206444 -0.037766956
-0.45635477 0.13899775 0.21551663 -1.4327782 -1.2960025 -0.13295637 -0.37479383 -0.15616298
0.5144331 -0.13217753 -0.63153934 -0.062118396 0.07926912 0.29596373 -1.7911342 -0.7324832
-0.18577328 0.08923403 -0.081501134 -0.9704412 -0.20059213 -0.24150139 -0.18725546 0.28170225
-0.55971414 -0.19568281 -0.36819452 -0.01759948 -0.3010934 -0.0250085 -0.2653861 -0.26245806
-0.58005553 -0.30220506 0.2528187 -0.24492337 -0.96633434 -0.39837068 -0.5278291 -0.4411854
0.11007017 -0.18997706 0.08303981 -0.052823935 0.2889935 0.0096271075 0.25762293 0.26574373
-0.7544166 -0.17130867 -0.14851709 0.026995972 0.05831421 0.36855093 0.11833919 -0.2822794

fc2.bias f4 [128]
00000000: 3028 043e f8f9 6b3d 3690 8fbd 866b d7bd
00000010: 30ff 3bbd 17c2 dd3d 01bb b0bd ba60 80bd
00000020: 521c 3dbe 0f95 833d c399 ab3c 0cc3 56be
00000030: bee3 103e c7f9 20bd 00c9 b5bd 90c7 33bd
00000040: 9cf4 d4bd a390 bfbd a851 aebe 8042 9cbc
00000050: 9cdd ebbd ed2e d3bd f722 ae3d 3463 6bbe
00000060: d845 0ebe 4e8a a03d 9f1e b2bd ad98 6dbc
00000070: 2efb d6bc 4b39 a3bd 5c7b b43c c74d 5f3d
00000080: 691a c4bd fed0 833d 1595 ff3d e82b c7bd
00000090: ca17 8abe c5f6 063e c87f 8a3b 961c 77bd
000000a0: 57ae 02be 1ee3 bb3d 23fb acbc 3c73 003d
000000b0: 6d78 863d 5b2c 93bd ce0d 98bd 713c 08be
000000c0: 38a9 bfbd c6de b1bd 69ac da3d 30fa a43d
000000d0: bde9 8dbe 01e0 c3bd 98fc 5c3a 9a9b 27bd
000000e0: 732b babd b6d1 ee3a 23ee ad3d cbd2 e4bc
000000f0: 7fab debb d1da c7bd fa50 5b3d edde 5dbc
00000100: b63e 8cbd 3004 093d a6ed d6bd 3d66 d73d
00000110: 3d09 60bc 1163 a53d 1358 883d 0f2e 01be
00000120: 3e5e 9b3b 56b1 dbbd 1f0e 973d 7853 7cbd
00000130: 20e8 a7bd acba dc3c c6d5 adbd 42d5 edbd
00000140: 6f6c 563c 0105 b93d 524e bcbd 641e 4abb
00000150: eb0d f63d ec9e 25be 99d4 bbbd fc4d c6bc
00000160: fdd3 403e e2f4 b2bd 2035 f6bc 1f27 cdbd
00000170: 8a26 14bd 9273 cabd 1580 4c3d a0b0 f8bd
00000180: c025 89b8 2213 a1bd e310 8fbd 041d 07be
00000190: 5652 163d 7696 c53d bc4d 963d c98e 0c3c
000001a0: bbcf df3d b784 98bd 7075 d83c 809d 06be
000001b0: 15d0 f5bc ffe4 a13a 0639 e4bd 83ad 86bd
000001c0: edd2 77bd 6c4f e5bc 98f7 84bd a6ee febd
000001d0: 0a1e b4bd 4894 0e3e 8e23 90bd 1804 68bd
000001e0: 17fc bd3d a1cc edbd 9d56 1ebe d5d8 d7bd
000001f0: d02a b73d b27e 81bd 4c90 5ebc 8acb a5bc
0.12905955 0.057611436 -0.07009928 -0.10518555 -0.045897663 0.10828035 -0.08629418 -0.06268449
-0.18467835 0.06424915 0.020947343 -0.20972842 0.14149377 -0.039300706 -0.08876228 -0.04389149
-0.10398218 -0.09353759 -0.34046674 -0.019074678 -0.11516878 -0.10311685 0.08502763 -0.22987062
-0.13893831 0.078388795 -0.08697247 -0.014501733 -0.026242819 -0.07969912 0.022031479 0.054517534
-0.0957535 0.064363465 0.12479607 -0.09725171 -0.26971275 0.13180073 0.0042266585 -0.060329996
-0.12761818 0.091741785 -0.021115845 0.031359896 0.06565938 -0.071861945 -0.07424508 -0.13304307
-0.09358448 -0.08685069 0.10677416 0.08055532 -0.2771739 -0.0956421 0.00084299734 -0.040919878
-0.090903185 0.0018220458 0.084926866 -0.027932545 -0.0067953463 -0.09758533 0.053544022 -0.013541919
-0.06847899 0.03345126 -0.104945466 0.10517547 -0.013674078 0.08075536 0.06657424 -0.12615226
0.004741459 -0.107271835 0.0737574 -0.06160304 -0.08198571 0.02694448 -0.0848804 -0.11612941
0.013087376 0.090341575 -0.09194626 -0.0030840868 0.120143734 -0.16173905 -0.09171409 -0.024207108
0.18830867 -0.08738114 -0.030054629 -0.100172274 -0.036169566 -0.098853245 0.049926836 -0.121430635
-6.5397006e-05 -0.078649774 -0.06985643 -0.13194662 0.036699615 0.09647839 0.073390454 0.0085789645
0.10928293 -0.07447188 0.026423186 -0.13146019 -0.030006448 0.0012351571 -0.11143689 -0.065760635
-0.06050389 -0.027991973 -0.06492537 -0.12447862 -0.08794792 0.13923752 -0.070380315 -0.05664453
0.09276598 -0.116112955 -0.15462728 -0.10539404 0.08943713 -0.06322993 -0.013584208 -0.020238657

fc3.weight f4 [1, 128]
00000000: 03e4 8f3d 97bb 8cbf 6340 7cbc 6339 b53e
00000010: c5d8 2bbf b57e 6abd 17e5 cdbc 54f4 e13e
00000020: 2fdb 51bf ab10 8b3e 50ad f4bd f34f b2be
00000030: 6e9f b03d ab03 343b fc0d 4f3f 5993 943a
00000040: 4c6f 4cbe 8329 653c 5c1b ec3e 3393 c83e
00000050: 2e6e 123d a1ce bcbe bb8e 013e e384 dcbe
00000060: a096 2abf 0a5c 113e 7b00 29be d19c 303e
00000070: 6ebd 83be c4ba 6cbd 27f2 adbe 9b4d bfbd
00000080: c70e ce3b dd9b 00be d1da 123e e221 fe3a
00000090: 529c e1be b6b4 dabd 6440 12be 68e7 bf3e
000000a0: db25 85bc b873 e63d 709b 7f3c 74eb c4bd
000000b0: 9292 b0bd aa90 fab9 8cb8 553c 73f3 4ebe
000000c0: 21d3 bfba 9c90 d6be f3b1 013e 5cee cd3d
000000d0: 9bd6 e4be 0182 6fb9 e63f 153e 513f e1bd
000000e0: 3eee d3bb 5d7d 8bbe 27bf 063e 8b2c 103e
000000f0: 7cf8 10be 6116 cfb9 ed05 c43d 16c1 163f
00000100: d653 1cbf 6d6f 843e 9f68 39bc 5115 80bd
00000110: cac9 203f d912 f1bd f85b 123e e9bc 9dbb
00000120: 9f61 313e e1ef 2abf 11c2 103e 0a24 a63b
00000130: 0f2c cdbc 98e1 2fbf fcf3 c8b9 3b0f 013f
00000140: ea78 a8be c44f d43e 6e28 913f d84e 16be
00000150: cfc8 2c3e c382 8cbf a60f 283e 882f 0e3c
00000160: 4c35 24be 7fb2 a53c f122 15be 0746 47bb
00000170: ba26 8ebd 5c74 d93c 1553 073e a106 ea3c
00000180: 94c2 afbe f098 36be 8cd1 c3be d426 09bf
00000190: e0e6 523e a00b 5c3d e386 1fbf 889d e9ba
000001a0: 08fe 38bf 1fb7 9bbd bb49 4a3e ec6b 0eba
000001b0: f80d 85bc 72e5 f53d fb09 1bbc fa4c 95be
000001c0: ee70 91bb dd0c e1bd 13f9 b7ba 3c91 0c3c
000001d0: 3180 abbe ce9b 013d 7315 2abb 97e0 5039
000001e0: a402 12bf 2e8c 233b 6dd9 0cbf 463e a3bc
000001f0: c285 723e 8c6e 1bbf 1e9f 6bbd de9f 43be
0.07025912 -1.0994748 -0.01539621 0.35395345 -0.6712764 -0.057249743 -0.025133653 0.4413172
-0.8197507 0.27161154 -0.11947119 -0.3482662 0.08624159 0.0027468007 0.80880713 0.0011335417
-0.19964331 0.013986948 0.46114624 0.39174804 0.035749607 -0.36876395 0.12652104 -0.43070135
-0.66636086 0.14195266 -0.1650409 0.1724732 -0.2573046 -0.0577953 -0.3397381 -0.09340974
0.0062883827 -0.12559457 0.14341284 0.001938876 -0.44064575 -0.10678999 -0.14282376 0.37481236
-0.016253402 0.1125254 0.015601024 -0.096152216 -0.08621706 -0.000477915 0.013044488 -0.20210056
-0.0014635065 -0.41907203 0.12665538 0.10055229 -0.4469498 -0.00022841246 0.14575157 -0.10998405
-0.0064676097 -0.27244082 0.13158856 0.14079492 -0.1415729 -0.0003949879 0.09571443 0.58888376
-0.61065423 0.2586626 -0.0113164475 -0.06254066 0.62807906 -0.11771173 0.14292896 -0.0048137796
0.17322396 -0.66772276 0.1413653 0.005070214 -0.025045423 -0.68703604 -0.00038328755 0.50413865
-0.3290475 0.41467106 1.1340463 -0.14678514 0.16873477 -1.0977405 0.1641222 0.0086783245
-0.16035956 0.020226715 -0.1456411 -0.003040673 -0.0694098 0.026544742 0.13215287 0.028567614
-0.3432814 -0.17831779 -0.3824581 -0.5357487 0.20595884 0.053722024 -0.62315196 -0.0017823437
-0.7226262 -0.07603287 0.19754688 -0.0005432952 -0.016242012 0.12006654 -0.009462829 -0.2916029
-0.004438511 -0.109887816 -0.0014036022 0.008579548 -0.3349624 0.031642728 -0.0025952726 0.00019920092
-0.5703528 0.002495538 -0.55019265 -0.019927155 0.23683837 -0.60715556 -0.057524793 -0.19103953

bn1.weight f4 [24]
00000000: 85fc a03e 20c0 5c3e ce36 c33d d08a 9b3a
00000010: 4ca0 403f b824 153f 09d1 4d3c 701a 2c3e
00000020: 7763 013d b7b4 863b a592 883b 507b 61bb
00000030: 967b 003f e9af d83e a9e8 273e 7675 f83d
00000040: 3ba9 103f ec5c 963e 4d1f b53d fbc5 413e
00000050: a3ff 4c3f 539d 083f 0ab7 383e 6030 e83d
0.31442657 0.21557665 0.095319375 0.0011866931 0.75244594 0.58259153 0.012562045 0.1680696
0.031588998 0.0041108984 0.004167872 -0.0034405775 0.5018858 0.4232171 0.16397347 0.12131779
0.56508225 0.2936777 0.08843861 0.1892318 0.8007757 0.5336506 0.18038574 0.11337352

bn1.bias f4 [24]
00000000: 7c40 01be 6029 c03d 6263 bb3b a992 f13a
00000010: 8856 2c3e 03fc 453e d052 a13b 64c5 96ba
00000020: 1c9a 06bb 306c 7b3b c836 bfb9 e60c fcb9
00000030: cfac 9b3d a3ba 813d 4229 7ebc 74cb 53bb
00000040: c441 22bd 5b77 8fbd f82b aebc 83ed 1abd
00000050: a3b3 ae3d 86b7 af3d e910 cdbc e15f dabc
-0.12622255 0.09382892 0.0057186345 0.0018430549 0.16829884 0.19334416 0.004923202 -0.0011502919
-0.0020538634 0.0038364045 -0.00036471174 -0.00048074796 0.0760132 0.06334426 -0.015512766 -0.0032317312
-0.0396135 -0.07005187 -0.0212612 -0.037824165 0.08530357 0.08579926 -0.025032477 -0.026657047

bn1.running_mean f4 [24]
00000000: 8865 d2c0 0721 b3bf ce9e cf3f e89f f5bc
00000010: a2b4 2f3d 1985 1140 ce9e cf3f e89f f5bc
00000020: 9dd1 d5c0 3b2f b6bf 03c3 db3f 05fe 62bd
00000030: 0fe8 263d 8448 1140 03c3 db3f 05fe 62bd
00000040: 26bc d9c0 551d b9bf 991b dd3f 53a9 39bd
00000050: f73f 293d 1d32 1040 991b dd3f 53a9 39bd
-6.574894 -1.3994454 1.6220338 -0.029983476 0.042896874 2.2737486 1.6220338 -0.029983476
-6.6818376 -1.4233164 1.7168888 -0.055418033 0.040748652 2.270051 1.7168888 -0.055418033
-6.8042173 -1.4462076 1.7274047 -0.045327496 0.041320767 2.2530587 1.7274047 -0.045327496

bn1.running_var f4 [24]
00000000: 8ef2 3941 2950 323f fe5c 4f43 6f55 8240
00000010: edf0 eb41 9b8d 6940 fe5c 4f43 6f55 8240
00000020: 58e4 3041 33ff 2c3f a002 5443 c03d 8440
00000030: 4771 f441 9d31 7040 a002 5443 c03d 8440
00000040: 9039 2941 6627 263f 1eee 5843 9437 8a40
00000050: e9ce fd41 c389 7d40 1eee 5843 9437 8a40
11.621717 0.69653565 207.36325 4.072929 29.49264 3.649268 207.36325 4.072929
11.055748 0.67576903 212.01025 4.132538 30.555311 3.7530282 212.01025 4.132538
10.576553 0.6490387 216.93015 4.3192844 31.72603 3.9615333 216.93015 4.3192844
