checkpoint_critic_final.pth (torch_old, 82441 bytes, 9 tensors)

fcs1.weight f4 [128, 24]
00000000: 3be7 c53f 25e6 d1be 65ba 7f40 a0f6 81bc
00000010: fe50 5c3e b1fc d03e 459f 633d 817d cbbe
00000020: 9b8d 993d 5f28 c93d 59d6 013c 6fa4 363d
00000030: b5ac 2c3e dbdc 95bf b782 37bf 81ab fabe
00000040: 2a0a 82be 3beb 063f 52dc 863d bc34 b3bd
00000050: f497 453d 3100 8c3e 5d50 883e 974e 933c
00000060: 046d 2240 2eb7 1ebe 7e75 70c0 559e 063e
00000070: 44d6 1abf d255 9fbe 3f2e 4a3b c934 63bf
00000080: b4c8 b43d 3a7f ecbd 5d45 533e caab 0cbe
00000090: 08c0 6dbe 23de 51be cf9e b8bf 1465 cbbf
000000a0: 14fc 29bf b7c8 3abf ac4f 12be a70f ed3d
000000b0: 0c08 f03e 68c7 0d3e bf30 e53f 3728 7e3d
000000c0: d8f4 c13f ed21 b93e 7e8b 25bf 76b0 793c
000000d0: b562 633c 7073 63bc 8608 083e 5fc3 433c
000000e0: b23f 94bc 7fd4 11b9 3f04 c03d 39e9 96bc
000000f0: f743 173e 9b4f a0be 09c4 e5be f37b b83e
00000100: 0492 e33f 7f82 9f3e 80d4 00be 21e9 18bf
00000110: a015 b6be 4634 42bf acbd 1fbf a9c0 d23d
00000120: 5b62 f0bc 3b7c b9bf cd29 bfbe 2172 1b3d
00000130: 5cd3 51bd 2cb5 983e 7ee9 173e 27c1 a03e
00000140: ab01 6d3b 4839 f93c 93f1 8dbd 2697 92bc
00000150: 706e 713d 6f1f 233f 6223 41bf 3a8a e03e
00000160: 255a 103f a2cf 70be 0ff1 c239 d578 7b3f
00000170: dd45 123e b0e4 83bf ef59 d03f 6ff4 02be
00000180: 02a5 e53e ba57 34bf bd98 373d c32c 5a3d
00000190: 20d7 843e 7cbe 15bf d4ec 4fbd 138a 80bf
000001a0: a75f 24be cf44 503d a183 11bc 6ad2 95bc
000001b0: 35f3 5bbe f59f 07be d38e 253e ca0e 65bf
000001c0: 32b5 af3d db0a 653e 1192 2cbe 99a3 be3f
000001d0: 0083 b2be 875b 0c3f 66ce acbe 903d 38bc
000001e0: 26c9 2cbe 782e cebe d1f4 073f 65c1 073d
000001f0: 20ad 05bf 3b42 04bf f674 623d 3682 523f
00000200: db89 56bd ec49 713d af19 3a3d 1185 093e
00000210: 4473 4b3d c7d5 f33c 2357 213e 8965 4fbf
00000220: fd64 973f 28b3 ebbd 96dd 243c 118d 913f
00000230: f6f5 c43d 5185 31bf 6643 0e3f 1d75 b6bc
00000240: 4c4d e43e 4de0 083d 2a13 c7bd 8dea a63d
00000250: 86b1 6f3e 8c77 10c0 0a0f a83c cad4 5e3e
00000260: c643 38bc d5a5 063d 3707 303b 8186 74bc
00000270: 3d2e 423e 6dca 9a3d 15be aa3e 2e78 473e
00000280: 893b 21be c403 3bbe 95be cbbc dcdb a43e
00000290: b743 69be 1dc1 bf3f 4d55 243e 6627 ff3c
000002a0: 8445 80be 079b 4f3f b799 d83c 01fb ae3c
000002b0: 9ef7 16bf 1a38 c7be d27d 79bd 10c4 bebd
000002c0: 037d 19bd 1ea2 27bd 9a24 943c 434d 03bd
000002d0: 5009 c73e b64d d93d c475 70be 5140 3a3f
000002e0: f563 2ebf eea6 d73f 3df0 26bd 94f7 d03e
000002f0: aa62 093f c510 b5bf 73e0 81be 6ec6 1c3d
00000300: 1289 6640 985d c940 4528 d1be 9d32 07be
00000310: b16e 213f ecaa 55bf cef6 0e3e d705 fc3f
00000320: cb8b d13d ae87 bbbd f120 d4bd a12e 903e
00000330: 6e89 95bf 6ffa 3ebf 3237 2c3f 56d8 7140
00000340: bf21 77bf 3504 96c0 9ea7 d03d ec00 a93f
00000350: d8b3 7d3e 93b2 3f3f e52e 7a3f 89a7 4cbd
00000360: 7a31 d53f 22b1 b5bf a7ee c63f 7892 f9bd
00000370: ef53 afbe 699a 8b3f 6f16 00be 268e 9e3f
00000380: 38aa 2dbe 9339 963e 431a 3ebe 6474 b43c
00000390: 9268 5f3e c7e2 20be 50b2 16c0 8cff 163e
000003a0: d567 4fbf 0557 2cbf 14a0 883c a231 a03f
000003b0: f440 aa3d bf5f 03bf bbae fa3d a2bf 633e
000003c0: 889b 75bf 0051 353d e31a 71bf a752 21bc
000003d0: 0d56 a23e 7857 683f d444 d73d b953 fdbe
000003e0: 70c8 cf3d cbfe f1bd 05ca 053e 5185 f4bc
000003f0: fdb7 9fbe 41fb 87bf d6c3 febf 3177 a6be
1.5461191 -0.409959 3.9957516 -0.01586467 0.21515271 0.40817788 0.055571813 -0.3974419
0.07497712 0.09822153 0.00792464 0.04459041 0.16862758 -1.1708025 -0.7168383 -0.48958972
-0.2539838 0.52702683 0.065849915 -0.08750293 0.048240617 0.27343896 0.26623812 0.01798181
2.5379038 -0.15499565 -3.7571712 0.13146336 -0.60483193 -0.31120163 0.0030850319 -0.8875242
0.088273436 -0.11547704 0.20631929 -0.13737407 -0.23217785 -0.20494895 -1.4423465 -1.5890222
-0.66400266 -0.72962517 -0.14288205 0.11575251 0.4688114 0.13845599 1.7905501 0.06205007
1.5152845 0.36158696 -0.64665973 0.0152398255 0.013878514 -0.013882503 0.13284501 0.011948436
-0.018096779 -0.00013907439 0.0937581 -0.018421756 0.1477202 -0.31310734 -0.44876125 0.36032066
1.7778935 0.31154248 -0.12581062 -0.59730726 -0.35563374 -0.7586101 -0.6239879 0.10290653
-0.029343775 -1.4491037 -0.3733658 0.03795064 -0.05122696 0.29825723 0.14835164 0.31397364
0.0036164324 0.030422822 -0.06930842 -0.017894339 0.058943212 0.6371984 -0.75444615 0.43855458
0.5638755 -0.23516706 0.00037182166 0.9823125 0.14284463 -1.0304165 1.6277446 -0.12788557
0.44852453 -0.7044636 0.044823397 0.053265344 0.25945377 -0.5849378 -0.050762966 -1.0042137
-0.16052113 0.05084687 -0.00888148 -0.01828881 -0.21479495 -0.13244613 0.16167764 -0.8947569
0.08579482 0.22367422 -0.16852595 1.4893676 -0.3486557 0.5482716 -0.3375122 -0.011245146
-0.16873607 -0.40269828 0.53107935 0.03314342 -0.5221729 -0.5166356 0.055287324 0.82229936
-0.052377563 0.058908388 0.04543465 0.13429667 0.049670473 0.029765023 0.15755896 -0.81014305
1.1827694 -0.11508781 0.010062596 1.1371175 0.09617226 -0.6934405 0.5557159 -0.02227264
0.44590223 0.033417035 -0.09720452 0.08150206 0.23407564 -2.2572966 0.020514984 0.2176086
-0.011246627 0.032872993 0.002685977 -0.014924646 0.18962951 0.07558141 0.33348146 0.19479439
-0.15745367 -0.18263155 -0.02487115 0.3219899 -0.22779737 1.4980808 0.16048165 0.031146716
-0.25053036 0.8109593 0.026440484 0.021359922 -0.58971584 -0.3890999 -0.060911007 -0.0931474
-0.037472736 -0.04092609 0.01808386 -0.032056104 0.38874292 0.10610525 -0.23482424 0.7275439
-0.6812127 1.6847818 -0.040756453 0.40813887 0.53666174 -1.4145743 -0.25366554 0.038275175
3.602116 6.292675 -0.40851036 -0.13202901 0.63059527 -0.8346393 0.13961336 1.9689282
0.102317415 -0.09156738 -0.103578456 0.28160575 -1.1682565 -0.7460088 0.6727172 3.778829
-0.9653587 -4.6880136 0.101882204 1.3203406 0.24775636 0.7488186 0.97727805 -0.04996446
1.6655724 -1.4194682 1.5541581 -0.1218614 -0.34243724 1.0906497 -0.12508558 1.238713
-0.16959465 0.293408 -0.18564706 0.022028156 0.21817234 -0.15711509 -2.3546333 0.14745921
-0.8101781 -0.6732028 0.016677894 1.2515147 0.0831317 -0.5131797 0.122403584 0.22241071
-0.95940447 0.0442667 -0.9418165 -0.009846366 0.31706277 0.90758467 0.10511175 -0.49477938
0.10145652 -0.11816176 0.13065346 -0.029848726 -0.3119506 -1.0623552 -1.9903514 -0.3251281

fcs1.bias f4 [128]
00000000: 44a2 45bf 5761 34bf 82b3 94bf 1015 49bf
00000010: 90c2 1bbf 49a3 66bf 586e 8dbe 3d3f 2dbf
00000020: 3689 b2bf 001f 6cbf 9f1e ebbe 6ffd 83bc
00000030: 6331 cfbe 0d60 16bf 962c 17bf 290f 19bf
00000040: 68f7 a4be 7b0a 12bf 7538 07bf 7195 f3bd
00000050: 68c5 01bf 6dd3 1cbe 1f6b 0bbf fe82 08bf
00000060: 46e9 41bf 9d80 04be 3197 77bf d85e 58bf
00000070: bf03 70bf aecc a0be 6418 c8be 2c73 13bf
00000080: 3081 d1be 3445 0fbf 4f50 90bf f0cb 1fbf
00000090: e214 bdbe 7036 4ebf f46b 5dbf bb1d c2bf
000000a0: 3c1d 97bf 1678 c2bf 0fb4 1abd c8a6 4fbf
000000b0: e986 c4bf f7f5 ef3c 72e2 83be fd45 16bf
000000c0: b952 3d3e 90c7 31bf 832d 45be 17db 82bf
000000d0: a83e 69bf 171d 8abf 7cd8 ecbd 4b59 f9be
000000e0: 8710 f7be 7179 23be 3bf8 57bf 1698 133d
000000f0: 961f a3be 4123 46bf 01bc 303c 9a1b cc3d
00000100: 74f6 a63e 8828 e23c 47cc eabe 704b e7be
00000110: 52b2 4bbe 2b76 56bf 1148 90bd 9efb ebbe
00000120: 85fe f9be c002 ddbf fa45 a0bf 27af 04bf
00000130: 613a 8cbf 0533 91bf a631 3ebe d3b4 88be
00000140: aad0 56bf 7235 a9bf c7e1 51bf 6dcf 5ebf
00000150: 4d7b 003e a962 8f3d 6d6e 9fbd 7a9f eebe
00000160: 044f babe 1836 4ebe ec18 3bbf 91a7 cdbf
00000170: 0776 1bbf 2c04 a7bf 3a7c f9be 23bb 1cbf
00000180: 35f8 bbbf e720 c2be 00a1 fabe df5b 293d
00000190: 6a3e 88be 26e7 9cbf 757e 89bf c68e f8be
000001a0: 962c 0dc0 c7d5 353e 417e afbe 10b5 c1bf
000001b0: 1e50 f9be 5508 6bbf 6b2a a5bf beec 10bf
000001c0: 39c4 e1be ca22 ce3e 0639 81bf 5d28 d1bd
000001d0: 0f4f 67bf 0a6b 9bbe 459b 66be 21a2 f8be
000001e0: e073 0fbf 1d78 f0be 9232 9abe 74d6 ddbe
000001f0: c672 6ebf 6926 3dbf 45fe c33c 9cf7 84bf
-0.7720072 -0.7046103 -1.1617281 -0.78547764 -0.60843754 -0.90092903 -0.27623248 -0.6767462
-1.3948123 -0.922348 -0.459218 -0.016112057 -0.40467367 -0.5874031 -0.5905241 -0.5978876
-0.32220006 -0.5704724 -0.5282052 -0.11893738 -0.50691843 -0.15315028 -0.5446033 -0.5332488
-0.7574657 -0.12939687 -0.96715075 -0.8451972 -0.93755716 -0.31406158 -0.3908111 -0.57597613
-0.40918875 -0.5596497 -1.1274508 -0.6242056 -0.36929995 -0.80551815 -0.8649285 -1.5165323
-1.1805797 -1.5192897 -0.037769374 -0.81113863 -1.5353671 0.02929209 -0.25758702 -0.58700544
0.18488587 -0.69445133 -0.19255643 -1.0223111 -0.9111123 -1.0790128 -0.115647286 -0.48700938
-0.48254797 -0.15964295 -0.84363145 0.036033712 -0.31860036 -0.77397543 0.010787011 0.09966202
0.32609904 0.027607217 -0.45858976 -0.45174742 -0.19892243 -0.8377406 -0.070449956 -0.46090406
-0.48826995 -1.7266464 -1.2521355 -0.5182976 -1.0955316 -1.1343695 -0.18573627 -0.26700458
-0.83912146 -1.3219435 -0.81985134 -0.87035257 0.12547036 0.0700124 -0.07784734 -0.46606046
-0.3638841 -0.20137823 -0.730849 -1.6066762 -0.6072697 -1.3048148 -0.4872759 -0.6122305
-1.4685122 -0.37915727 -0.48950958 0.04134738 -0.26610118 -1.2258041 -1.0741717 -0.48546427
-2.2058463 0.17757331 -0.34276012 -1.5133381 -0.48693937 -0.9180959 -1.290357 -0.5661124
-0.44095019 0.40260917 -1.0095527 -0.10212777 -0.9035501 -0.30355102 -0.22520168 -0.48561195
-0.56036186 -0.4696664 -0.30116707 -0.43327677 -0.9314388 -0.73886734 0.023924956 -1.0388064

fc2.weight f4 [128, 130]
00000000: 2449 f53d 4e19 013c c953 653e c095 703d
00000010: 4860 203e f6a5 943d 186d 02bd 3ced 8d3c
00000020: a224 4a3f ed3f 8a3d 827d 873d 6d1c ccbd
00000030: 577b 8dbf 79c7 c7be 1d35 9abe c6c7 553e
00000040: 0e11 9c3d 74c6 df3d 44b6 663d d573 61bd
00000050: 29d8 8f3b 1031 0bbf be14 883c d042 87be
00000060: e46f 52bd acbc bf3d 3647 863c 7428 b13c
00000070: d7b4 0ebe 1b97 0cbf d15a fa3e 64d5 38be
00000080: f84d f93d 7647 f63c d1d2 1d3e ce73 fd3e
00000090: 9c0b 603e d8b9 dc3d ca51 923d e646 793e
000000a0: 38f9 0dbf ec71 0f3e 6ae8 81bd 7dd0 633e
000000b0: 65c2 4fbd 42a7 49bb 1730 8abe 4608 7dbd
000000c0: 0fed 68bf ba58 37bf a7fc 79bf 5f57 87bd
000000d0: ef86 5dbf 8362 edbe 1c3e bfbf 38bf 9e3d
000000e0: 35a8 1c3c 36b3 193e 7e80 07c0 7b9e 9ebd
000000f0: f0fe 83be 9dcf 84be 2586 a9be be73 7cc0
00000100: 74b9 ecbe 0d87 7abf 2296 52be 3001 173f
00000110: e2ff d93d 37a6 69be 3735 9dbd e240 b8bc
00000120: c269 1a3d 118b f9bd 306e 1bbe 3fff 193e
00000130: 4079 3ebf 0c6f e93e f7b6 01be 7fed ffbe
00000140: 4a8d 39c0 f6d6 4f3f d437 99bd a5c2 203f
00000150: 2851 653e 4398 9fbb bd5e 483e 758c 9dbd
00000160: 8e7c 8fbf debb c2bf 7afb 993d 8844 23be
00000170: 92f7 8cbe cc73 73be dfec 07be c518 da3c
00000180: 46ef a1be cc4b 7dbd 4fb2 a8bf ff80 aabd
00000190: f3ff 003f d0ae e4c0 25c5 1f3d 91b3 64bd
000001a0: 2396 7fbe e95e 59bf 32fb 2fbe 7014 a63d
000001b0: a1e4 9b3d 7a4a c23d 472f 713f 657c ba3d
000001c0: 74cf 09c0 6cc9 7dbd 182c 18be bec0 d13e
000001d0: e5b2 8d3b 2bee 0f3c 2f87 c0bf 4ae9 d0bd
000001e0: bdf7 a63d 8a4a 2c3f 9ff4 d4bd a9c6 59bc
000001f0: bb19 05be 4850 1fbe c524 9dbe f9f3 623c
00000200: 6b82 42bc f230 adba a485 de3f c23c 27c0
00000210: 8ebd 733f 1896 3fbf 6599 e2be be24 1d3f
00000220: 3d83 bbbf 2c46 0cc0 bafb 5c3f 28a9 26bf
00000230: c9a7 c5bf 2c42 5e3d b526 5e3f 879f 883e
00000240: f691 d2bd c049 97bd ffb5 c4bf d561 9e3e
00000250: 59cb acbe 3d6d f03d e3d5 88bf 82ce 703f
00000260: 4aba 9bbf 5735 aabe 2122 8d3f eaec d43f
00000270: 1dff 3abf 5bbd 3a3d 63b1 9bbf be21 d1bf
00000280: 1daa 2f3f 2e51 ec3d 566f 3ebe 08ff 7dbf
00000290: fe7b b33e fca4 bebe 693e 46be 24d2 a6bf
000002a0: 2dff b5bf b684 ffbe 87e0 26c0 3efc dd3e
000002b0: 563e 8dbf 82a9 9e3e e77f 4ebf 9069 d23e
000002c0: 7a14 4a3d 0dde 5ebe f062 003f e926 8bbf
000002d0: 9f7c 7ebe fbf5 abbf 0f34 fe3f 8368 febe
000002e0: 1b04 81c0 8223 e5bf 3412 39be 028c 0ebf
000002f0: d956 93be ba93 313d c456 3dbf e27b 24bf
00000300: b841 b5be b7b6 923f a152 3ebe 8120 523f
00000310: 44fe 54c0 bab5 273e c69c 1d3f 1e4d b7bf
00000320: 1370 f2bd d754 6c3f 545c dfbf 5ada eabf
00000330: ec8e 34c0 68ef a4be 3ec5 acbe 18b1 17bf
00000340: dab7 a53e df8f 6bbd f769 a4bf dc6f 7ebd
00000350: b72c 72bf f87e 89be 3535 35c0 eed8 a3c0
00000360: faf4 b4bf 1ccb 203f 8549 2abf 115f c6c0
00000370: 1f5c 023e 5817 2dbf bcc5 aebf 0850 693d
00000380: 0cca 0dbf 96e5 fcbe dff5 adbe 1939 b33e
00000390: 34d9 03c0 61a7 3abe f274 92bf 89c9 25c0
000003a0: 76d1 d3bf 803f adbf e26e df3e 7768 a6be
000003b0: 1d9b a23d 1d26 dcbe cf15 a8bf 32a3 383e
000003c0: 22c8 4ac0 0738 62bf 49b8 79be 9c13 e9be
000003d0: b5a5 04c0 8883 653f 3bb1 053e 3902 dbbe
000003e0: e6f5 29c0 e01b a6bf 9f66 2ebe f1b6 ac3f
000003f0: 9cb3 b2be 35bd ef3f b134 43be 267f 59bf
0.11976841 0.007879568 0.22395243 0.058736563 0.15661728 0.07258217 -0.03184232 0.017325036
0.7896215 0.06750474 0.066157356 -0.09966359 -1.1053265 -0.39019373 -0.30118647 0.20876989
0.076204404 0.10926524 0.056326166 -0.055042107 0.004389782 -0.5437174 0.016611453 -0.2641816
-0.05137624 0.09362158 0.016391378 0.021625735 -0.13936172 -0.5491807 0.48897412 -0.18050152
0.121730745 0.030063372 0.15412451 0.49502414 0.21879429 0.107776344 0.07144506 0.24343452
-0.554584 0.14008301 -0.063431576 0.222475 -0.0507225 -0.003076986 -0.26989815 -0.06177547
-0.9098672 -0.7161976 -0.9765114 -0.066084616 -0.8653402 -0.4636422 -1.4940829 0.07751316
0.009561588 0.1500977 -2.1172175 -0.077450715 -0.2578044 -0.25939646 -0.33110157 -3.9445643
-0.4623524 -0.9786232 -0.20565084 0.58986187 0.10644509 -0.22817312 -0.076761656 -0.022491876
0.037698515 -0.12184728 -0.15178752 0.15038775 -0.7440376 0.45592535 -0.12667452 -0.49985883
-2.8992486 0.8118738 -0.074813515 0.62797004 0.2239424 -0.004870446 0.1956739 -0.07692806
-1.1209886 -1.5213583 0.075186685 -0.15944111 -0.2753263 -0.23774642 -0.13273953 0.02662314
-0.31627864 -0.061839864 -1.3179415 -0.08325385 0.5039055 -7.1463394 0.03900637 -0.05583531
-0.24959616 -0.84910446 -0.17185667 0.08109367 0.07611967 0.094868615 0.94212765 0.091057576
-2.153287 -0.06195967 -0.1486057 0.40967363 0.0043243044 0.008784811 -1.5041255 -0.10200746
0.08152721 0.6730124 -0.1039822 -0.013291993 -0.12998097 -0.15557969 -0.30692115 0.013852113
-0.011871914 -0.0013213439 1.7384534 -2.6130834 0.9521111 -0.748384 -0.44257656 0.6138419
-1.4649426 -2.191783 0.86321604 -0.6510186 -1.5441829 0.054262325 0.8677781 0.2668421
-0.10281746 -0.073871136 -1.5368041 0.30934015 -0.33748892 0.117395855 -1.0690273 0.94065106
-1.2166226 -0.3324382 1.102604 1.66348 -0.7304552 0.04559074 -1.2163509 -1.6338422
0.6861895 0.11538921 -0.18597159 -0.9921727 0.35055536 -0.37235248 -0.19359745 -1.303288
-1.4218498 -0.49905938 -2.607454 0.43356508 -1.1034648 0.309887 -0.80663913 0.41096163
0.049335934 -0.21764393 0.50150967 -1.087125 -0.24852227 -1.3434442 1.9859637 -0.4968911
-4.031751 -1.7901461 -0.1807335 -0.55682385 -0.28777197 0.043353774 -0.7396052 -0.6425153
-0.35401702 1.146201 -0.18586208 0.8208085 -3.3280191 0.16377917 0.6156734 -1.4320409
-0.11837783 0.92316955 -1.7450051 -1.8347886 -2.8212233 -0.32213902 -0.33744234 -0.592546
0.3236683 -0.057510253 -1.2844838 -0.062118396 -0.9459948 -0.26854682 -2.8313725 -5.1202307
-1.4137261 0.6280992 -0.6651843 -6.199105 0.12730454 -0.67613745 -1.3654094 0.05696109
-0.55386424 -0.4939391 -0.33976647 0.350045 -2.060132 -0.18227912 -1.1441939 -2.5904257
-1.6548297 -1.3535004 0.43639284 -0.32501575 0.07939742 -0.42997828 -1.3131655 0.18031004
-3.1684651 -0.8836674 -0.24386705 -0.45522773 -2.072614 0.89653826 0.1305589 -0.42775133
-2.6556334 -1.2977257 -0.17031334 1.3493329 -0.34902656 1.8729616 -0.19063069 -0.8495964

fc2.bias f4 [128]
00000000: 9400 b13f 721d 2b3e 176d e2bd bee9 0bbf
00000010: a3b7 ddbc 1022 073d d6d0 f0bd 0324 c1bd
00000020: 88a8 debe edbc b93e a4ec 593a 9e8d 9abf
00000030: 59de 89be 0f1a 2abf 476f 17bf 2c0c a9bd
00000040: 645e f7be 2783 fabd 76de c7bf ab7b 6f3d
00000050: 2e72 16be 0715 85be 6d4e 263f dfe9 0abf
00000060: 6262 8dbf 2e7f e53e 2acd af3e 209f a2be
00000070: 6be1 62be c5cb 81bf 5dbd 273f a5a5 703e
00000080: 691a c4bd 537d 11be 1eaa 403e 3491 03be
00000090: 7306 7dbf 1a44 bc3e 5ed9 663e 0a51 afbf
000000a0: c4c5 21be 7a6d 3f3e cd51 57bd 8884 45bf
000000b0: 9f33 3ebe 8fef f2bd 2228 13be b5ac 16bf
000000c0: 9e26 07be 8401 cbbe 817d ecbd a53e 9e3f
000000d0: f94f c5bf 52df 12be 45bb 1bbe a145 dfbd
000000e0: 060b fabd 660d 15bf f330 5cbe 2a72 b13e
000000f0: d29b 21be e16d 1abe 0f15 b03e d51e 48be
00000100: a8a4 1cbf cb6f d2bd a6ed d6bd c996 103e
00000110: 9c04 9a3b b96e c3bf 1b71 063e 3222 0cbe
00000120: a76b 97be e4ee 50bf 7809 0c3f 4d72 f5bd
00000130: 20e8 a7bd b515 0e3f 2cfb e8bd dae9 20be
00000140: 1317 f5be f9e6 bfbd b81f 8dbe c024 123f
00000150: fd55 06bf 32e3 9dbe a67b 33be fc4d c6bc
00000160: f64a d03e 44e3 cabd a09e 973e d975 06be
00000170: 3a5e f6be 32bb 05be 403c 0e3e a0b0 f8bd
00000180: a757 8dbe fb07 cb3d 0f56 11bf bd78 04bf
00000190: fb1f 52bf 65a7 93bd c8d5 093f a1c7 e8bc
000001a0: ffe2 813e 7b24 11bf 0bdd 963e 809d 06be
000001b0: 15d0 f5bc e539 4ebe 0639 e4bd 6603 b7be
000001c0: 4cf5 f9bd 8be5 ecb8 98f7 84bd a6ee febd
000001d0: 6e9e 59bf 95e9 e6be 4c67 01be 2a34 cbbd
000001e0: a2b4 473e c6b1 15be 2e65 82bf 859f f0bd
000001f0: a85a 6e3f 6df2 393f 3d56 cfbd b3b8 2a3f
1.3828301 0.16710451 -0.110559635 -0.5465354 -0.027065104 0.03299147 -0.11758582 -0.09430697
-0.43487954 0.3627695 0.0008313155 -1.2074468 -0.2692745 -0.6644601 -0.5915417 -0.08254275
-0.48314202 -0.122320466 -1.5614765 0.05846755 -0.14691994 -0.25992605 0.6496342 -0.5426311
-1.1045649 0.44823593 0.34336215 -0.31762028 -0.22156303 -1.014031 0.6552332 0.23500688
-0.0957535 -0.14207964 0.18814895 -0.1284836 -0.98837966 0.36770707 0.22543857 -1.3696606
-0.15798098 0.18694106 -0.052568246 -0.7715535 -0.1857438 -0.118620984 -0.14370778 -0.5885728
-0.13198325 -0.39649594 -0.115473755 1.2362868 -1.5415031 -0.14343002 -0.15208156 -0.109019525
-0.12209134 -0.5822357 -0.21503048 0.34657413 -0.15782097 -0.15080978 0.34391066 -0.19543011
-0.61188745 -0.10275229 -0.104945466 0.1412002 0.0047002565 -1.5268165 0.13129084 -0.1368492
-0.2957432 -0.8161452 0.5470195 -0.11984692 -0.08198571 0.5550187 -0.11376032 -0.15714207
-0.47869167 -0.093702264 -0.27563262 0.57087326 -0.5247496 -0.308374 -0.17527637 -0.024207108
0.4068219 -0.09906629 0.2961321 -0.13130893 -0.48118764 -0.1305969 0.13890171 -0.121430635
-0.27605936 0.099136315 -0.5677194 -0.5174673 -0.8208005 -0.07209662 0.5384183 -0.028415503
0.25368497 -0.5669629 0.29465517 -0.13146019 -0.030006448 -0.20139273 -0.11143689 -0.3574478
-0.1220499 -0.00011296113 -0.06492537 -0.12447862 -0.8500737 -0.45100084 -0.12637061 -0.09922059
0.195025 -0.14618596 -1.0187128 -0.11749176 0.9310708 0.7263554 -0.101238705 0.6668808

fc3.weight f4 [1, 128]
00000000: 9254 a03c 137f c9bd ec5a 84bc 7fd6 353d
00000010: 81b3 bdbd b27d 46bd a7cb 513b 34ec d43e
00000020: 6c4d f5bd 7d18 b03c 00f1 12bd e9dc dcbc
00000030: e4bb b23d 78d6 3d3d d0aa 533d 2274 51bb
00000040: bff7 4bbd 2a08 1d3b 125d 943d da84 0e3e
00000050: 1044 903b d7dc dfbd 31ac f23d 98e4 88bf
00000060: 356b fdbd b34b 2b3d 3e91 27bd 7010 633d
00000070: 78c0 8fbc 1dd1 2ebd fec9 a5bd a516 0cbd
00000080: c70e ce3b d3c7 58bd bad0 423c c4e4 e7bc
00000090: c94a 8abe 0078 30bd 671f e7bc e7e0 1d3e
000000a0: cffb e438 0033 2f3c a407 01bc 3864 8dbd
000000b0: 0f46 93bc 0320 9aba 0052 68bc 5ed3 19bd
000000c0: 44cb a3bc cede 33bd 0d87 ba3d d3f7 e43c
000000d0: b917 85bd 397c 1fbc b72f 203d 3544 c4bc
000000e0: 36fd b93b e661 0ebe f9e2 553d 346a 103d
000000f0: d5bf ebbc a942 be3b 89f4 2b3d a7d2 743f
00000100: 1734 e5bd 41bb 2c3d 9f68 39bc 4632 33bd
00000110: e040 a73d f4f4 6bbd bd0b 0f3e 94ca 1abd
00000120: 9432 be3c 1146 e8bd da01 f53c 0065 abbc
00000130: 0f2c cdbc e6c8 9cbd 96a7 a03c 430f 643d
00000140: 10da 40bd 1d51 573f cddb 823d 3a2e d7bc
00000150: c185 813d bc69 b2be 4c0e ab3c 882f 0e3c
00000160: 3357 00bd a237 a73a c96a 60bd 2956 e33c
00000170: 8b16 04be d539 97bb d2ae 423c a106 ea3c
00000180: 3dfa 80bd 8e0a 71bd 44fc 89bd f02c ebbd
00000190: e290 803d c3b7 e03c b777 8ebd d4ab 72bc
000001a0: 2bbe aebd c786 8cbd 2146 423d ec6b 0eba
000001b0: f80d 85bc 66ed ba3c fb09 1bbc 38bc 17bd
000001c0: 53bc 84bb 9759 0ebd 13f9 b7ba 3c91 0c3c
000001d0: a12d 62bd bf26 233d 00d1 1e3d 5372 54bc
000001e0: 5ee6 97bd f19f d8bc 1597 71bd 6a53 563b
000001f0: 8567 2e3d e8ec 3cbd 1475 aebc 9989 0abd
0.019571576 -0.098386906 -0.016156636 0.044394013 -0.09262753 -0.048459716 0.0032012255 0.4158646
-0.11977658 0.021496052 -0.035874367 -0.026960807 0.087272435 0.04634711 0.05167657 -0.003196009
-0.049796816 0.0023961165 0.07244314 0.13917866 0.004402645 -0.10930794 0.11849249 -1.0694761
-0.12373964 0.04182024 -0.040909998 0.055435598 -0.017547831 -0.042679895 -0.080951676 -0.034201283
0.0062883827 -0.052924942 0.011890585 -0.028307326 -0.27010182 -0.04308319 -0.028213216 0.15417825
0.0001091879 0.010693312 -0.007875357 -0.06903881 -0.017977742 -0.0011758808 -0.014179707 -0.03755509
-0.019994386 -0.043913655 0.0910779 0.027950203 -0.06498665 -0.009734207 0.039108004 -0.023958305
0.005675937 -0.13904533 0.05221841 0.035257533 -0.028777996 0.0058062864 0.041981254 0.9563393
-0.11191576 0.042170767 -0.0113164475 -0.043749116 0.08166671 -0.057606652 0.13969322 -0.03779085
0.023217477 -0.11341489 0.02990811 -0.020922184 -0.025045423 -0.07655506 0.019611161 0.055678617
-0.04708296 0.84108144 0.0638958 -0.02626716 0.0632434 -0.34846294 0.02088084 0.0086783245
-0.03133316 0.0012757669 -0.05478934 0.027751045 -0.12899224 -0.0046150484 0.011882501 0.028567614
-0.06297729 -0.058847956 -0.06737569 -0.114831805 0.06277634 0.027431374 -0.069564275 -0.014811475
-0.085323654 -0.06861644 0.04743016 -0.0005432952 -0.016242012 0.022818279 -0.009462829 -0.037044734
-0.0040507703 -0.03475341 -0.0014036022 0.008579548 -0.055219296 0.039831873 0.038773537 -0.01296671
-0.07416986 -0.026443454 -0.058981974 0.0032703527 0.042579193 -0.04612437 -0.021296062 -0.03382263

bn1.weight f4 [24]
00000000: 9e15 ee3d b352 423e 719b b73d c8d3 823b
00000010: fc75 393f 37d2 c23e 2911 713b d406 cb3d
00000020: c802 633c 8f41 acbb fc56 27bc 89f3 303a
00000030: 6250 163f caf0 fb3e 26fc c43d 1ebd eb3d
00000040: 67ba c03e eba3 823e 3ccb b23b 65ac 423e
00000050: 95e2 943f 5a9a 153f 24a7 233e be9e 72b9
0.11625217 0.1897686 0.08965195 0.0039925314 0.72445655 0.38051006 0.003678391 0.09913412
0.013855644 -0.0052568386 -0.01021361 0.0006750157 0.58716404 0.49207145 0.09618406 0.115106806
0.37642214 0.25515684 0.0054563563 0.19011076 1.1631647 0.58438647 0.15981728 -0.00023138055

bn1.bias f4 [24]
00000000: 2d01 bbbc 868d a83d 34da 313c 1c09 5c3b
00000010: 3c09 453e b805 f23e 88cc 213c 1837 d7b9
00000020: c6c4 ab3b 16a7 2abb a8ff 843b 7140 753a
00000030: bfde 543d 2ae2 243f 0d79 9a3c c06e 6fbc
00000040: cc38 12be 18ca f33c cd42 fdbb 8fdf 84bd
00000050: 320f c43d c3da 313f da0c 80ba 186d 5839
-0.02282771 0.082301185 0.010855246 0.0033574766 0.19241804 0.47269988 0.009875424 -0.00041049044
0.005241963 -0.0026039532 0.004058797 0.0009355611 0.05197024 0.644076 0.01885655 -0.014613807
-0.14279479 0.029759452 -0.0077289105 -0.06487953 0.09573211 0.6947443 -0.0009769455 0.00020640006

bn1.running_mean f4 [24]
00000000: f198 fbc0 6658 22bf 9091 3a40 840e 01be
00000010: fd99 dfbc a19c 5940 9091 3a40 840e 01be
00000020: 2540 fcc0 f4a2 22bf d7bd 4840 6b05 ffbd
00000030: cdbf 23bc 6a02 5a40 d7bd 4840 6b05 ffbd
00000040: 9471 fdc0 66f9 22bf 235a 4440 fc96 d9bd
00000050: 5491 4cbb 8169 5a40 235a 4440 fc96 d9bd
-7.8624196 -0.63416135 2.9151344 -0.12603194 -0.027295107 3.4001849 2.9151344 -0.12603194
-7.88283 -0.63529897 3.136587 -0.12452205 -0.009994459 3.4063973 3.136587 -0.12452205
-7.9201145 -0.636618 3.0680015 -0.10624501 -0.0031214552 3.4126894 3.0680015 -0.10624501

bn1.running_var f4 [24]
00000000: 9837 6241 d2c1 893f b8e1 a643 27ad 6641
00000010: 6e2a cd41 ffd1 3540 b8e1 a643 27ad 6641
00000020: 1600 6041 0e08 8a3f 31ad a843 9187 6541
00000030: 8119 cd41 a03d 3440 31ad a843 9187 6541
00000040: e5b1 5f41 e50e 8b3f 4819 a743 667d 6441
00000050: 40de cd41 0490 3540 4819 a743 667d 6441
14.138573 1.0762274 333.76343 14.4172735 25.645718 2.8409421 333.76343 14.4172735
14.000021 1.0783708 337.35306 14.345597 25.637453 2.8162613 337.35306 14.345597
13.980931 1.086392 334.1975 14.280615 25.73352 2.836915 334.1975 14.280615
